data/models/test/checkpoints/epoch_40.pt (torch, 6305 bytes, 6 tensors)

layers.0.weight f4 [16, 4]
00000000: 430e 2ebd 1181 10be 578e e1be d17a 183e
00000010: e332 1cbf 5abb 9d3e a57d 9c3d 6001 3dbe
00000020: 3148 e63e c8ea 283d 06c0 0b3f d50d 433b
00000030: aab0 d13e 9fce 72be 6e29 0abf 1a07 a3be
00000040: 723c bf3e f45d 943d fc9c 253e 4b49 8b3d
00000050: b940 a93d 2434 193d edee 043f 8926 a53d
00000060: 667b 983e 3683 d93c 80e5 d9be 5933 043f
00000070: 3e9c c8be c69e bc3e 4339 943d d199 143e
00000080: 3243 0abf f50d b9be 087f 683e cff7 3d3e
00000090: 1a26 b53c b8db 08bf d67e d83b 8f59 95be
000000a0: b275 76be 6287 1fbe 919f f83e 2ce3 98bd
000000b0: 8fd1 31bb fb20 02be b1ca de3e 6e26 14be
000000c0: b0cc dbbd 4645 d5bd a08d ccbe 250a acbe
000000d0: 2cf8 4d3e 304e 65bc a1e6 983e 29bb 073f
000000e0: cec4 813d 3fb4 f2be e033 033f 8eb2 e73d
000000f0: 0148 a6be f197 66be 7905 5dbe c7a4 8bbc
-0.04249407 -0.14111735 -0.4405391 0.148906 -0.61015147 0.30807 0.07641152 -0.18457556
0.44976953 0.04123953 0.5458988 0.0029762883 0.40955096 -0.23711632 -0.53969467 -0.31841356
0.37350804 0.07244483 0.16173166 0.06801089 0.08264298 0.03740324 0.5192707 0.080639906
0.29781646 0.026551824 -0.42557907 0.5164085 -0.39181703 0.36839885 0.07237484 0.14511801
-0.5400878 -0.3614346 0.22704709 0.18551563 0.022112895 -0.53460264 0.006606917 -0.2916989
-0.24068335 -0.15578988 0.4855924 -0.074652046 -0.0027132963 -0.12707894 0.43514016 -0.14467785
-0.107324004 -0.104136035 -0.399518 -0.3360149 0.20114201 -0.013995692 0.29863456 0.5301996
0.06336366 -0.47403142 0.5125103 0.113133535 -0.3247681 -0.22518899 -0.21584119 -0.017046345

layers.0.bias f4 [16]
00000000: cb19 a2be 1af1 11bf 2766 223d 32e7 31bb
00000010: c5c3 433f 6388 ffba fc68 86bd b5e0 5b3d
00000020: 389a 3a3e 4e8f cdbe 97fa c0be 8436 6a3c
00000030: b166 d4be 5910 f6bd ab4c a43d f4f9 0c3e
-0.31660303 -0.57008517 0.0396482 -0.002714586 0.76470596 -0.0019495602 -0.06562993 0.053681094
0.18222892 -0.40148395 -0.37691185 0.014295224 -0.41484597 -0.12014837 0.08022436 0.13767225

layers.2.weight f4 [32, 16]
00000000: 67a7 843d 0183 893e 0642 debd 8764 55bd
00000010: 4bfd 08bd 2e22 983c 98e9 9fbd 426a 37bd
00000020: 7137 d93a ae7b 42bc 04e1 19be 173e 753d
00000030: bd78 9abe c8a1 703e ff31 143e 2f00 063e
00000040: d9c6 c43c fb3b 913e 69c4 01be f560 cabd
00000050: 803b 84be a9ab 88be b445 86be 6498 b63d
00000060: ad12 033d e002 aa3e 978a 583c 2429 033e
00000070: e4f7 e1be f51a dc3d 7948 6dbd e8ee 7f3e
00000080: 6df0 953d 6d94 463e ff02 9c3d bc58 953d
00000090: 7014 80bd 5c3a ebbd fad8 fe3a 3ee2 4fbe
000000a0: d40d c5bd a452 e03d 31e8 733d 3e6c 903d
000000b0: e7eb 7fbe b95c 3b3e f354 333e b1b9 323c
000000c0: 9b1e c73d 9c5e 8d3e fb14 153e 38c0 07be
000000d0: e4bd ce3c 5fec 58be 4244 c9be e383 cf3d
000000e0: 302a bdbe fe43 683e 9a3f 31be 3b2a 59bd
000000f0: 6a5b 313e 8910 63be bf21 263e b459 08bd
00000100: fea2 88be bd5a a13e 7a60 bdbd 2e72 563e
00000110: 70be bdbe 20bd 50be f82c 31be bdb2 46bd
00000120: 469e 95bc 19b9 fbbc d178 65be 0448 7ebd
00000130: dcb6 83be 83ad 843e 728c 873e bfeb 9e3e
00000140: 4f50 04bd 6e8c 8ebe 3e11 3c3d fc12 f63d
00000150: c91e 733e 7ea7 79be ecab 92bd c64e 673e
00000160: de19 cabe 3428 a53c 6078 103d e491 8bbe
00000170: 9ca1 843d 2560 aebd e6a7 963d 1169 2b3e
00000180: 71f3 d03d 2ea8 3a3e 0331 54be 209a c2bc
00000190: 523b 4e3e 77e5 133d 3b23 10be 111c ca3d
000001a0: 8f07 e1bd badd 2d3e c4ae b83d c4a3 5f3e
000001b0: cfab 813d 2d51 c6bd f02d 2e3e c7e9 f1bd
000001c0: 9020 3abd 76e2 8b3d fbf7 42be 95d9 88be
000001d0: dfaa 0fbe a1f2 f63c a348 70bd 94c6 613e
000001e0: 3968 bdbd 1b5b c3bd 5ef6 87be 14ad b63c
000001f0: 0a41 843e 4e0e 123d 83a9 3ebd ed16 183e
00000200: caa1 e1be 6d77 623e fd6f 89be f564 e1bc
00000210: ba85 01bf 0091 9fbd 59a4 9fbe 7942 603e
00000220: 5f93 683e 7f59 ee3d 2da8 95be 7747 8cbe
00000230: 3466 fcbe 0d76 da3e 202a 323d 0d2c cc3e
00000240: f11c 0bbe 82cf 873e bed2 40bd 1a12 b33d
00000250: fbcb 00be 0373 24be 6cd1 bcbe 393d f9bd
00000260: 0461 79be 4819 283e 1de2 d8be 2c24 15be
00000270: 9394 dd3d 89ac 77be e344 e9bd d895 07be
00000280: 0cd3 e3bd 96f6 b3bd ff24 60be 23c1 70bd
00000290: ef0d 8a3e 7859 a1bd 845f 143e 4e1b 593e
000002a0: 406e 333e 6634 223e 857a 94be c826 903e
000002b0: 20b6 8cbe 73e9 483e 0570 07bd 7b90 e4bc
000002c0: 38e3 3cbd bc22 63be 2454 b8bd a2f6 1ebe
000002d0: 927f 73be 2c7f e43d fc92 6ebe 60b8 af3d
000002e0: 5081 24be 08e3 083d 8c4f 433e c4f9 5dbe
000002f0: c80f 15be 90a6 7bbd 22c9 0b3e aef5 77be
00000300: 0632 e3bd dd84 5b3e 7e98 4ebe a073 683e
00000310: bf6c 253d 0efe 143e a5d4 3e3d dc54 3b3d
00000320: 7a22 23be 7e08 0abd f2a2 013e d001 d73d
00000330: 7e76 853e defc 0b3e a430 08be 305a 133e
00000340: 9566 79be 722f 96be 9f70 39be 4689 40bd
00000350: b33d c93d 4fa1 6ebe 042a ddbd 2cd2 1f3c
00000360: db54 043d e5a5 393d e03a 57be f0c1 2c3c
00000370: 916f 13be c690 dc3d db1e 5e3e 8784 073e
00000380: e710 95be b902 913e 7d86 72be 2445 963d
00000390: 0fdf cfbe a42d a5be c01f e9bd c6eb 373e
000003a0: ca4d 853e c742 a63d fcb2 86be 7ce1 903d
000003b0: 13d6 13be 6488 833e 7f89 6f3d b1c6 8ebc
000003c0: 0c33 c6bd eab5 093d 8558 8bbd 9849 d3bd
000003d0: e90c 693d 3a56 3fbc 4079 63bd 0c7c 1dbe
000003e0: 257f f93d 896e 93bd 98da 493e 686d cbbb
000003f0: 883a 22bd 4298 843d 9d4e 93bd 7397 d3bd
0.06477242 0.2685776 -0.10852437 -0.052097823 -0.033444684 0.018570986 -0.07808226 -0.04477907
0.0016572309 -0.011870308 -0.15027243 0.059873667 -0.3017024 0.23499215 0.14472197 0.13086008
0.0240206 0.28366074 -0.12672581 -0.09881774 -0.25826645 -0.26693466 -0.26225054 0.08915785
0.032000232 0.33205318 0.013216636 0.12808663 -0.44134438 0.10747329 -0.057930443 0.24993479
0.07321248 0.19392557 0.07617759 0.07292315 -0.06253898 -0.114857405 0.0019443326 -0.20301148
-0.09621778 0.109532624 0.059547607 0.070518956 -0.24992333 0.1829709 0.17512874 0.01090853
0.097226344 0.27611244 0.14558785 -0.1325692 0.025237031 -0.21183918 -0.3930989 0.10132577
-0.3694625 0.22682187 -0.17309418 -0.05301879 0.17320028 -0.22174276 0.1622381 -0.033288673
-0.26686853 0.3151454 -0.09246917 0.20941994 -0.37059355 -0.20384645 -0.1730231 -0.0485103
-0.018263947 -0.03072791 -0.22409369 -0.0620804 -0.25725448 0.2591363 0.2647434 0.31039235
-0.03230315 -0.27841514 0.04591488 0.1201534 0.23742212 -0.243803 -0.07161698 0.22588643
-0.3947286 0.020160772 0.03527105 -0.27259743 0.06476137 -0.08514432 0.07356243 0.16739298
0.10202683 0.18228218 -0.20721821 -0.023755133 0.20139816 0.036107507 -0.1407594 0.098686345
-0.1098777 0.16979113 0.09017709 0.21839815 0.06331598 -0.09683452 0.17009711 -0.118121676
-0.04544121 0.06830303 -0.1903991 -0.26728502 -0.14030026 0.030144991 -0.05866302 0.22048408
-0.092483945 -0.09538861 -0.2655515 0.022299327 0.2583087 0.035658173 -0.046548378 0.14852495
-0.44068748 0.2211587 -0.26843253 -0.02751396 -0.50594676 -0.077913284 -0.31180075 0.21900357
0.22712468 0.11638164 -0.2922987 -0.27398273 -0.49296725 0.4266819 0.043497205 0.39877358
-0.13585259 0.26525503 -0.04707598 0.08743687 -0.12577812 -0.16059498 -0.36878526 -0.121698804
-0.24353415 0.16415894 -0.4236001 -0.1456458 0.10819354 -0.2418691 -0.11390092 -0.13240755
-0.11124238 -0.08787267 -0.21889113 -0.05877794 0.26963755 -0.07878393 0.14489561 0.21201822
0.17522526 0.15840301 -0.28999725 0.28154588 -0.274827 0.19620304 -0.033065815 -0.027900925
-0.04611513 -0.22181219 -0.090004236 -0.1552377 -0.23779133 0.111570686 -0.23298258 0.085800886
-0.16064954 0.03341964 0.19073313 -0.2167731 -0.14556801 -0.061438143 0.13650945 -0.24214813
-0.110935256 0.21437402 -0.20175359 0.22700357 0.04038691 0.14550039 0.046589512 0.045735225
-0.1593112 -0.033699505 0.12659815 0.104983926 0.26066965 0.1367068 -0.13299805 0.14389873
-0.24355538 -0.29333073 -0.18109368 -0.047005914 0.09826221 -0.23303722 -0.107990295 0.009754699
0.032307487 0.045324225 -0.21018553 0.010544285 -0.14398028 0.10769801 0.21691458 0.13234149
-0.29114458 0.2832239 -0.23684116 0.07337406 -0.40599868 -0.32261384 -0.11383009 0.17961034
0.2603591 0.081182055 -0.2630843 0.07074258 -0.14437132 0.25689995 0.058480736 -0.017428728
-0.09677705 0.033620752 -0.06803993 -0.10316771 0.056897078 -0.011678273 -0.055535555 -0.15379351
0.12182454 -0.07198817 0.19712293 -0.0062081106 -0.0396066 0.064743534 -0.07192729 -0.10331621

layers.2.bias f4 [32]
00000000: 4297 503e 75e4 83bd e230 223d 16b2 c1bd
00000010: d67b 1e3e b820 42bd 4bfd 973e d248 6d3e
00000020: efa0 63be 1466 9a3e 01fb 963e 885f 8e3d
00000030: 4239 3f3e 3453 03bc 3ae9 30be 163f 76be
00000040: 9fed 5a3e 5b24 ea3d e71d 1b3e 8276 cd3d
00000050: 4391 59be 893c 08be eb05 4bbe dd3e 2cbe
00000060: 19e7 6cba 0c79 6f3e 95b4 e1bd 74b8 303e
00000070: de57 edbd ba6a b6bc 5ebb 8b3d 5771 4b3e
0.203702 -0.06440059 0.0395974 -0.09457795 0.15476927 -0.047394484 0.29685435 0.2317231
-0.2222936 0.30156004 0.29488376 0.06951815 0.18674186 -0.008015443 -0.17276469 -0.24047503
0.21379708 0.114327155 0.15148126 0.10032369 -0.21246819 -0.13304342 -0.19826476 -0.16820855
-0.0009037122 0.2338602 -0.110207714 0.17257863 -0.11589025 -0.022267688 0.06822847 0.19867454

layers.4.weight f4 [5, 32]
00000000: e874 3f3e 9979 a33e b948 143e 281e 80bd
00000010: 3c76 423e 5cc7 9b3d 5565 fabc 71d3 15be
00000020: 68ef ab3e 7972 febd 5676 bc3d b1e5 143e
00000030: d04c 123e 2273 6b3e 237f 3f3d 751e 233e
00000040: 2045 2fbe 26a0 80bd 24a6 fe3c fcf4 943d
00000050: 9bf1 473e 6c9d b3bc 3a1e c13e b1ad 81be
00000060: 3574 7d3c 96ee 8c3b 8c29 72bd 906b 31be
00000070: 3170 49be 75b9 3cbd 8e2a c13d 20c5 263e
00000080: 9af9 893d 0904 53bd b978 1dbe 6604 67bd
00000090: 9de3 0b3d 225c 983d 7327 4f3d a287 abbd
000000a0: 7fa9 5b3e ca96 92bd 6607 aabd 3cad 373d
000000b0: 58e2 613c 1d89 513d 0fe9 92bd 7c0d edbd
000000c0: 43f3 1ebd 2ab1 a23d 84a2 363e 07b5 1f3e
000000d0: 7bf7 913d 7ac1 09be efe4 2ebd 6035 503d
000000e0: dffc c03c d070 1fbc 88b4 2fbc 68b7 983c
000000f0: 4da3 2dbd 8e30 293d 6944 a33d e181 af3d
00000100: bd2d 19bd 7492 0d3e 2bc0 ecbc ed3a 02be
00000110: 55f1 523e c87a 463d 37a8 b4bd 05a9 f8bd
00000120: 33c8 613e a354 c63b e27e f63d 48b6 05bd
00000130: 459a 57bd 753e 34bd 680d 053e 8094 5bbe
00000140: 7318 0a3e 164e ecbc 6d1f fcbd 0d3c 9e3d
00000150: c66f 73bd c690 13bd f37f 5f3d 8b70 a03c
00000160: 0c96 3c3e 660d e13d c3c3 28be c154 f93c
00000170: 06c3 ca3d 9cd2 113e a43c ecbd 13cd 493c
00000180: ee7b d83b 1b23 0b3c eeda 7fbd 0af5 e9bc
00000190: 95f7 763d 3594 a73e 57e0 59be 705b 53be
000001a0: 5528 8f3e 32fb fdbd 7f3f a5bd 3998 1e3e
000001b0: 377c a73d 660a 2bbe 4db3 8abd ccc0 c1bd
000001c0: 1ae9 80bd 3595 373d e27f aa3d 3525 8a3e
000001d0: a475 0fbe b551 c4bd 5234 a13e 6b75 653e
000001e0: 187b babd 6b1e 7b3d d986 4f3e 43fc f63d
000001f0: ea1a 103e d519 2e3e 6038 43be 4310 e8bd
00000200: 6533 2ebd 5f7f 0bbf 82ad 433d 8bfd f73e
00000210: b516 15be 0d62 61bc 83f6 3dbc 4296 103e
00000220: ca63 08bf 157c 633e 1cf3 ea3d 407b 193c
00000230: 0d55 2a3e c96d d33c ac7b 10bf b0a3 9c3d
00000240: c756 7d3e 344e 1ebe c062 c0bd 4723 06bf
00000250: 540f bcbe 4f22 9bbe e87a afbe da55 ea3c
00000260: c240 f1bd f870 053e 9569 573e e073 c43d
00000270: 5d9f 81bc 7048 71bd b73e 62be bc09 34be
0.1869694 0.3192871 0.14480866 -0.06255752 0.18990415 0.07606384 -0.030565897 -0.1463144
0.3358109 -0.12424178 0.09202258 0.14540745 0.14287114 0.22993138 0.046752106 0.15929587
-0.17116213 -0.06280546 0.031085081 0.072732896 0.19525759 -0.02192565 0.37718374 -0.2532783
0.0154696 0.0043009026 -0.059121653 -0.17326188 -0.19671704 -0.046075303 0.09431945 0.16286135
0.06737061 -0.05151752 -0.15378083 -0.05640068 0.034152616 0.07439448 0.05057473 -0.08375479
0.21451376 -0.07157667 -0.083021924 0.044842944 0.013786875 0.051156152 -0.07173359 -0.115748376
-0.03880621 0.079439476 0.17835432 0.155964 0.07127281 -0.13452712 -0.042698797 0.050832152
0.023558078 -0.009731486 -0.010724194 0.018642142 -0.042392064 0.04130607 0.079720326 0.08569694
-0.037397135 0.13825399 -0.028900227 -0.12717791 0.20599873 0.048456937 -0.08821147 -0.12141613
0.22049026 0.00605257 0.1203592 -0.03264454 -0.052637357 -0.044004876 0.12993395 -0.21443367
0.13485889 -0.028845828 -0.123106815 0.077262975 -0.059432767 -0.03602674 0.05456538 0.019584915
0.18416613 0.10988884 -0.16480927 0.030435922 0.09900479 0.14240497 -0.11535004 0.01231696
0.0066065704 0.0084922565 -0.062464647 -0.028559227 0.060294706 0.3273026 -0.21276985 -0.2064035
0.27960458 -0.12401427 -0.080687515 0.15487756 0.08177989 -0.16703185 -0.0677248 -0.09460601
-0.062944606 0.04482003 0.08325173 0.26981512 -0.1400972 -0.09585897 0.3148523 0.22408073
-0.091055095 0.061308306 0.20266284 0.12059834 0.14072767 0.17002042 -0.19064474 -0.11331227
-0.042529482 -0.5449123 0.04777289 0.48435625 -0.14559443 -0.013756287 -0.0115944175 0.14119819
-0.53277266 0.22215302 0.11472151 0.009367764 0.16634007 0.025809186 -0.5643871 0.076484084
0.24740134 -0.1545952 -0.09393835 -0.5239758 -0.36730444 -0.30299613 -0.34273458 0.02860539
-0.1177993 0.13031375 0.2103637 0.09592414 -0.01582306 -0.058906972 -0.22094236 -0.17581838

layers.4.bias f4 [5]
00000000: 30b0 c4bd f9c5 cfbc 8950 0abd 4699 da3d
00000010: 1f7c a0bb
-0.096039176 -0.025362955 -0.03376821 0.10673766 -0.004897609
