data/models/test/checkpoints/epoch_170.pt (torch, 6317 bytes, 6 tensors)

layers.0.weight f4 [16, 4]
-0.0509879 -0.14211878 -0.44268164 0.1489137 -0.61611134 0.3067955 0.07674481 -0.17841095
0.44845092 0.029794123 0.5531974 0.0013945316 0.3933822 -0.2271429 -0.5494104 -0.32443196
0.37151888 0.07129289 0.16398399 0.06611042 0.085601814 0.03895749 0.5198012 0.09111388
0.29494327 0.0307516 -0.4260901 0.5227832 -0.40521055 0.3692967 0.075823046 0.15443219
-0.5381597 -0.3649225 0.2268818 0.18674013 0.021880636 -0.52943283 0.011181355 -0.31033698
-0.2529625 -0.16385993 0.4830471 -0.0794305 -0.001124554 -0.13319181 0.44038513 -0.15347031
-0.11267068 -0.10969434 -0.39442587 -0.34251654 0.2038732 -0.014267015 0.30438888 0.5415093
0.06165487 -0.479785 0.51867825 0.1111956 -0.32133353 -0.23071958 -0.22558583 -0.014771264
00000000: b0d8 50bd 9687 11be 2ba7 e2be d57c 183e
00000010: 79b9 1dbf 4d14 9d3e 622c 9d3d 5cb1 36be
00000020: 5c9b e53e ce12 f43c 589e 0d3f b7c8 b63a
00000030: 6469 c93e 2698 68be 29a6 0cbf f21b a6be
00000040: b937 be3e 0202 923d 6beb 273e e664 873d
00000050: 0150 af3d e491 1f3d b111 053f ea99 ba3d
00000060: ce02 973e c8ea fb3c 7b28 dabe 1fd5 053f
00000070: c277 cfbe 7514 bd3e 1d49 9b3d 7923 1e3e
00000080: d6c4 09bf 1fd7 babe b453 683e ce38 3f3e
00000090: 053f b33c e988 07bf 0132 373c 7de4 9ebe
000000a0: 4d84 81be e6ca 27be f351 f73e 75ac a2bd
000000b0: c565 93ba 6f63 08be 297a e13e 5227 1dbe
000000c0: e3bf e6bd 6da7 e0bd 30f2 c9be 545e afbe
000000d0: 23c4 503e 33c0 69bc dcd8 9b3e 5aa0 0a3f
000000e0: d189 7c3d 61a6 f5be 19c8 043f 85ba e33d
000000f0: d485 a4be c141 6cbe f9ff 66be 2c03 72bc

layers.0.bias f4 [16]
-0.31805065 -0.5812465 0.05408225 0.014151067 0.7748791 0.0028810997 -0.06965985 0.04257659
0.17607896 -0.39974698 -0.3770135 0.0038047102 -0.41634205 -0.1280059 0.082523964 0.13417435
00000000: 89d7 a2be 92cc 14bf 5985 5d3d e0d9 673c
00000010: 7a5e 463f d5d0 3c3b d3a9 8ebd ca64 2e3d
00000020: 0b4e 343e a3ab ccbe ea07 c1be 7258 793b
00000030: c92a d5be fb13 03be 5302 a93d 0065 093e

layers.2.weight f4 [32, 16]
0.06755814 0.27116147 -0.10922036 -0.05313104 -0.033006046 0.02115641 -0.08074034 -0.04745997
-0.0037884915 -0.011713932 -0.1538613 0.063541025 -0.30625856 0.24001749 0.1458046 0.12762392
0.027725564 0.2933694 -0.13375416 -0.0991944 -0.26851797 -0.27913967 -0.25470415 0.0886842
0.031838518 0.3324862 0.018070597 0.14077058 -0.44725597 0.11988397 -0.056170344 0.25575593
0.07804827 0.19714713 0.07040258 0.07764811 -0.062113814 -0.112465784 0.0021599156 -0.20684195
-0.10095046 0.10579321 0.057932053 0.07563585 -0.24853964 0.18429491 0.17678523 0.004363779
0.0946279 0.27743 0.14574808 -0.13654707 0.025759334 -0.21492238 -0.3995537 0.10454285
-0.38545778 0.22889262 -0.1877778 -0.05899179 0.16950299 -0.22679502 0.1627384 -0.03550295
-0.2676234 0.3296346 -0.10773498 0.2105492 -0.37081382 -0.21303473 -0.16514282 -0.052005127
-0.024387354 -0.03022896 -0.22960468 -0.058283236 -0.2654959 0.28289384 0.27048457 0.3107902
-0.04370641 -0.30227816 0.044657335 0.117088564 0.23875448 -0.25404713 -0.07277881 0.23649147
-0.39706922 0.02374883 0.031295877 -0.282418 0.063041754 -0.086626515 0.07458958 0.16256337
0.102277406 0.18763499 -0.2126132 -0.021728797 0.20143068 0.03537442 -0.14167653 0.095622845
-0.107758 0.17011322 0.085804395 0.21938321 0.060293056 -0.09842348 0.17061348 -0.118022546
-0.06394984 0.072061926 -0.20252034 -0.26928353 -0.13528061 0.025143497 -0.05815177 0.2302356
-0.07781027 -0.093022935 -0.27372357 0.014864156 0.26091874 0.024507852 -0.046974514 0.14630571
-0.43495744 0.23337567 -0.27606127 -0.0073381243 -0.5174543 -0.0675729 -0.3216218 0.22438294
0.22705047 0.11493006 -0.29836628 -0.27836883 -0.49323973 0.446542 0.042676 0.397006
-0.14617702 0.28007373 -0.046191823 0.090482935 -0.122294374 -0.17328508 -0.36770335 -0.11910362
-0.24902387 0.1673522 -0.45567718 -0.15373796 0.1138092 -0.254471 -0.12026186 -0.13843808
-0.11948608 -0.074770436 -0.22243501 -0.061032206 0.27007923 -0.07785444 0.14613527 0.21123625
0.1736338 0.14927061 -0.2922745 0.28533158 -0.2780226 0.19507426 -0.031813085 -0.028178267
-0.04611513 -0.22181219 -0.090004236 -0.1552377 -0.23779133 0.111570686 -0.23298258 0.085800886
-0.16064954 0.03341964 0.19073313 -0.2167731 -0.14556801 -0.061438143 0.13650945 -0.24214813
-0.113139175 0.2174965 -0.20123774 0.23256297 0.04073999 0.14814545 0.044755764 0.049459048
-0.15689702 -0.029542528 0.12252627 0.10401758 0.2696445 0.14278796 -0.13091852 0.14064392
-0.24318157 -0.29823405 -0.1981304 -0.04767305 0.09481906 -0.23566239 -0.11019271 0.019212812
0.03564163 0.051663645 -0.2147203 0.0042439657 -0.14893483 0.12137658 0.21539328 0.13162717
-0.29061246 0.3068703 -0.26937294 0.09026391 -0.42165047 -0.32217914 -0.10461622 0.1823534
0.25865582 0.09389481 -0.2558412 0.08682979 -0.15558876 0.2600871 0.058557525 -0.025647828
-0.09677705 0.033620752 -0.061623704 -0.10316771 0.05711834 -0.010339299 -0.055535555 -0.15122713
0.12118837 -0.08087435 0.19714497 -0.006500969 -0.0396066 0.06678298 -0.07223155 -0.10559473
00000000: ec5b 8a3d add5 8a3e edae dfbd ef9f 59bd
00000010: 5931 07bd 3550 ad3c 315b a5bd 6365 42bd
00000020: 5748 78bb cbeb 3fbc d18d 1dbe cc21 823d
00000030: eccd 9cbe 25c7 753e cd4d 153e d8af 023e
00000040: b920 e33c 8434 963e daf6 08be 6f26 cbbd
00000050: 307b 89be 65eb 8ebe 9568 82be 10a0 b53d
00000060: 1b69 023d a23b aa3e ca08 943c 2a26 103e
00000070: bcfe e4be ba85 f53d e012 66bd 71f2 823e
00000080: c5d7 9f3d f0e0 493e 3a2f 903d f905 9f3d
00000090: 0e6b 7ebd 7654 e6bd 5f8d 0d3b 60ce 53be
000000a0: 1dbf cebd 1caa d83d 294a 6d3d f8e6 9a3d
000000b0: 2d81 7ebe ceb7 3c3e 3007 353e 08fe 8e3b
000000c0: 46cc c13d 4e0b 8e3e fc3e 153e ffd2 0bbe
000000d0: 3d05 d33c 9d14 5cbe 4d92 ccbe 901a d63d
000000e0: b95a c5be d462 6a3e d348 40be 60a1 71bd
000000f0: 3192 2d3e f43c 68be e5a4 263e 8b6b 11bd
00000100: ef05 89be dec5 a83e 28a4 dcbd 369a 573e
00000110: 4fdb bdbe c725 5abe 331b 29be 5403 55bd
00000120: fdc7 c7bc b9a2 f7bc 7d1d 6bbe 67ba 6ebd
00000130: 14ef 87be 76d7 903e f47c 8a3e e51f 9f3e
00000140: 7e05 33bd 34c4 9abe 9cea 363d 21cc ef3d
00000150: 0e7c 743e 7712 82be 0f0d 95bd d22a 723e
00000160: a84c cbbe e88c c23c 1b30 003d 1899 90be
00000170: 091c 813d 3e69 b1bd 6cc2 983d 0377 263e
00000180: d176 d13d 6323 403e 46b7 59be 9700 b2bc
00000190: d843 4e3e c5e4 103d a713 11be e9d5 c33d
000001a0: 3ab0 dcbd 2932 2e3e 37ba af3d fea5 603e
000001b0: daf5 763d 4092 c9bd 4db5 2e3e ceb5 f1bd
000001c0: 22f8 82bd 3495 933d 7e61 4fbe 88df 89be
000001d0: 0087 0abe bcf9 cd3c 8d30 6ebd e2c2 6b3e
000001e0: fe5a 9fbd cf82 bebd 7f25 8cbe ca88 733c
000001f0: 2497 853e b1c4 c83c 5968 40bd 2ad1 153e
00000200: beb2 debe 08fa 6e3e e757 8dbe a674 f0bb
00000210: e377 04bf a963 8abd 9dab a4be a4c4 653e
00000220: eb7f 683e 7460 eb3d 77c3 98be 5c86 8ebe
00000230: eb89 fcbe 27a1 e43e 08cd 2e3d 5f44 cb3e
00000240: 6eaf 15be d365 8f3e a333 3dbd 1e4f b93d
00000250: 7975 fabd a571 31be 9d43 bcbe 99ec f3bd
00000260: 1d00 7fbe 605e 2b3e 854e e9be 7c6d 1dbe
00000270: cc14 e93d 064a 82be da4b f6bd b6c2 0dbe
00000280: 1eb5 f4bd 3e21 99bd 01c6 63be e8fc 79bd
00000290: d347 8a3e 2672 9fbd 7ca4 153e 514e 583e
000002a0: 0fcd 313e 65da 183e 01a5 95be fb16 923e
000002b0: fa58 8ebe 8cc1 473e 704e 02bd 1cd6 e6bc
000002c0: 38e3 3cbd bc22 63be 2454 b8bd a2f6 1ebe
000002d0: 927f 73be 2c7f e43d fc92 6ebe 60b8 af3d
000002e0: 5081 24be 08e3 083d 8c4f 433e c4f9 5dbe
000002f0: c80f 15be 90a6 7bbd 22c9 0b3e aef5 77be
00000300: 83b5 e7bd 67b7 5e3e 4411 4ebe fd24 6e3e
00000310: fade 263d 71b3 173e d251 373d 9295 4a3d
00000320: 9da9 20be 2c03 f2bc 0eef fa3d 2b07 d53d
00000330: d80e 8a3e 0237 123e 810f 06be f604 103e
00000340: 9704 79be 22b2 98be b2e2 4abe d144 43bd
00000350: 7f30 c23d 7b51 71be b7ac e1bd 3064 9d3c
00000360: f5fc 113d 429d 533d a3df 5bbe f710 8b3b
00000370: 5f82 18be 4994 f83d 0e90 5c3e 46c9 063e
00000380: 28cb 94be 1b1e 9d3e 40eb 89be 49dc b83d
00000390: 92e2 d7be aaf4 a4be 0741 d6bd daba 3a3e
000003a0: 896e 843e ec4b c03d 9efd 82be d1d3 b13d
000003b0: a952 1fbe 232a 853e 04da 6f3d 651b d2bc
000003c0: 0c33 c6bd eab5 093d 2369 7cbd 9849 d3bd
000003d0: ecf4 693d 2a66 29bc 4079 63bd 49db 1abe
000003e0: 9c31 f83d 74a1 a5bd 5fe0 493e 1506 d5bb
000003f0: 883a 22bd 84c5 883d 23ee 93bd 0d42 d8bd

layers.2.bias f4 [32]
0.20347 -0.0642811 0.040549707 -0.09327045 0.15361778 -0.04496489 0.2965429 0.2364495
-0.23037651 0.3043589 0.29519555 0.06951815 0.18533367 -0.0100888405 -0.18473937 -0.24171935
0.21539278 0.11406411 0.15169446 0.0902904 -0.21723557 -0.13697648 -0.20486395 -0.16877675
0.0015797772 0.23419036 -0.11322456 0.16962542 -0.116701484 -0.018290885 0.06895375 0.20204341
00000000: 715a 503e cfa5 83bd 7317 263d 9404 bfbd
00000010: fb4d 1d3e 1b2d 38bd 79d4 973e d11f 723e
00000020: d2e7 6bbe eed4 9b3e df23 973e 885f 8e3d
00000030: 1cc8 3d3e aa4b 25bc 512c 3dbe 4785 77be
00000040: ed8f 5c3e 729a e93d cb55 1b3e 2cea b83d
00000050: 0073 5ebe 9043 0cbe dbc7 51be d0d3 2cbe
00000060: 8710 cf3a 99cf 6f3e 47e2 e7bd 49b2 2d3e
00000070: 3001 efbd c4d6 95bc a037 8d3d 78e4 4e3e

layers.4.weight f4 [5, 32]
0.1914383 0.32638887 0.14890872 -0.068254374 0.2014069 0.071740314 -0.027473569 -0.15032975
0.3355871 -0.13543844 0.09250937 0.14540745 0.14627144 0.24296977 0.05124066 0.173225
-0.17285044 -0.060391445 0.031557027 0.07607536 0.20874386 -0.019024516 0.38013396 -0.25753048
0.016977657 0.0035949491 -0.06647004 -0.17723195 -0.21213582 -0.057004675 0.09307359 0.16670862
0.06638524 -0.045316666 -0.15312551 -0.0394909 0.02894824 0.07719306 0.04961788 -0.08013627
0.21732609 -0.06802859 -0.0828282 0.044842944 0.0111674825 0.04411217 -0.075515054 -0.13484405
-0.037972327 0.08055652 0.17628337 0.16363364 0.065961674 -0.1303794 -0.0414412 0.05063965
0.024955241 -0.008907505 -0.00444711 0.025723645 -0.039922617 0.05037137 0.078935064 0.09024624
-0.035660956 0.1426929 -0.03752198 -0.14381632 0.21423739 0.049340293 -0.08747496 -0.12684281
0.22102247 0.006179888 0.1203642 -0.03264454 -0.052824624 -0.034168944 0.13814656 -0.23123857
0.1325359 -0.029178284 -0.12185326 0.06918308 -0.05364582 -0.03859252 0.05281176 0.017053762
0.18368477 0.107051626 -0.16999751 0.029204695 0.101068154 0.14132433 -0.11401197 0.010184316
0.0016477592 0.008412695 -0.06326647 -0.03406274 0.05171756 0.33779392 -0.2147288 -0.20604315
0.2951256 -0.12472672 -0.08214029 0.15487756 0.07993051 -0.18588628 -0.049808998 -0.09871517
-0.06281163 0.043503113 0.08722122 0.28504363 -0.1487851 -0.095314234 0.33652544 0.22869891
-0.097402446 0.062160593 0.20421815 0.12357188 0.1495229 0.17597729 -0.19455786 -0.11259626
-0.045062087 -0.5779055 0.051168572 0.50444007 -0.16209419 -0.023941468 -0.014161947 0.15136155
-0.56580865 0.23750363 0.11557709 0.009367764 0.16587989 0.02125467 -0.61492884 0.09295644
0.2517865 -0.1576469 -0.09915173 -0.55717635 -0.38676974 -0.3104726 -0.3870514 0.033134185
-0.11281582 0.13284048 0.22201385 0.0930626 -0.006628534 -0.05666697 -0.21400726 -0.18535341
00000000: 6708 443e 711c a73e 877b 183e f3c8 8bbd
00000010: 9c3d 4e3e 96ec 923d 4010 e1bc 0bf0 19be
00000020: 13d2 ab3e 60b0 0abe 8d75 bd3d b1e5 143e
00000030: 2ec8 153e 11cd 783e bae1 513d e561 313e
00000040: b5ff 30be 055d 77bd f141 013d 66cd 9b3d
00000050: f3c0 553e 4dd9 9bbc eba0 c23e 09db 83be
00000060: ba14 8b3c 3d99 6b3b 7221 88bd 4b7c 35be
00000070: 223a 59be bc7d 69bd 5e9d be3d aab5 2a3e
00000080: fcf4 873d f89d 39bd efcc 1cbe 36c1 21bd
00000090: dc24 ed3c 6517 9e3d 1e3c 4b3d 7c1e a4bd
000000a0: bb8a 5e3e 9352 8bbd d5a1 a9bd 3cad 373d
000000b0: d1f7 363c f6ae 343d a3a7 9abd 8f14 0abe
000000c0: df88 1bbd d1fa a43d a183 343e 948f 273e
000000d0: ea16 873d 2d82 05be 3fbe 29bd 866b 4f3d
000000e0: ef6e cc3c c9f0 11bc 10b9 91bb 65ba d23c
000000f0: e685 23bd 3652 4e3d b5a8 a13d 05d3 b83d
00000100: 3911 12bd 161e 123e a6b0 19bd 9644 13be
00000110: 0c61 5b3e 0c19 4a3d 1226 b3bd 15e3 01be
00000120: b753 623e a880 ca3b 8181 f63d 48b6 05bd
00000130: a25e 58bd bcf4 0bbd 4b76 0d3e cec9 6cbe
00000140: 7eb7 073e 4c07 efbc 348e f9bd dcaf 8d3d
00000150: b8bb 5bbd 3113 1ebd 2551 583d 55b4 8b3c
00000160: dc17 3c3e e23d db3d d413 2ebe af3e ef3c
00000170: d2fc ce3d 53b7 103e 1c7f e9bd 1edc 263c
00000180: a0f9 d73a 66d5 093c da91 81bd 5f85 0bbd
00000190: cbd5 533d 53f3 ac3e dee1 5bbe fafc 52be
000001a0: b41a 973e b970 ffbd 2b39 a8bd 3998 1e3e
000001b0: 9bb2 a33d f958 3ebe 8504 4cbd 2e2b cabd
000001c0: 62a3 80bd 5230 323d 0aa1 b23d 3df1 913e
000001d0: 1f5b 18be 1c34 c3bd 104d ac3e 0c30 6a3e
000001e0: ef7a c7bd 1b9c 7e3d 901e 513e 4113 fd3d
000001f0: 881c 193e 6433 343e 2d3a 47be de98 e6bd
00000200: 0693 38bd 9df1 13bf 2396 513d fc22 013f
00000210: 05fc 25be e620 c4bc 8307 68bc 86fe 1a3e
00000220: d6d8 10bf 2734 733e aeb3 ec3d 407b 193c
00000230: 6bdc 293e 461e ae3c fa6b 1dbf f25f be3d
00000240: 29ea 803e 306e 21be 1010 cbbd 1ca3 0ebf
00000250: af06 c6be 44f6 9ebe 9a2b c6be b6b7 073d
00000260: fb0b e7bd 5607 083e 9957 633e 9b97 be3d
00000270: 2c34 d9bb a01b 68bd b824 5bbe 49cd 3dbe

layers.4.bias f4 [5]
-0.09547232 -0.025475739 -0.03241107 0.10627511 -0.0067429296
00000000: fe86 c3bd 7fb2 d0bc 78c1 04bd c4a6 d93d
00000010: cbf3 dcbb
