data/models/test_dc9_only_20_bins_low_init_lr_vslow/checkpoints/epoch_700.pt (torch, 8301 bytes, 6 tensors)

layers.0.weight f4 [16, 4]
00000000: 2a77 1dbf 64ce 843e 2d03 473d c961 10be
00000010: d1f4 d4be b378 ab3e d166 0f3f 80ea e43e
00000020: ea8b 13bf 352a 20bf bca6 09be b3fe babe
00000030: a05c d2bc b4b4 50be 79d4 bfbe 7167 203f
00000040: 2981 6e3d 6831 5ebe d84d f9be 4c69 2ebf
00000050: cbb7 053f 06ab 0abf 62d9 fabd 51d7 a3bb
00000060: adee 9dbe a658 a1be c67b 1a3f 8a69 213d
00000070: 89b0 43be a489 073f df62 0e3e a78a 923d
00000080: 3213 48bf 7a8d 613d d81a acbd d75a 04be
00000090: 86bf c8be 1574 98be 977e 04bf a146 003f
000000a0: ce15 863e 7ff7 f6be c3b2 04bf 0fc9 333d
000000b0: d838 ccbe 5418 273d db50 abbc 4c48 e53e
000000c0: ff0e 3ebe 2ab6 e7bc 33ca 4bbf f183 903e
000000d0: 639e bf3e dab3 7c3e 472f ff3e b857 803c
000000e0: 9aff b43d 6bdc 953e 01e0 303f db74 c73d
000000f0: 8d1b a03e 282e 403e 4537 3abe 1d4c 863e
-0.61509955 0.25938714 0.048587013 -0.14099802 -0.4159303 0.33490524 0.5601626 0.4471016
-0.57635367 -0.625644 -0.1344251 -0.36522445 -0.025678933 -0.20381433 -0.3746679 0.6265784
0.058228645 -0.21698534 -0.48692203 -0.6812942 0.5223357 -0.5416721 -0.12248494 -0.005000033
-0.30846158 -0.31512946 0.60345113 0.03940729 -0.19110312 0.529444 0.13904904 0.07155352
-0.7815429 0.055066563 -0.084035575 -0.12925278 -0.3920862 -0.29776064 -0.5175566 0.5010777
0.2618851 -0.482357 -0.5183527 0.043892916 -0.39887118 0.040794685 -0.020912578 0.4478172
-0.18560408 -0.028285105 -0.79605407 0.28225663 0.37425527 0.24677983 0.49840757 0.015666828
0.08837815 0.29269728 0.690918 0.09739085 0.3127102 0.18767607 -0.18185146 0.26229945

layers.0.bias f4 [16]
00000000: a36c 00bf 6ab8 ec3e 2218 623e 1d33 a43e
00000010: a31d d53e 6bd0 27be 5457 483e bad4 f8be
00000020: 1110 783e 32e9 6ebe 6683 8a3e 6556 023f
00000030: d1e3 30be 3f46 193f 544c a73e 7598 ca3e
-0.50165766 0.46234447 0.22079518 0.32070246 0.41624174 -0.16388099 0.19564563 -0.48599797
0.24224879 -0.23331144 0.27053374 0.5091308 -0.17274405 0.5987281 0.3267542 0.3956944

layers.2.weight f4 [32, 16]
00000000: 7440 a93d 46d6 813e 90ba 313e 369a 58be
00000010: 7313 753c 6a56 8cbe 7f5a a9be 8e01 993d
00000020: 42e0 9f3c f068 b93e d9c5 4abb e260 663b
00000030: ee6e 023c 3b5c a03d 5f9d 803c 51d3 46be
00000040: 9b53 63bd c77d b43d f7d7 4ebd 243a 2abe
00000050: 932a 4b3c 80f6 2f3e e0d2 003e 8d9e 863c
00000060: b33b 5f3e 4382 9dbe 786f d0be b51e 3f3e
00000070: e273 24be 159e 87bd ae14 ba3d 042a a73d
00000080: df54 df3e cae4 21be b5c4 d63d 0b0f 8bbe
00000090: c770 853e 2669 47be 9716 e0be 97fb 363c
000000a0: 1a9e e63d 468c b63d 5abc 30be df46 62bd
000000b0: 1061 b4bd 5fc5 653d 34dd 8bbe dcd4 aabd
000000c0: 2c42 693e ff24 9b3c 9120 09be 0c1f 943d
000000d0: 4218 303e 3b1f 63bf fb0a 45be 11e4 cebc
000000e0: 9387 75bd 33d8 633e c8b5 4cbe d4ff 723e
000000f0: 5632 753d e675 343e 5540 0c3e 9463 19be
00000100: a305 973d f926 3bbe f8db 2e3e 43f9 c73e
00000110: c883 503e ca5a a93d 7de6 313e 2d83 14bf
00000120: 1803 143e bdde b23d 3227 bb3d 5d22 ddbc
00000130: 4aaf 41bf 9b13 19be 6090 b2be cc54 57be
00000140: c3cc b7bc 1d13 d9be e340 993d a7c0 d5be
00000150: 5be0 a93e 41e6 dbbc 3a32 83bc 50b2 ddbd
00000160: af06 b1bd 0d4c 3f3e d7ed 183e ad3b c1be
00000170: 9254 adbd e698 c0bd d91f dcbe 1950 f7bb
00000180: 79cc 66be 359d 4e3e a49d 813b aded ee3d
00000190: 419e 9dbd 73a6 d13d ce2d 763e 7034 763e
000001a0: 84c2 0b3d 62f9 a2be 7e49 bdbe f96c d4bd
000001b0: 82e9 823e 3bbd 9a3e a8e6 453d f147 c83c
000001c0: fabe d43e bfc4 123e 3137 8dbd ce3b a33c
000001d0: 37a4 ca3d dfa3 843e 9a56 a33e ac9a 1abd
000001e0: 2c89 823e e8ad cf3d 2986 803d a1a1 fa3d
000001f0: 5d4a b7be 72d6 74be cb50 8dbe 2539 2abe
00000200: 3e62 edbd 68e8 0a3e 7990 233d e853 bcbd
00000210: 0a31 5bbe 39a6 7a3e 1570 943e a1b0 df3e
00000220: 90ca d83d d1fa 113e 2bd1 4d3e b3e1 97bd
00000230: 4463 1cbd 7181 00bd ffce a3be 8347 c8bd
00000240: ef06 b83d 8404 543d c6ad c93c c292 603c
00000250: 1f2b 483e 6e99 07bd c377 68be 0209 27be
00000260: 12b7 823d 5fa1 923e 1fe7 25be ce57 e3bd
00000270: b75a c73d afcf 71bd 97cb 113e de16 eb3d
00000280: 6048 36be 0412 713e 12dd e5be 74f3 debe
00000290: 38e5 58be 0376 903d b171 003e 2b98 6dbc
000002a0: 9710 0c3d 21e4 553e d14c 56be 7b10 833d
000002b0: b1e9 76be 8023 22be 8fd6 72bc fb0b abbe
000002c0: 1fde 013e 3179 133e 11bd 733d 6ef6 0fbe
000002d0: 437c 7e3d 78ff 05be ab29 9bbd 71e0 a13e
000002e0: ab06 873e 7ea6 1dbe 402e 063e 3f61 453e
000002f0: e6cd dcbd 84f2 813e f688 61be 9d43 7a3e
00000300: 4451 04be 7bb8 dfbe 042c e03d b6b2 d73d
00000310: 4f4e 11be 06e9 813d 2681 ae3e c748 903e
00000320: 0705 a63d b033 6b3e ae67 12be 2585 0abe
00000330: 43f9 14bd 543f 9dbe ac2f 89bd 194b 02bf
00000340: b63d 0e3d 40a1 65bf dab2 943e f6ac e13d
00000350: 164c b3bd 09e8 003e e940 823e 4138 813d
00000360: 657a 6cbe 01c7 793e 2b06 9d3d a4f7 0e3e
00000370: 3631 f1be d098 ad3d ed6d 0ebf 6e1c d1be
00000380: 945e 92be 2821 3fbe af36 283e bb8f 3dbe
00000390: 4069 dabd 32b2 073e 0e56 dcbc e960 683e
000003a0: ccec 36bd cf40 fb3c 678c c4bd f21c 6f3e
000003b0: 6f44 6e3c 6902 463e d966 94bc bfaa 7bbd
000003c0: 1f12 d7be 0ebb 6b3e 5acb 2bbd 14e4 25be
000003d0: 31f6 14be 7fc4 a7bc 6cad c93c e748 733e
000003e0: e4ff 463e 7d9d 293e dade a53d 15a6 23be
000003f0: 21f8 603e 3db9 15be 233e 0ebe ad5d e8bd
0.082642466 0.2535879 0.17356324 -0.21152577 0.01495825 -0.2740968 -0.33076856 0.07471
0.019516114 0.36212873 -0.003094068 0.0035152961 0.007961018 0.078300916 0.01570004 -0.19416548
-0.055499654 0.088130526 -0.05049893 -0.16623741 0.012400287 0.17183876 0.12580442 0.016433025
0.21800117 -0.30763444 -0.40710044 0.18664058 -0.16059831 -0.06621949 0.090859756 0.08162311
0.4361944 -0.15809932 0.10486738 -0.27159914 0.26062605 -0.19473705 -0.43767235 0.011168382
0.11260624 0.08913474 -0.1725935 -0.05524337 -0.08807576 0.05609643 -0.27317202 -0.08341381
0.22779149 0.01893854 -0.1339133 0.07232484 0.17196754 -0.8871953 -0.1924247 -0.025255235
-0.059943747 0.22250442 -0.19991219 0.23730403 0.059862457 0.176231 0.13696416 -0.14979392
0.07374122 -0.18276586 0.17076099 0.3905736 0.2036277 0.0826927 0.1737308 -0.5801266
0.14454305 0.0873389 0.09138335 -0.026993925 -0.75658095 -0.14948885 -0.34875774 -0.21028441
-0.022436505 -0.42397395 0.07483079 -0.41748545 0.33178982 -0.026843192 -0.01601516 -0.10825026
-0.08643853 0.18681355 0.14934479 -0.37740842 -0.08463396 -0.09404163 -0.42993048 -0.00754739
-0.22538938 0.20177157 0.00395556 0.11666427 -0.076962 0.10236826 0.2404091 0.24043441
0.03412105 -0.3183089 -0.36970133 -0.103723474 0.25568777 0.30222496 0.048315674 0.024448367
0.41551954 0.14332865 -0.068952926 0.019925978 0.09894603 0.25906274 0.3190201 -0.037745163
0.2549528 0.10140592 0.06275589 0.122378595 -0.35798922 -0.2390993 -0.27600703 -0.16623361
-0.11591004 0.13565218 0.0399327 -0.09195691 -0.21405426 0.24477471 0.28991762 0.43689445
0.10585511 0.14255835 0.20099322 -0.074160956 -0.038180605 -0.031373445 -0.31993863 -0.09779265
0.089856975 0.05176212 0.024618994 0.013706865 0.195477 -0.033105306 -0.22701935 -0.1631203
0.06382574 0.2863874 -0.16201447 -0.11100732 0.09734099 -0.059035953 0.1423782 0.11478971
-0.17801046 0.23542029 -0.44895226 -0.43545115 -0.2118119 0.07053759 0.1254337 -0.014501612
0.03419551 0.20887806 -0.2092774 0.06399628 -0.24112584 -0.15833855 -0.014821663 -0.33407578
0.12682389 0.144017 0.05950648 -0.14058849 0.062130224 -0.13085735 -0.07576307 0.31616548
0.26372275 -0.15395543 0.1310358 0.19275378 -0.107814595 0.25380337 -0.22024903 0.24439855
-0.12921625 -0.43695435 0.10945895 0.10532133 -0.14190029 0.06343274 0.34082907 0.28180525
0.08106428 0.22968936 -0.14297363 -0.13527353 -0.036370527 -0.30712378 -0.06698546 -0.5089584
0.03472682 -0.8969917 0.29042703 0.11019318 -0.087547466 0.12588514 0.25440148 0.06309558
-0.23093565 0.2439232 0.07667192 0.13961655 -0.47107857 0.08476412 -0.55636483 -0.40842003
-0.28587782 -0.18664992 0.1642711 -0.1851186 -0.10664606 0.1325157 -0.026896503 0.22693218
-0.04465942 0.030670552 -0.09597092 0.23350886 0.014542683 0.19336857 -0.018115448 -0.061442133
-0.42006013 0.23020574 -0.041941978 -0.16200286 -0.1454704 -0.020479439 0.024618827 0.23758279
0.19433552 0.16563983 0.08099146 -0.15981324 0.21969654 -0.14621444 -0.13890891 -0.11345992

layers.2.bias f4 [32]
00000000: db49 5a3e 1c1e 213e 117a a9ba f401 f13d
00000010: c56d 21be dec4 d4bc a780 233d 8229 5ebe
00000020: b05e 3e3e 7cd7 fb3d b6fc 863d 2c00 7cbd
00000030: b862 423d b9b3 10be 0182 723e ea86 a93e
00000040: 95d7 16be 1c28 6f3d ef31 783e 3852 21be
00000050: 50a1 223e 8c4c 47be 3584 8fbe 0b41 91be
00000060: 8f6b 8d3e 6dd4 463e 5a5c 3d3e a5da abbd
00000070: 2b15 263e bfaa 9a3e f6bf 77be 4816 46be
0.21317236 0.15734142 -0.0012930055 0.11767951 -0.1576453 -0.02597278 0.039917614 -0.21695521
0.18590808 0.1229696 0.065911695 -0.0615236 0.047457427 -0.14131059 0.23682405 0.33110744
-0.14730676 0.05838786 0.24237798 -0.1575402 0.15881848 -0.19462794 -0.28030553 -0.28369936
0.27621123 0.19416972 0.1849226 -0.083913125 0.16219012 0.30208394 -0.24194321 -0.19344437

layers.4.weight f4 [20, 32]
00000000: f662 eebd 0dd3 1abd 9903 8ebe e838 ca3d
00000010: 32a1 ad3e fe3b 52be 6124 e6bc 1426 543e
00000020: 48fe 40be ecc9 c7bd 219e a63d 13a8 4dbd
00000030: 1add 953d 431e 7a3e 2356 8abe 4820 25be
00000040: 4143 57bd 089c 543d c91f 8ebd 101a 413d
00000050: 64d6 893d 81ce 103f 4546 6d3e c71f 863e
00000060: c12d 37be f44e a13e 8c8e bebe 0df9 683d
00000070: 0996 58be 6259 5c3e 7f40 5a3e 277d 97be
00000080: 5269 07be a78f b6bd 64f6 8fbe 7bbd 103e
00000090: adf4 3a3e 75e9 c0be 17e8 1bbe 1fd4 c63d
000000a0: f028 eb3d 21e5 633e 12c2 a8bd 06cf 043d
000000b0: 1ff9 86be 6960 f23e 4ab6 fa3d e33c 4c3d
000000c0: 9c9b d1bd 05fe 0cbd 0de8 a2bd 0061 afba
000000d0: 7467 813e 957c 5f3e f436 b53e 9b55 823e
000000e0: 14e9 bcbd 1385 b93e 465c 86be da79 163d
000000f0: 2b05 80be 8fb3 c63b 31cd cf3c 730e 50be
00000100: d85d f23d 8683 673d dc28 a2be f183 cb3a
00000110: 2aaa c43d 3b93 2abe ddd8 d1bd e28e e73d
00000120: 970e dabd c977 9fbd 684c f73d ec8d 98bd
00000130: 3067 89be fb33 9d3e 8c83 51bc 376f d3bd
00000140: 5f52 783d 2efb d73b e789 81bd 8a63 95bd
00000150: 4357 623d c80c dbbc f612 ad3e 92d1 593e
00000160: c482 3dbe 36de 623e fd47 d93c 6a39 17be
00000170: ccb0 7c3d e4d0 483e 832c f4be a772 b2be
00000180: d805 ffbd 5440 363e 6886 9abe 0eb8 d1bc
00000190: 8996 013e eda0 f6bd 7972 ddbd 592e 283d
000001a0: eeae 8d3d 137e 0a3e 49bf 373e 0e97 423e
000001b0: aaf6 ab3e 67e6 3c3e a5f4 bbbc 6608 3236
000001c0: 24aa 56bd f3ef d33c faf5 f9bd 7862 e5bc
000001d0: fd90 483d 3269 c8bc 5e05 d33c afc5 9a3e
000001e0: 81cd 49bc b9dc 303d fcc4 b8bd 20ff 1bbe
000001f0: aa7d 5d3d 4b86 ad3d 5b72 bb3d 3824 1fbe
00000200: 8ff6 5cbe 2f84 b2bd b566 5dbe 3c0a 2c3e
00000210: 8611 aa3e 92c0 d6bd 75ab 05be e601 753e
00000220: d1b2 45be c1c8 08be cd0b f6bd d63d 013d
00000230: dec7 29be 9591 c8bc 5639 7d3d 0a52 75bd
00000240: 3801 7f3e 23c1 37be f749 5c3d 9427 2abe
00000250: ac12 4b3e b4c5 1abe e234 d93d fe7d 7fbd
00000260: a810 6e3e 33bf 3e3e 4ed7 cdbc 4656 433e
00000270: fc8b 91bb f25c 0ebd 693c 61bd 0d3c afba
00000280: 09f8 a2bd deb2 333d e9ed 0e3d bf84 98bb
00000290: 3802 b23d 8374 32bd cebf 583d 2af7 cd3d
000002a0: 6568 8fbd 0fc7 de3d 2df6 153e 9c62 0abe
000002b0: 0183 b03d 5a38 843d 698d 1a3d e042 47be
000002c0: 1117 a93c 1fd9 b03a 74ee 4d3c 9487 3abd
000002d0: 2328 02bd 0dd7 a63d 4552 70bd 41bc dd3d
000002e0: 0802 a43c 1f0e b03d 2c07 5dbd aea6 523e
000002f0: 9143 33bd 56e1 683c 8c4d 04be 0083 b33b
00000300: fa36 b4bc e373 933d da91 01be a201 513d
00000310: 4102 34bd 02d1 e63d 061f 42be 80f8 173e
00000320: 2ea1 04be 99a4 48bd 5e3a 0ebc fd1c 76bd
00000330: 1645 a73d 0a7b 1f3e 713a 363c eb18 1bbb
00000340: eb61 47bd 2825 503d 9e7e 573d fede c53d
00000350: c6d2 34bd 0815 b4bd 7c0a 1d3e ae9f 203e
00000360: ae92 57bd 9574 5cbd 961c a33d b9a8 8b3d
00000370: 8fd4 e03c cb1a 9fbc 66bf b0bc 506e ae3c
00000380: 6f44 f03d 8378 debd 33af a83e c095 9b3d
00000390: cacb a0bd a8e8 4cbd b8b3 e9bd 0def 6c3e
000003a0: f378 6c3d 696e 953d abff ec3e b4fb fcbd
000003b0: 3ad6 fcbc 3981 8a3e 5267 37be f440 6fbe
000003c0: 058f 83bd df0a 143d e8f2 313d 60af 833c
000003d0: 0e4b 2f3d ead3 e43d 87d0 32be 079b ccbd
000003e0: aaaf 113e 4463 21be 1c01 483d 0c44 3b3c
000003f0: 75a3 043d 6c41 cdbc e6b5 f8be 1f44 623e
-0.11639969 -0.03779893 -0.2773712 0.09874135 0.33912045 -0.20530698 -0.028093519 0.2071765
-0.18847 -0.097553104 0.081356294 -0.050209116 0.073175624 0.24425606 -0.27018842 -0.16125596
-0.052554373 0.051906615 -0.06939656 0.047143996 0.06730345 0.565651 0.23171337 0.2619612
-0.17888547 0.3150555 -0.3721813 0.05687814 -0.21150984 0.21518472 0.21313666 -0.2958767
-0.1322377 -0.08914118 -0.2811767 0.14134781 0.18257399 -0.37678114 -0.15225254 0.09708428
0.114824176 0.22255374 -0.08240141 0.032423995 -0.2636194 0.4733918 0.122418 0.049862754
-0.10234758 -0.03442194 -0.079544164 -0.0013380349 0.2527424 0.21824868 0.35393488 0.25455937
-0.092241436 0.3623434 -0.26242274 0.0367373 -0.25003943 0.0060638855 0.025366398 -0.20318012
0.118343055 0.056521915 -0.31671798 0.0015526993 0.09602769 -0.16657726 -0.102464415 0.113065496
-0.10647314 -0.07786519 0.1207512 -0.074489444 -0.26836538 0.3070372 -0.012787711 -0.10323947
0.06062543 0.0065912222 -0.06325131 -0.07294376 0.055259 -0.026739493 0.3380353 0.21271351
-0.18506914 0.22155079 0.026523584 -0.14767995 0.061692044 0.19610935 -0.4769021 -0.34853098
-0.124522865 0.17797977 -0.3018067 -0.02560046 0.12655081 -0.12042413 -0.108128496 0.041059826
0.06918131 0.13524656 0.17944063 0.19002935 0.33586627 0.18447267 -0.022943804 2.6528955e-06
-0.052408352 0.025871253 -0.122051194 -0.028001055 0.048966397 -0.024464224 0.025759395 0.30228946
-0.012317062 0.043179248 -0.09021947 -0.15234041 0.05407492 0.0847288 0.09152671 -0.1554116
-0.2157843 -0.08716618 -0.21621211 0.16800779 0.33216494 -0.104859486 -0.13053687 0.23926505
-0.19306494 -0.13357832 -0.120139696 0.031553112 -0.1658015 -0.024483481 0.061822258 -0.05989269
0.24902809 -0.1794477 0.053781476 -0.1661666 0.19831342 -0.1511448 0.1060579 -0.062376015
0.23248541 0.18627624 -0.02512708 0.1907588 -0.0044417363 -0.03475661 -0.054989252 -0.0013369337
-0.07957465 0.043871753 0.034894858 -0.0046544964 0.086918294 -0.043568145 0.052917294 0.100569084
-0.070023336 0.10877811 0.1464469 -0.13514179 0.08618737 0.06456061 0.037732515 -0.19459105
0.020640882 0.0013492442 0.012569059 -0.045539454 -0.03177656 0.081464864 -0.05867221 0.10826922
0.0200205 0.085964434 -0.053961918 0.20571396 -0.04376561 0.0142138805 -0.12920207 0.005478263
-0.021998871 0.07199838 -0.12653294 0.051026948 -0.043947462 0.11270334 -0.18957147 0.14840889
-0.1295211 -0.048985098 -0.008680908 -0.06008624 0.08167474 0.1557428 0.011122332 -0.0023665975
-0.048677366 0.050816685 0.052610986 0.09661673 -0.04414632 -0.08793074 0.1533603 0.15685913
-0.05263012 -0.05382212 0.07964437 0.06819291 0.027445106 -0.019421956 -0.02157564 0.021292835
0.11731803 -0.108628295 0.32946166 0.07596922 -0.0785137 -0.050026566 -0.11411232 0.23138066
0.057732534 0.0729645 0.4628881 -0.12352696 -0.03086387 0.27051714 -0.17910507 -0.23364621
-0.06423763 0.03614318 0.043444544 0.016074836 0.042796187 0.11173232 -0.1746236 -0.099905066
0.14227167 -0.15760523 0.048829183 0.011429798 0.032382447 -0.02505561 -0.48576277 0.22096299

layers.4.bias f4 [20]
00000000: 1b5e 463d 1838 25be 2554 88bd dbd8 0ebe
00000010: 8c8a 01be 807e 13bd db83 263d 2ce0 95b9
00000020: 17c7 94bd 1e78 943c 269b 6cbd a430 3ebc
00000030: 7ff1 b9bd 698f edbd 83ca b1bd 96d5 62ba
00000040: ef32 623d ad3a 97bd a2ff 1fbe 18ea 09be
0.04842959 -0.1613468 -0.06656674 -0.13949911 -0.12650508 -0.03600931 0.04065309 -0.00028586516
-0.07264536 0.018123683 -0.05776515 -0.0116082765 -0.09079265 -0.11599619 -0.08681204 -0.00086530426
0.055224355 -0.073842384 -0.1562486 -0.13468206
