data/models/test_dc9_only_20_bins_low_init_lr_vslow/checkpoints/epoch_1600.pt (torch, 8313 bytes, 6 tensors)

layers.0.weight f4 [16, 4]
-0.64316285 0.27680442 0.02677885 -0.17184158 -0.4384375 0.3564053 0.62640214 0.5002166
-0.62880856 -0.6644285 -0.11347477 -0.40508842 -0.030388892 -0.2096496 -0.40625972 0.67158335
0.046273712 -0.22805318 -0.49040073 -0.75977546 0.5855357 -0.610166 -0.1308127 -0.0018297905
-0.34821492 -0.27944088 0.7579252 0.05584295 -0.21777126 0.57673836 0.16777721 0.066776074
-0.853462 0.057411578 -0.07591999 -0.12781607 -0.40674794 -0.30754328 -0.59655905 0.5457126
0.27705443 -0.5105159 -0.55706775 0.04171779 -0.4253941 0.04452552 -0.024802446 0.4780392
-0.17765959 -0.02350167 -0.8377817 0.2904177 0.38972425 0.27301964 0.5567662 0.008032496
0.10027605 0.32474858 0.7604092 0.11295076 0.3412389 0.21615757 -0.25352678 0.33231544
00000000: 52a6 24bf 4fb9 8d3e 525f db3c 3df7 2fbe
00000010: e17a e0be c17a b63e e45b 203f 320e 003f
00000020: 99f9 20bf fc17 2abf 7665 e8bd c067 cfbe
00000030: 20f2 f8bc 62ae 56be 4601 d0be e3ec 2b3f
00000040: 8189 3d3d c686 69be ce15 fbbe a580 42bf
00000050: abe5 153f d733 1cbf c4f3 05be 95d5 efba
00000060: 3a49 b2be e012 8fbe 6307 423f 94bb 643d
00000070: 6eff 5ebe 20a5 133f cacd 2b3e e5c1 883d
00000080: 7c7c 5abf 6728 6b3d f17b 9bbd 37e2 02be
00000090: 4441 d0be 5076 9dbe 18b8 18bf d2b3 0b3f
000000a0: 14da 8d3e 2cb1 02bf fe9b 0ebf 46e0 2a3d
000000b0: 41cd d9be 6460 363d 802e cbbc 8ec1 f43e
000000c0: 65ec 35be 9386 c0bc dd78 56bf a1b1 943e
000000d0: f089 c73e 3bc9 8b3e 3b88 0e3f bb9a 033c
000000e0: 885d cd3d 7245 a63e 2daa 423f ba52 e73d
000000f0: ddb6 ae3e 6958 5d3e 43ce 81be 4025 aa3e

layers.0.bias f4 [16]
-0.51411563 0.5415113 0.17965418 0.3361836 0.44557628 -0.18809699 0.2223744 -0.5349368
0.26676822 -0.24899504 0.29129493 0.5484192 -0.15078719 0.6330158 0.36483935 0.41646978
00000000: 159d 03bf 7ca0 0a3f 44f7 373e 4220 ac3e
00000010: 9322 e43e 7f9c 40be 1db6 633e 9ef1 08bf
00000020: d895 883e 8ef8 7ebe 9c24 953e 3365 0c3f
00000030: f567 1abe 530d 223f 39cc ba3e 873b d53e

layers.2.weight f4 [32, 16]
0.10323439 0.3141524 0.18229273 -0.22164094 0.05647871 -0.2777399 -0.3757583 0.11977818
0.0010046846 0.3766426 -0.050022773 0.0060252217 -0.008212912 0.08230946 0.020865018 -0.19679266
-0.04165337 0.074553505 -0.06411782 -0.15946496 0.03838798 0.19709863 0.1347478 -0.015935117
0.22721808 -0.32516852 -0.5104706 0.22402696 -0.18166474 -0.04330788 0.09317283 0.08622591
0.5138197 -0.25613275 0.11301002 -0.3273101 0.2641929 -0.29004776 -0.44594395 -0.010015177
0.105773225 0.038771324 -0.21252589 0.009283873 -0.26759782 0.08444572 -0.25929803 -0.11160717
0.24901217 0.04510339 -0.1340614 0.11044278 0.18679492 -0.988205 -0.1929654 0.0024357478
-0.089796595 0.22533977 -0.20687693 0.2275421 0.07574661 0.17658804 0.16711584 -0.13567457
0.06795416 -0.18803522 0.17326075 0.46293908 0.22824413 0.07537189 0.1675465 -0.88318723
0.13120824 0.07769353 0.1257534 -0.0091354055 -0.79657996 -0.20633647 -0.33446854 -0.26027825
0.058248453 -0.70500803 0.08349586 -0.46826667 0.3331897 -0.025128543 0.055206552 -0.12598658
-0.09722633 0.15052222 0.19467485 -0.3796521 -0.10885177 -0.15165119 -0.51791984 0.052479263
-0.2759002 0.20006445 0.018782936 0.123455934 -0.07682465 0.12517515 0.25307912 0.2753184
0.04484678 -0.34134197 -0.39524052 -0.100354105 0.27849394 0.31444925 0.045211088 0.026737314
0.43177927 0.1472802 -0.09860768 0.038404256 0.10183619 0.2594582 0.3061118 -0.07438137
0.2579046 0.09573649 0.08137618 0.14976642 -0.34942335 -0.2612369 -0.3039707 -0.23717885
-0.16796383 0.13127607 0.053842507 -0.090216175 -0.22299922 0.28947452 0.3148163 0.49109045
0.14474303 0.13160008 0.22167745 -0.10992018 -0.024474574 -0.06393871 -0.34888715 -0.081419215
0.03800643 0.06396672 0.025212966 -0.013911542 0.23709182 -0.056012917 -0.27476263 -0.23746169
0.10151631 0.31661767 -0.19346005 -0.07680367 0.036416996 -0.032466277 0.17525281 0.13941115
-0.25825045 0.23248683 -0.52612334 -0.47873858 -0.116312206 0.04609661 0.102887444 0.03708135
0.076214634 0.26037726 0.15955697 0.07673614 -0.45866823 -0.16929947 -0.03160732 -0.4319596
0.103995815 0.18236564 0.05594427 -0.11061652 0.06499801 -0.14066246 -0.10390745 0.34843314
0.27071863 -0.19861802 0.14882873 0.20031588 -0.14612818 0.26074633 -0.202244 0.272857
-0.034869004 -0.5052681 0.120983236 0.123782836 -0.17662658 0.1223146 0.36567968 0.28180525
0.08186146 0.29876757 -0.17441157 -0.110928565 -0.059650753 -0.25765547 -0.11506139 -0.5310352
0.001433961 -1.052678 0.27348837 0.15511371 -0.08353583 0.11271292 0.30816373 0.06309558
-0.19451767 0.254672 0.062348045 0.14891277 -0.45437238 0.0972011 -0.66541034 -0.4590335
-0.28559443 -0.2116554 0.1739698 -0.17281301 -0.10359332 0.10693728 -0.03385961 0.28244933
-0.038623676 0.07969959 -0.06843633 0.24525084 -0.008342453 0.19615941 -0.01981726 -0.04562941
-0.44042706 0.22501639 -0.050105058 -0.13421518 -0.14910728 -0.027569665 0.020212404 0.24307111
0.20632184 0.14470774 0.06226816 -0.19300854 0.2259712 -0.14089054 -0.14685656 -0.120467804
00000000: 8d6c d33d 95d8 a03e f2aa 3a3e d8f5 62be
00000010: 3856 673d ed33 8ebe 6463 c0be 434e f53d
00000020: 9faf 833a 4dd7 c03e aee4 4cbd 396f c53b
00000030: 738f 06bc dd91 a83d 1ded aa3c 0484 49be
00000040: b99c 2abd 82af 983d 3450 83bd c84a 23be
00000050: b73c 1d3d 39d4 493e 54fb 093e 5d8a 82bc
00000060: dbab 683e 7d7c a6be 34ae 02bf 5367 653e
00000070: 5206 3abe 9b63 31bd 66d1 be3d 3697 b03d
00000080: b089 033f d523 83be cc71 e73d 3095 a7be
00000090: 4b44 873e 2481 94be c452 e4be b216 24bc
000000a0: a29f d83d aece 1e3d 63a0 59be 631b 183c
000000b0: 9502 89be e1f1 ac3d b6c2 84be 4d92 e4bd
000000c0: 0cfd 7e3e 55be 383d 6447 09be d32f e23d
000000d0: 2b47 3f3e 01fb 7cbf b998 45be 11a1 1f3b
000000e0: 47e7 b7bd 78bf 663e 8cd7 53be cc00 693e
000000f0: 0a21 9b3d 7fd3 343e 6a20 2b3e 46ee 0abe
00000100: 8d2b 8b3d 4e8c 40be 446b 313e 5a06 ed3e
00000110: d4b8 693e 945c 9a3d 4f91 2b3e 8f18 62bf
00000120: 745b 063e c91d 9f3d 80c5 003e abac 15bc
00000130: aaec 4bbf de49 53be 763f abbe 3143 85be
00000140: ee95 6e3d 687b 34bf e1ff aa3d a6c0 efbe
00000150: d797 aa3e 60da cdbc 4420 623d a002 01be
00000160: 991e c7bd 7f22 1a3e d858 473e c361 c2be
00000170: aded debd 734a 1bbe 6596 04bf 7ff4 563d
00000180: ca42 8dbe b2dd 4c3e acde 993c 77d6 fc3d
00000190: 3e56 9dbd ea2d 003e 9693 813e 89f6 8c3e
000001a0: 42b1 373d 60c4 aebe f75c cabe 7486 cdbd
000001b0: c296 8e3e 7eff a03e 432f 393d 3608 db3c
000001c0: 2c12 dd3e 9fd0 163e d3f2 c9bd c84d 1d3d
000001d0: 7e8f d03d b5d7 843e b0ba 9c3e 4255 98bd
000001e0: 120c 843e 7e11 c43d 8ea8 a63d 5e5c 193e
000001f0: 9ee7 b2be d8c0 85be 0ca2 9bbe 03df 72be
00000200: b6fe 2bbe 3c6d 063e f689 5c3d 42c3 b8bd
00000210: e859 64be 0136 943e 9a2f a13e 3570 fb3e
00000220: 8437 143e 2cc2 063e 6aff 623e d51d e1bd
00000230: e77e c8bc 4cf2 82bd 56a1 b2be 1ebf a6bd
00000240: a1ac 1b3d fc00 833d 6c8b ce3c 3ced 63bc
00000250: 33c8 723e cd6d 65bd b0ad 8cbe 2829 73be
00000260: c8e7 cf3d b61b a23e 641a 46be 3e4b 9dbd
00000270: fd29 153d 5cfb 04bd 7975 333e ccc1 0e3e
00000280: 6739 84be 0711 6e3e 05b0 06bf 391d f5be
00000290: 1835 eebd cdcf 3c3d a7b6 d23d 9de2 173d
000002a0: 6b16 9c3d 2b50 853e e762 233e d627 9d3d
000002b0: 90d6 eabe d75c 2dbe ad76 01bd cf29 ddbe
000002c0: c2fb d43d 0fbe 3a3e d225 653d ea8a e2bd
000002d0: ad1d 853d d209 10be 6ecd d4bd d465 b23e
000002e0: a29b 8a3e 8662 4bbe 8f66 183e 9b1f 4d3e
000002f0: a0a2 15be 8b80 853e 0d19 4fbe eab3 8b3e
00000300: cdd2 0ebd 4059 01bf 0fc6 f73d db81 fd3d
00000310: 99dd 34be 1480 fa3d 5e3a bb3e c748 903e
00000320: fba6 a73d 10f8 983e f298 32be 842e e3bd
00000330: 5954 74bd 6beb 83be 4ea5 ebbd ecf1 07bf
00000340: bff3 bb3a 27be 86bf ab06 8c3e 21d6 1e3e
00000350: d514 abbd 08d6 e63d a3c7 9d3e 4138 813d
00000360: a42f 47be 5e64 823e aa60 7f3d 977c 183e
00000370: 7fa3 e8be 5f11 c73d 5558 2abf 7006 ebbe
00000380: 6f39 92be 31bc 58be 2425 323e e5f5 30be
00000390: bc28 d4bd ef01 db3d 60b0 0abd 339d 903e
000003a0: dc33 1ebd 8a39 a33d 5928 8cbd 0923 7b3e
000003b0: c9ae 08bc 03de 483e ce57 a2bc e7e5 3abd
000003c0: a87f e1be b26a 663e f63a 4dbd b46f 09be
000003d0: 94af 18be c7d9 e1bc 7c94 a53c a2e7 783e
000003e0: 0846 533e 442e 143e e60c 7f3d 08a4 45be
000003f0: ff64 673e 9c45 10be 9161 16be d3b7 f6bd

layers.2.bias f4 [32]
0.21669544 0.17347278 8.766728e-05 0.10929581 -0.16280578 -0.020236034 0.04278002 -0.24010275
0.20851482 0.10974825 0.10102836 -0.053110868 0.009233554 -0.10873302 0.24002485 0.36226466
-0.14949284 0.048926182 0.2555507 -0.1575402 0.18669784 -0.21039169 -0.30847853 -0.31673276
0.28592047 0.18268035 0.20309922 -0.075914904 0.18697804 0.31087258 -0.24093102 -0.21827728
00000000: 69e5 5d3e d9a2 313e 03da b738 7bd6 df3d
00000010: 8fb6 26be 0ac6 a5bc 1a3a 2f3d 7fdd 75be
00000020: e984 553e b1c3 e03d f5e7 ce3d c88a 59bd
00000030: 5548 173c 6baf debd 13c9 753e c17a b93e
00000040: a714 19be d266 483d 8bd7 823e 3852 21be
00000050: b82d 3f3e eb70 57be e6f0 9dbe cc2a a2be
00000060: 2b64 923e 8f10 3b3e 3ef9 4f3e 4679 9bbd
00000070: 2c77 3f3e b12a 9f3e 9fb6 76be 1484 5fbe

layers.4.weight f4 [20, 32]
-0.12729207 -0.029521275 -0.33495262 0.10280991 0.3983751 -0.2512718 -0.019265225 0.16126014
-0.17614669 -0.08498987 0.102278374 -0.023044368 0.035854176 0.24519797 -0.25811294 -0.14393233
-0.047863536 0.026501074 -0.11988757 0.047143996 0.063550875 0.5975244 0.239999 0.24261346
-0.18028218 0.33885065 -0.35764286 0.045637358 -0.19438364 0.22778194 0.27321222 -0.3554524
-0.18644382 -0.07449215 -0.32851288 0.10382793 0.19981134 -0.40366963 -0.17775692 0.11567845
0.14529863 0.24719027 -0.017075662 0.016151698 -0.43024442 0.52063954 0.13711856 0.1322556
-0.09883549 -0.048706584 -0.08733351 -0.0013380349 0.2595478 0.23468329 0.39985073 0.25858524
-0.07371754 0.37376785 -0.25576288 0.07918921 -0.26196018 -0.020575603 0.26963946 -0.22587053
0.14013366 0.03969231 -0.34463713 0.06002473 0.09115517 -0.16608252 -0.12353351 0.15602803
-0.09382369 -0.08151515 0.14470673 -0.06881542 -0.34057498 0.32298893 0.010324914 -0.11891051
0.034224547 0.0057637244 -0.07707949 -0.07294376 0.0795313 -0.026989888 0.39767632 0.14944133
-0.238329 0.19588792 0.08643647 -0.220793 0.0358218 0.18445176 -0.27952498 -0.31723106
-0.14213797 0.20419355 -0.2537023 -0.04852059 0.1473444 -0.12790884 -0.09698254 0.031103168
0.06500403 0.13949871 0.16015874 0.20254196 0.29086205 0.25748342 -0.0599905 0.01124869
-0.038041674 0.032477856 -0.11563868 -0.028001055 0.040046863 -0.056798767 0.0105367685 0.29438096
-0.0024478263 0.023083799 -0.08387139 -0.21609397 0.029393628 0.08096391 0.17661458 -0.12506142
-0.253082 -0.09319454 -0.27327272 0.18060581 0.37433177 -0.13619265 -0.13295807 0.2730981
-0.25108483 -0.19395973 -0.05663153 0.0057720924 -0.2974685 0.026889544 0.014231066 -0.046589732
0.26752728 -0.208703 0.1165255 -0.1661666 0.21264923 -0.17139393 0.042550396 -0.116754174
0.28962904 0.20101933 0.014854772 0.15951408 -0.017416373 -0.03199976 0.011312679 0.038830917
-0.13030325 0.028137539 -0.005904906 0.04512731 0.047428053 -0.003147395 0.041916292 0.081715874
-0.039701924 0.09566611 0.060498346 -0.13307956 0.18305507 0.05533321 0.013823366 -0.18571433
-0.020937147 0.0025055886 0.05419161 -0.045539454 -0.061394453 0.10478625 -0.03221724 0.104134165
0.020430803 0.08547675 -0.04700621 0.21719702 -0.069085844 0.024090264 -0.045861203 0.0025208797
0.024104826 0.076057136 -0.08894703 0.08367227 -0.080444075 0.07627924 -0.24282369 0.19648643
-0.089005336 -0.080634564 0.07011128 -0.078744434 0.104977 0.13331284 0.08010659 0.009011304
-0.08375308 0.037255492 -0.010303801 0.09661673 -0.03297639 -0.09847724 0.15654004 0.14965473
-0.023825707 -0.055062532 0.12402201 0.1001856 0.0325785 -0.045779936 0.07562948 0.07351537
0.11673138 -0.13132668 0.2895745 0.047343373 -0.12861322 -0.03502696 -0.11527237 0.2754714
0.08973119 0.11521945 0.45537823 -0.12845564 -0.12795213 0.34125677 -0.21511714 -0.24254292
-0.025122784 -0.0009932568 0.06647654 0.016074836 0.040424455 0.04166836 -0.15085213 -0.1735591
0.17834081 -0.15135372 0.09455532 -0.006739939 0.050996095 -0.027991483 -0.5530845 0.22619097
00000000: da58 02be 9ad6 f1bc e97e abbe 018e d23d
00000010: d2f7 cb3e b3a6 80be 1bd2 9dbc 6121 253e
00000020: cc5f 34be 2b0f aebd 5377 d13d 8bc7 bcbc
00000030: d4db 123d 2d15 7b3e 6127 84be ff62 13be
00000040: 8e0c 44bd c818 d93c 9d87 f5bd 101a 413d
00000050: f626 823d 5cf7 183f 4cc2 753e aa6f 783e
00000060: e49b 38be d57d ad3e f71c b7be 3dee 3a3d
00000070: 810c 47be ab3f 693e 79e2 8b3e dbfd b5be
00000080: 21eb 3ebe 578f 98bd d732 a8be bda3 d43d
00000090: 589b 4c3e c9ad cebe e905 36be d3e8 ec3d
000000a0: 2ac9 143e 721f 7d3e 42e2 8bbc 9150 843c
000000b0: ff48 dcbe a248 053f cf68 0c3e 036e 073e
000000c0: 436a cabd 8e80 47bd e9db b2bd 0061 afba
000000d0: 73e3 843e d150 703e 3cb9 cc3e 4965 843e
000000e0: 39f9 96bd 805e bf3e 5af3 82be f42d a23d
000000f0: a51f 86be 2b8e a8bc 2f0e 8a3e 9b4a 67be
00000100: 337f 0f3e 6794 223d 4774 b0be 7edc 753d
00000110: 90af ba3d 8911 2abe 23ff fcbd d0c5 1f3e
00000120: a326 c0bd 6af1 a6bd 002e 143e 19ef 8cbd
00000130: d85f aebe ce5e a53e d429 293c 5a87 f3bd
00000140: 0a2f 0c3d a0dd bc3b dadb 9dbd 8a63 95bd
00000150: 4ee1 a23d e619 ddbc 3b9c cb3e 2607 193e
00000160: 840c 74be d896 483e 9b05 b13d 8f17 62be
00000170: e1b9 123d ece0 3c3e e61d 8fbe 1c6c a2be
00000180: 9e8c 11be 1d18 513e 45e5 81be 87bd 46bd
00000190: 73e1 163e 89fa 02be c89e c6bd 12cc fe3c
000001a0: d520 853d c0d8 0e3e a700 243e 2967 4f3e
000001b0: dfeb 943e ded4 833e 99b8 75bd 6d4c 383c
000001c0: 96d1 1bbd 8007 053d f9d3 ecbd 7862 e5bc
000001d0: 2e08 243d d3a5 68bd 69a2 2c3c 1ab9 963e
000001e0: b66b 20bb 3c1a bd3c c3c4 abbd bd47 5dbe
000001f0: e8ca f03c 68d0 a53d 74da 343e 1a10 00be
00000200: f793 81be c7dc bebd 67ea 8bbe bbf0 383e
00000210: 6aa8 bf3e 1676 0bbe 2926 08be 84d3 8b3e
00000220: 318e 80be 619d 46be 77f6 67bd d223 bd3b
00000230: cb4d 98be 7647 dc3c 6b29 693c e0d4 3ebd
00000240: 56f9 883e 3db6 55be eca4 ee3d 9427 2abe
00000250: b8c0 593e e481 2fbe 5349 2e3d d01c efbd
00000260: 424a 943e 03d8 4d3e 6e61 733c a957 233e
00000270: c8ac 8ebc 2e12 03bd d158 393c 2b0d 1f3d
00000280: 376e 05be b280 e63c f17d c1bb 6ad7 383d
00000290: eb43 423d 8744 4ebb 6bb0 2b3d a75a a73d
000002a0: 7c9e 22bd 98ec c33d 1dcd 773d 0246 08be
000002b0: ca72 3b3e 13a5 623d 667b 623c e62b 3ebe
000002c0: 6184 abbc cd34 243b 06f8 5d3d 9487 3abd
000002d0: c078 7bbd 2c9a d63d 3af6 03bd 4b44 d53d
000002e0: 805e a73c 6f0e af3d 9589 40bd e568 5e3e
000002f0: e17c 8dbd f258 c53c f5d8 3bbd 5835 253b
00000300: 7c77 c53c d8c3 9b3d dc29 b6bd 5e5c ab3d
00000310: ddbf a4bd 4a38 9c3d c6a6 78be bd33 493e
00000320: 6e48 b6bd bc23 a5bd 8196 8f3d c344 a1bd
00000330: 2efe d63d 2983 083e ed0e a43d 26a4 133c
00000340: bc86 abbd 3799 183d 46d1 28bc fede c53d
00000350: 4012 07bd 6fae c9bd 084c 203e 173f 193e
00000360: 212e c3bc 4089 61bd 40ff fd3d 1c2e cd3d
00000370: 0971 053d be83 3bbd a1e3 9a3d 3a8f 963d
00000380: dd10 ef3d 807a 06be 1c43 943e 20eb 413d
00000390: 2fb3 03be 6e78 0fbd ec13 ecbd 960a 8d3e
000003a0: fcc4 b73d 2df8 eb3d 5627 e93e e089 03be
000003b0: e205 03be 35b9 ae3e ab47 5cbe 2c5d 78be
000003c0: 4cce cdbc 2b30 82ba da24 883d 60af 833c
000003d0: 1d94 253d 71ac 2a3d fb78 1abe 7ab9 31be
000003e0: f99e 363e 78fc 1abe 38a6 c13d b5da dcbb
000003f0: 48e1 503d 654e e5bc f296 0dbf 9b9e 673e

layers.4.bias f4 [20]
0.047745883 -0.17345232 -0.06427559 -0.1551869 -0.10289124 -0.01093889 0.045216184 -0.002109456
-0.0759083 0.038369477 -0.06241111 -0.031156361 -0.09911042 -0.13668263 -0.09316347 0.01751818
0.020685902 -0.07443632 -0.16884224 -0.1141625
00000000: 3091 433d 7c9d 31be eca2 83bd 51e9 1ebe
00000010: a4b8 d2bd 0839 33bc 9b34 393d cd3e 0abb
00000020: d075 9bbd 5029 1d3d cba2 7fbd a03b ffbc
00000030: 67fa cabd 88f6 0bbe 7dcc bebd 4982 8f3c
00000040: 7b75 a93c 1272 98bd fbe4 2cbe 07ce e9bd
