data/models/test_dc9_only_10_bins/checkpoints/epoch_200.pt (torch, 6957 bytes, 6 tensors)

layers.0.weight f4 [16, 4]
0	0x3eb1584b	0.34637675
1	0x3dbfc66f	0.0936402
2	0xbdf0dbe0	-0.11760688
3	0xbe3b43f7	-0.18287645
4	0xbdbbd6de	-0.09171842
5	0x3ec1bddf	0.37840173
6	0x3e971fd6	0.29516476
7	0x38f6e936	0.00011773633
8	0x3ed7258c	0.42020833
9	0xbe93ef5e	-0.2889356
10	0xbeecb1a6	-0.46229285
11	0x3dfec96e	0.124407634
12	0xbe0d8bbd	-0.13822837
13	0xbaef41a0	-0.0018253811
14	0xbe0b7b46	-0.13621244
15	0xbdccc4b8	-0.099984586
16	0x3eb6b3bb	0.35683998
17	0xbee10abb	-0.439535
18	0x3d0437de	0.03227984
19	0xbe164edb	-0.14678518
20	0xbda2f99e	-0.07957767
21	0xbf0540f7	-0.52052253
22	0xbe95882b	-0.2920545
23	0x3e8b10b8	0.27161193
24	0xbe879515	-0.26480928
25	0x3e658558	0.22414148
26	0xbe6a9892	-0.22909763
27	0x3e51123d	0.20417114
28	0x3e1fe15a	0.15613309
29	0xbd1dbd14	-0.038510397
30	0xbe818b65	-0.25301662
31	0xbe801943	-0.25019273
32	0xbe984b77	-0.29745075
33	0xbdbf490e	-0.09340106
34	0xbedf5923	-0.43622693
35	0xbe97f2a2	-0.29677302
36	0x3eae0936	0.33991402
37	0xbd9e012b	-0.077150665
38	0x3e9ffa20	0.31245518
39	0x3e8509d0	0.2598405
40	0xbedec933	-0.43512878
41	0xbe39cbdd	-0.18144174
42	0xbcade50c	-0.021227382
43	0xbcedae86	-0.029013883
44	0xbeff8e85	-0.4991342
45	0xbf0cdaf4	-0.55021596
46	0xbe907fe5	-0.28222576
47	0xbdd9c5fc	-0.10633466
48	0x3e737d2c	0.23778218
49	0x3e8bfb4e	0.27340168
50	0xbdcf74fd	-0.101297356
51	0x3d85b516	0.0652868
52	0x3e894f60	0.2681837
53	0xbe8675df	-0.26261804
54	0xbe190462	-0.14943078
55	0xbebb07e5	-0.3652946
56	0xbf0231f5	-0.5085748
57	0x3ebf9a11	0.3742223
58	0x3ebd6a51	0.36995175
59	0x3e79699c	0.24356693
60	0xbbff230a	-0.0077861594
61	0x3e1f7ca1	0.15574886
62	0x3de89eac	0.11358389
63	0x3c7d638e	0.01546563

layers.0.bias f4 [16]
0	0x3ea877a5	0.32903782
1	0xbec308ff	-0.380928
2	0xbe093b88	-0.13401616
3	0x3eb567a1	0.35430625
4	0x3df714aa	0.12064488
5	0xbe0136b1	-0.1261852
6	0x3e2b1067	0.16705476
7	0xbd112d28	-0.035443455
8	0x3ec31790	0.38103914
9	0x3de4e406	0.111763045
10	0xbddf50bf	-0.10904073
11	0xbea94d59	-0.33066824
12	0x3f0c6377	0.5483927
13	0xbe805e24	-0.25071824
14	0x3e199456	0.14997992
15	0x3e68201e	0.22668502

layers.2.weight f4 [32, 16]
0	0x3cae349c	0.02126532
1	0xbda2ebfb	-0.07955166
2	0x3dc5a82f	0.09651219
3	0x3ddd11e5	0.10794429
4	0xbc6a8d63	-0.014315936
5	0xbd13e8f4	-0.036110833
6	0x3e094757	0.1340612
7	0xbdaf0f08	-0.08547789
8	0x3e890e0c	0.2676853
9	0x3e77da87	0.24204455
10	0x3e0e45b1	0.13893773
11	0x3de0eab2	0.109822646
12	0x3e2ff786	0.17184266
13	0x3e0cc1e7	0.13745843
14	0x3e8d60e3	0.2761298
15	0xbe12867a	-0.14309111
16	0x3e8616f9	0.26189402
17	0x3e3c1c82	0.1837025
18	0xbcedc751	-0.029025706
19	0x3cea6a4f	0.028615145
20	0x3e78b17e	0.24286458
21	0x3e4ce1bf	0.2000799
22	0x3df545ed	0.11976228
23	0xbd97a710	-0.074049115
24	0xbded1b85	-0.115775146
25	0x3d1ffd68	0.039060026
26	0x3dad6917	0.0846731
27	0xbe2427a4	-0.16030747
28	0xbda3ea50	-0.08003676
29	0x3e50a3b8	0.20374954
30	0x3e42abbd	0.19010825
31	0xbd9ab18a	-0.07553394
32	0x3c41fef2	0.011840569
33	0x3e3d4c54	0.18486148
34	0xbe3738f1	-0.17892815
35	0x3e0fe767	0.14053117
36	0xbdd3b6b0	-0.10337579
37	0xbd950022	-0.07275416
38	0xbd6b65fe	-0.057470314
39	0x3e69461e	0.22780654
40	0x3d931445	0.071816005
41	0x3ccb0191	0.02478102
42	0xbdeade85	-0.114682235
43	0x3e6d4b7b	0.23173325
44	0x3e4daf63	0.20086436
45	0x3d8f7ffa	0.070068315
46	0xbdb5b96e	-0.088732585
47	0xbdbe61dd	-0.0929601
48	0xbe1aa23f	-0.15100954
49	0x3c162209	0.009163388
50	0xbda6e6e1	-0.081495054
51	0xbdb9f85a	-0.090805724
52	0x3dae6e07	0.0851708
53	0x3e57b69d	0.21065755
54	0xbe36069a	-0.17775956
55	0xbe017db4	-0.12645608
56	0xbdbe9d88	-0.093073905
57	0x3e8e3562	0.27775103
58	0xbdeee21a	-0.11664219
59	0xbcf48ece	-0.02985325
60	0xbe1dd71e	-0.15414092
61	0x3e84cb71	0.25936463
62	0x3d77d2b6	0.060503684
63	0x3e28fe49	0.16503252
64	0x3e3076ca	0.17232814
65	0x3e1375d0	0.1440041
66	0xbe7232e3	-0.23652224
67	0x3ce2d504	0.027689464
68	0x3e7dd891	0.24789645
69	0xbe405fbd	-0.18786521
70	0xbe2b2b21	-0.16715671
71	0xbda8c9d3	-0.0824162
72	0xbe0c6364	-0.1370979
73	0xbd484e68	-0.0489029
74	0x3e017155	0.12640889
75	0xbd83693e	-0.06416558
76	0x3e7afb1b	0.24509852
77	0xbe34ca44	-0.17655283
78	0xbd4565c3	-0.04819275
79	0xbe39c233	-0.18140487
80	0xbe37b4c1	-0.17940046
81	0x3cdb23f2	0.026750538
82	0x3e172c52	0.14763
83	0x3df19786	0.11796479
84	0x3d1bdf06	0.03805449
85	0x3d858c2f	0.065208785
86	0x3d80cff5	0.06289665
87	0x3e7a3cbe	0.24437234
88	0xbe03d948	-0.12875855
89	0xbd60ed6e	-0.05491393
90	0xbb83bd5d	-0.0040203766
91	0x3d879915	0.06620995
92	0x3e53f94a	0.20700565
93	0x3e5501d9	0.20801486
94	0x3e5c6879	0.21524228
95	0x3e56fb6c	0.20994347
96	0xbe77a668	-0.24184573
97	0x3e17a2d2	0.14808205
98	0xbe18bfe1	-0.14916946
99	0x3d376534	0.04477425
100	0xbe4533cf	-0.19258045
101	0xbde3f75d	-0.11131165
102	0x3e587341	0.21137716
103	0x3e1c3afd	0.15256877
104	0xbd57b91b	-0.052666765
105	0x3e66bab3	0.22532158
106	0x3de02d44	0.10946134
107	0x3dbad99a	0.091235355
108	0x3ded4af6	0.11586563
109	0xbe298546	-0.16554746
110	0x3b745547	0.0037282275
111	0xbe16bc36	-0.14720234
112	0x3c8185c8	0.015810862
113	0xbe03533c	-0.1282472
114	0xbd7107b4	-0.058845237
115	0x3daeaa60	0.0852859
116	0x3d87be7c	0.06628129
117	0x3a17951a	0.0005782411
118	0xbc501e70	-0.012702569
119	0x3df4f4b5	0.11960737
120	0xbd952eda	-0.07284327
121	0xbe4dec0e	-0.20109579
122	0xbe5d3359	-0.21601619
123	0xbdd16712	-0.10224737
124	0x3e8a3632	0.26994473
125	0x3e281120	0.16412783
126	0xbe5f6443	-0.2181559
127	0xbe5e87b4	-0.21731454
128	0xbd931083	-0.07180884
129	0x3b326080	0.0027218163
130	0xbdd3adad	-0.103358604
131	0xbe772aff	-0.24137495
132	0x3e5d6535	0.21620639
133	0x3e5d6c94	0.2162345
134	0xbe1f3821	-0.15548755
135	0xbe1c5ffe	-0.15270993
136	0x3e1fd618	0.15609014
137	0xbce3f1b9	-0.027825223
138	0xbe12b584	-0.14327055
139	0xbe4a4ca0	-0.19755793
140	0xbe0e04f2	-0.13869074
141	0x3b7ba829	0.0038399792
142	0x3cfe79e9	0.03106399
143	0xbd1ad312	-0.03779895
144	0x3e4281ab	0.18994777
145	0x3bd8d890	0.006617613
146	0x3daca39d	0.08429644
147	0xbd8b5fb8	-0.06805366
148	0x3e543089	0.2072164
149	0x3e52ebcc	0.20597762
150	0xbe423557	-0.1896566
151	0x3dba1b20	0.09087205
152	0xbd9f8bd6	-0.077903435
153	0xbe69516b	-0.22784965
154	0x3d336aad	0.043802906
155	0xbe158d39	-0.14604653
156	0xbdf5128a	-0.11966427
157	0x3e19284b	0.14956777
158	0xbd887320	-0.06662583
159	0xbc7191d1	-0.014744238
160	0xbe4ef10e	-0.20209143
161	0xbe36437b	-0.1779918
162	0x3e3ba1f9	0.18323506
163	0x3e7c9eaf	0.24669908
164	0xbd124624	-0.035711423
165	0x3e2a33f0	0.16621375
166	0xbc2c7e02	-0.0105280895
167	0xbdcadebb	-0.09905764
168	0xbd11f505	-0.03563406
169	0xbc2199e6	-0.009863352
170	0x3e4286e6	0.18996772
171	0x3e03de98	0.12877882
172	0x3cb4d4c7	0.022074116
173	0xba6f070a	-0.00091181754
174	0x3d63c739	0.055609915
175	0xbe44c984	-0.19217497
176	0xbdcba04b	-0.09942683
177	0xbe7d0c44	-0.2471171
178	0xbe82ad99	-0.2552307
179	0xbddc4d75	-0.10756961
180	0xbdda20ae	-0.106507644
181	0x3e11643e	0.14198396
182	0xbd62e240	-0.05539155
183	0x3d60640a	0.054782905
184	0xbdc5574e	-0.09635793
185	0xb9cd06b1	-0.00039105632
186	0xbe201e9a	-0.15636674
187	0x3e847363	0.25869283
188	0xbe89809f	-0.26855943
189	0xbd1ac665	-0.03778686
190	0x3b24c687	0.0025142746
191	0xbe26642d	-0.16249152
192	0xbbe3b69b	-0.0069492585
193	0x3e0c5aa6	0.13706455
194	0x3d7ceb99	0.06174812
195	0xbdfb2146	-0.12262206
196	0xbdb9dd61	-0.09075428
197	0x3d8375d3	0.064189576
198	0x3e4e7b04	0.20164114
199	0xbd893a5d	-0.06700585
200	0xbe67dba0	-0.22642374
201	0xbe6a073f	-0.22854327
202	0x3e0a5db6	0.1351231
203	0xbcf870ae	-0.030327167
204	0x3d133ced	0.035946775
205	0x3e3f6ead	0.18694563
206	0xbe0ea8f7	-0.13931642
207	0xbd89fe41	-0.06737948
208	0xbcd589ee	-0.026066747
209	0xbd78efa1	-0.060775403
210	0xbe0fa146	-0.14026365
211	0xbe3bc883	-0.18338208
212	0x3d91215e	0.070864424
213	0x3c373cd4	0.011183936
214	0x3c618e64	0.013766859
215	0x3e0a924f	0.13532375
216	0xbd772dd5	-0.060346443
217	0x3da1c3ae	0.07898651
218	0x3df69629	0.120403595
219	0x3e60e217	0.21961246
220	0x3bd869f0	0.0066044256
221	0x3e3c32c5	0.18378742
222	0xbc9b4d25	-0.018957684
223	0x3d9832fb	0.07431599
224	0x3e0a854c	0.13527411
225	0xbde3a31e	-0.111150965
226	0x3e3944ce	0.18092653
227	0xbe74ac6d	-0.238939
228	0x3de63e6b	0.11242374
229	0x3e2e5257	0.17023598
230	0xbd007b64	-0.031367674
231	0x3dc77f5f	0.09741091
232	0x3e63d278	0.22248256
233	0xbe614ba1	-0.22001506
234	0x3e65f9a9	0.22458519
235	0xbe62a6e8	-0.22133982
236	0x3d24b59c	0.04021226
237	0xbe5c43a1	-0.21510173
238	0x3da413fb	0.080116235
239	0x3e2dccf7	0.16972719
240	0xbe5a9591	-0.21346118
241	0xbdcb9a0d	-0.09941492
242	0x3dc0605a	0.093933776
243	0x3dde3401	0.10849763
244	0xbd73595b	-0.059411388
245	0xbc97150a	-0.01844265
246	0xbda24122	-0.07922579
247	0xbda7b77a	-0.08189292
248	0x3e34aad9	0.17643298
249	0xbcb27548	-0.02178444
250	0xbd751804	-0.059837356
251	0x3c3f4218	0.011673473
252	0x3ddcd55e	0.10782884
253	0x3c83facc	0.0161108
254	0xbd95b322	-0.073095575
255	0xbdee580c	-0.11637887

layers.2.bias f4 [32]
0	0xbe0bc2f8	-0.13648593
1	0x3e153e69	0.14574589
2	0x3d96091b	0.073259555
3	0x3d9a9f37	0.07549899
4	0x3d761944	0.06008269
5	0xbc9d13f9	-0.019174563
6	0x3e45f7bd	0.19332786
7	0x3cc8457f	0.0244472
8	0xbe1dcbea	-0.15409818
9	0x3e544256	0.2072843
10	0x3df7e05e	0.121033415
11	0x3e542acb	0.20719449
12	0x3e2f39e0	0.17111921
13	0xbe7da28a	-0.24769035
14	0x3dca1dbb	0.09868952
15	0x3e7aa963	0.24478678
16	0xbe03e814	-0.128815
17	0x3d51a944	0.051186815
18	0xbe50ae6e	-0.2037904
19	0xbe126e4f	-0.14299892
20	0x3c95d0fb	0.018288126
21	0xbdd75bf2	-0.10515584
22	0x3e64590a	0.2229959
23	0xbcca0c27	-0.024663998
24	0x3d040053	0.03222687
25	0x3c6c978e	0.01444043
26	0x3e30e374	0.17274266
27	0xbd89a9d7	-0.067218475
28	0x3e07aca9	0.13249458
29	0xbe67ef33	-0.22649841
30	0xbd05d69d	-0.032675374
31	0x3db6ef1e	0.08932327

layers.4.weight f4 [10, 32]
0	0x3d878810	0.06617749
1	0x3e13fad7	0.14451157
2	0xbd987b6d	-0.074454166
3	0x3e5ce5cc	0.21572036
4	0xbd8049dd	-0.06264088
5	0xbe129cd8	-0.14317644
6	0x3d67c705	0.056586284
7	0x3dd81bf3	0.10552206
8	0xbd383506	-0.044972442
9	0x3e0426a7	0.1290537
10	0x3ddcd5e8	0.10782987
11	0x3e585fb6	0.21130261
12	0xbe353ba4	-0.17698532
13	0xbd6746dc	-0.05646406
14	0x3d3c1919	0.045922372
15	0x3e1a6fed	0.15081759
16	0xbe25551c	-0.16145748
17	0xbdb8677b	-0.09004112
18	0xbe3e26ba	-0.1856946
19	0x3de41e84	0.11138633
20	0x3dfebcc7	0.1243835
21	0xbdb7eaa6	-0.089803025
22	0xbd6738d9	-0.0564507
23	0xbcb33d3e	-0.021879788
24	0xbdcf685a	-0.10127325
25	0x3e1685d1	0.14699484
26	0x3e417366	0.18891677
27	0x3d332b94	0.04374273
28	0xbdfca9e7	-0.12337094
29	0xbe2b43f0	-0.16725135
30	0x3ccad9ce	0.02476206
31	0xbd0f5f03	-0.03500272
32	0x3d510d45	0.051038045
33	0x3db5335c	0.08847687
34	0xbd02f518	-0.03197202
35	0xbd4c7a60	-0.049921393
36	0xbd98cf7d	-0.0746145
37	0x3bf4645c	0.007458253
38	0xbe04d1f6	-0.12970719
39	0x3daaa9ea	0.0833319
40	0x3db9e0c4	0.09076074
41	0xbdde0c5b	-0.108422
42	0x3da8495b	0.082171164
43	0x3e1ec2ef	0.15504049
44	0xbda3fa03	-0.0800667
45	0xbd2d9c8e	-0.04238563
46	0x3dd4df68	0.10394174
47	0xbd0904bc	-0.03345178
48	0xbc070b13	-0.008242386
49	0xbcb9c0bf	-0.022674916
50	0xbde68510	-0.112558484
51	0x3ced54fa	0.028971184
52	0x3e7b2e9b	0.24529497
53	0xbddfad24	-0.10921696
54	0x3e0afba5	0.13572557
55	0x3d73aca6	0.059490822
56	0xbd0f4791	-0.03498036
57	0x3e422c2d	0.18962164
58	0xbcca315d	-0.024681741
59	0xbd430711	-0.04761416
60	0x3d2d8354	0.042361572
61	0xbe43c1c6	-0.19116887
62	0xbdbab9c4	-0.09117463
63	0xbdf09af0	-0.11748302
64	0xbdbdd6ac	-0.09269461
65	0x3e2a5156	0.1663259
66	0xbde8991c	-0.11357328
67	0xbdaba21a	-0.08380528
68	0x3c35b79b	0.011091138
69	0x3d6226ee	0.055212907
70	0x3cc3659e	0.023852166
71	0x3e0fe394	0.14051658
72	0x3c81fbc3	0.01586712
73	0xbdf52554	-0.119700104
74	0xbdb8dde0	-0.09026694
75	0x3da56441	0.080757625
76	0x3da9e250	0.08295119
77	0xbb0c0493	-0.002136503
78	0xbe0a190b	-0.13486116
79	0x3d8e1bfb	0.069389306
80	0x3bddd380	0.0067695975
81	0xbd929a30	-0.07158315
82	0x39b4c606	0.00034479814
83	0x3dc8bbe7	0.098014645
84	0x3d23ff03	0.04003812
85	0xbe1dcc5a	-0.15409985
86	0x3e458682	0.19289592
87	0xbd8294dd	-0.0637605
88	0xbe32426c	-0.1740815
89	0x3c90c51f	0.01767212
90	0x3d81cf6f	0.06338393
91	0xbdb3bf60	-0.08776736
92	0xbdc3fefa	-0.09570117
93	0xbd8c8c3f	-0.06862687
94	0x3e2e4f25	0.17022379
95	0xbe08b0bd	-0.1334867
96	0x3cb8d610	0.02256301
97	0xbdb8c105	-0.090211906
98	0x3e14e5c5	0.14540775
99	0xbd5ec356	-0.054385506
100	0x3cbe3749	0.023219721
101	0x3da34316	0.0797178
102	0xbdb46237	-0.088077955
103	0xbc35d3bc	-0.011097845
104	0x3e2152af	0.15754198
105	0xbd14a649	-0.036291394
106	0x3de57010	0.11203015
107	0xbe17e483	-0.14833264
108	0x3cf68623	0.030093258
109	0xbdf32c61	-0.11873699
110	0x3de52bf7	0.11190026
111	0xbc416f1a	-0.011806274
112	0x3c6c4792	0.014421361
113	0xbdeb263a	-0.114819005
114	0xbdd8a127	-0.10577612
115	0xbe0acdcb	-0.13555066
116	0x3dfeb5ae	0.124369964
117	0xbd6b89ac	-0.05750434
118	0xbd816475	-0.06317989
119	0x3da1db20	0.07903123
120	0xbe23e356	-0.1600469
121	0xbafb38ff	-0.0019166766
122	0xbd5d4a24	-0.054025784
123	0x3b8da8c4	0.004323097
124	0xbddd6015	-0.10809342
125	0xbd7f4019	-0.062316988
126	0xbd503e68	-0.050840765
127	0xbda5d774	-0.08097735
128	0x3c3b20b6	0.011421373
129	0x3e48202f	0.19543527
130	0x3d94b94e	0.072619066
131	0x3c99e214	0.01878456
132	0x3e36fdd0	0.1787026
133	0x3d162bab	0.03666274
134	0x3d33e724	0.043921605
135	0x3d369b51	0.044581715
136	0xbd1e2d80	-0.03861761
137	0xbd6dc260	-0.0580467
138	0x3dc14c82	0.09438421
139	0x3e371240	0.17878056
140	0x3b4e41b8	0.0031472277
141	0x3e46fdd2	0.19432762
142	0xbcc6a994	-0.024250783
143	0x3d293556	0.04131063
144	0x3d18ea2f	0.03733271
145	0xbd68b82e	-0.056816272
146	0x3dbefad4	0.093251854
147	0x3d2ba180	0.041902065
148	0xbb8721b2	-0.00412389
149	0x3d6280b6	0.05529853
150	0x3939381f	0.00017663882
151	0xbdcdba1c	-0.10045263
152	0x3e336e08	0.17522442
153	0xbd87e049	-0.06634576
154	0xbdac6222	-0.08417155
155	0x3e18baac	0.1491496
156	0x3d579fb8	0.052642554
157	0x3db131a2	0.08652045
158	0xbad39ed7	-0.001614536
159	0xbc326ac7	-0.0108897155
160	0xbd56316d	-0.05229323
161	0xbd6e2586	-0.058141254
162	0x3d1545c3	0.036443483
163	0xbd95342b	-0.07285341
164	0xbe4255f7	-0.18978105
165	0x3c759942	0.014990153
166	0xbdbc3e2b	-0.09191545
167	0xbe549e82	-0.20763591
168	0x3e1a572d	0.15072317
169	0x3ca03496	0.019556325
170	0xbd9bbb1f	-0.0760405
171	0xbc05bbe7	-0.008162475
172	0x3d84b60d	0.06480036
173	0xbdd23759	-0.10264463
174	0x3d53418c	0.051576182
175	0xbdcf0b90	-0.10109627
176	0xbdb0690e	-0.086137876
177	0x3e1a2d1a	0.15056267
178	0x3e3a8c82	0.18217662
179	0xbdc7d9a9	-0.09758312
180	0x3cfeee78	0.03111957
181	0x3e24901e	0.16070601
182	0xbe3003cf	-0.17188953
183	0xbe252519	-0.16127433
184	0xbd55367c	-0.052053913
185	0xbcc39deb	-0.023879012
186	0xbd17757c	-0.036977276
187	0x3d8fd55a	0.070231155
188	0x3df9f6e6	0.12205295
189	0x3e036203	0.12830357
190	0xbe050c7c	-0.12993044
191	0x3e0a9cb5	0.13536341
192	0xbdb6aa1c	-0.089191645
193	0xbdacf171	-0.08444489
194	0xbda138b1	-0.07872141
195	0x3b948b8a	0.004533236
196	0x3d416353	0.047213864
197	0xbd9bb3e3	-0.0760267
198	0xbdb16d23	-0.08663394
199	0x3da70f6c	0.08157238
200	0xbe373274	-0.1789034
201	0x3da0465f	0.07825922
202	0xbd844fd6	-0.0646054
203	0x3c1bbd77	0.009505621
204	0x3e23fdac	0.16014737
205	0xbe0f6993	-0.14005117
206	0xbc4b1d52	-0.012397127
207	0xbe4dfb4f	-0.20115398
208	0x3e04c2ae	0.1296489
209	0x3e0ea9da	0.1393198
210	0xbd6ec0f6	-0.05828949
211	0x3d9caee1	0.07650543
212	0xbdd6e964	-0.104937345
213	0x3af7c0e3	0.0018902089
214	0x3d82e369	0.06391031
215	0xbd2734e8	-0.04082194
216	0x3ddae353	0.1068789
217	0x3deb65d8	0.114940345
218	0x3e0799b9	0.13242234
219	0x3e01e511	0.12685038
220	0x3e257993	0.16159658
221	0x3d3d036b	0.046145838
222	0xbcc8cc56	-0.024511497
223	0x3e1cac08	0.153
224	0xbd30a0cf	-0.04312211
225	0x3d9c9326	0.07645254
226	0xbdf9f8d9	-0.12205667
227	0xbdd8d6fa	-0.105878785
228	0xbdce59bb	-0.100757085
229	0x3e096195	0.13416131
230	0xbd4f0006	-0.05053713
231	0x3e1c4f3f	0.15264605
232	0x3e0e4df5	0.13896926
233	0xbe20a154	-0.15686542
234	0xbdc5bbf6	-0.09654991
235	0x3d11cd43	0.035596143
236	0xbd4470ba	-0.047959067
237	0xbe5039fc	-0.2033462
238	0xbc8b8c63	-0.017034715
239	0x3d7dcb47	0.06196144
240	0x3e1fb4bc	0.15596288
241	0x3d0d88cc	0.034554288
242	0x3d4ede7a	0.05050514
243	0x3d9fc2e1	0.07800842
244	0x3cae0e9f	0.021247206
245	0x3da151b4	0.07876912
246	0x3d797361	0.06090105
247	0xbc876874	-0.0165293
248	0x3d880bcc	0.06642875
249	0xbdd9392e	-0.10606609
250	0xbd8ec6e4	-0.06971529
251	0xbdd1781c	-0.10227987
252	0x3e4f2293	0.20228033
253	0x3cfdcaad	0.030980432
254	0x3c6c426b	0.014420132
255	0x3dea9808	0.11454779

layers.4.bias f4 [10]
0	0xbddbd68e	-0.107342824
1	0xbca4c1bb	-0.02011191
2	0x3da19a55	0.078907646
3	0x3d27c162	0.04095591
4	0xbdf280f6	-0.118410036
5	0x3e0b3892	0.13595799
6	0x3dcf1b3c	0.101126164
7	0x3c847d19	0.016172932
8	0x3ca1051e	0.01965576
9	0xbd8e5ea5	-0.06951646
