data/models/test_easier_many/checkpoints/epoch_180.pt (torch, 11053 bytes, 6 tensors)

layers.0.weight f4 [16, 6]
00000000: ac2d b8bc 2332 2b3c 11b5 d6bd 22b7 13bd
00000010: 3dab 273f f294 a63e d5a6 4fbb 512b 7ebb
00000020: fcd5 833c 3ac7 0ebc 860b 4fbf 1a4c d73e
00000030: ee65 863c ce57 023d 52ce 40bd 6a69 35bd
00000040: 1a93 38be 42ca e53e bf37 193d dc83 633d
00000050: 753f 20bd 5abe cbbc b827 23bf 231e 393f
00000060: ae4e e2bd a6d0 53be 7e19 8ebe 17e4 2cbe
00000070: 0af7 94bd a6c5 a2be 6edc fd3c cdac 433d
00000080: daae b53c 1fe6 bf3c a3a6 063e 232a 41bf
00000090: a64b db3d 21c1 103e aa89 1e3e 106b cc3d
000000a0: 97ef f2be c2ec 85be 53dc 35bb da4b d9ba
000000b0: c72b 2a3a 6f15 acb9 fc2f 47bf 51ac 323f
000000c0: a9a6 9b3c 3131 6e3d af15 1dbc 3671 c3bc
000000d0: 41c9 0e3f 698c 4dbf 9869 a03d d059 0a3d
000000e0: f014 2b3d 5d06 473c ec3d 043f 6157 213f
000000f0: 6a01 993a 06b1 8eba 2f5e 523c 1635 2dbc
00000100: 837d 37bf d845 fabe 6795 d73c 9ecc 853c
00000110: 8bfc 693d 49dd a73b 14f0 223f 5c76 003f
00000120: e58e 9dbd 6af8 b5bd a9f6 11bd 713b 6a3b
00000130: 571e e3be 95fc 093f b9a7 5cbd 8387 cfbc
00000140: b601 c7bd 3a7c 3abd 9b51 4dbf d289 0abf
00000150: 48ef 7d3a da8f 22bc 1f53 42bb 8854 77b9
00000160: fe06 293f be3b 4dbf 0e12 39bd 3a3e dfbb
00000170: fe5d 4c3c 968b bc3b 8063 2a3f a060 1f3f
-0.022482716 0.010448965 -0.104837544 -0.03606332 0.65495664 0.3253551 -0.0031685133 -0.0038783143
0.016093247 -0.0087144915 -0.8087696 0.42050248 0.016406026 0.03182202 -0.047071762 -0.044289984
-0.18024865 0.44880873 0.03740668 0.055545673 -0.039123017 -0.02487104 -0.6373248 0.7231161
-0.11050163 -0.20685062 -0.27753824 -0.16883884 -0.072736815 -0.3179142 0.030988898 0.047772218
0.022178102 0.02342516 0.13149504 -0.7545492 0.10707788 0.14136173 0.15482202 0.09981358
-0.47448418 -0.26157194 -0.0027749732 -0.0016578392 0.00064915087 -0.00032822366 -0.77807593 0.69794184
0.019000368 0.05815238 -0.009587689 -0.023857694 0.5577584 -0.80292374 0.078326404 0.033777058
0.041768014 0.012147513 0.51656985 0.63023955 0.0011673395 -0.0010886497 0.012839838 -0.010571739
-0.7167589 -0.48881412 0.026316358 0.01633292 0.05712561 0.005122815 0.6364758 0.501806
-0.076932706 -0.08885272 -0.035635624 0.0035740996 -0.44359085 0.53901035 -0.05387089 -0.025333172
-0.09717123 -0.045528628 -0.80202645 -0.5411655 0.000968684 -0.009921992 -0.0029651595 -0.00023587246
0.66026294 -0.80169284 -0.045183234 -0.006812838 0.012473581 0.0057539446 0.66558075 0.62256813

layers.0.bias f4 [16]
00000000: 7844 933e c83e 19be 21cc 443f b4d9 7cbd
00000010: 16ce d03e 5fa5 9d3e 2926 363f da5b a73d
00000020: 11f8 a63d fba0 2c3e 8c31 213f 88b8 013f
00000030: ce14 e33d 5c9b 0c3d f763 be3e d4d2 f13e
0.28763175 -0.14965355 0.76873976 -0.061731055 0.4078223 0.3079023 0.7115198 0.08171816
0.08152784 0.16858284 0.6296623 0.506722 0.110879526 0.03432785 0.37185642 0.47231162

layers.2.weight f4 [32, 16]
00000000: 6cb3 5ebe 4f0e 61be 34ed c73e 4f83 0a3f
00000010: 0f97 24bd c183 00bf cabf 403d 089a a23e
00000020: a34b b9be 25da f33d 84e3 84be 6e29 493c
00000030: dbc6 fd3e 1b8d 0bbf 5d2c 78be 37af 1d3e
00000040: 9b5b 08bf e69a b73d 97ac 16bf a6c5 70be
00000050: b7ab 4d3e 2e76 033f f3d6 413d a7a2 51be
00000060: ba01 ec3d 3e74 1abe 9880 6d3e a146 1abe
00000070: c92a 31be 45f4 c93e 6b72 d13e 7afd ebbe
00000080: cc1e 633e 56e2 9dbe c5c0 45bd 936c d2be
00000090: fbf2 a43e af76 a73e 18c1 ba3d f6cb 9bbe
000000a0: 19b5 d23e d8f3 dfbd 1273 9abe bf13 af3e
000000b0: f53e 18be 3467 ecbe 26a4 c03e 575b 1f3e
000000c0: fcfc b63e 9e96 a03e dc4b ddbe 5a46 993e
000000d0: 99b8 3e3e 09d6 f63e b323 c6bc 346d 203e
000000e0: 5ea9 cd3e 65c3 323d 12a5 0fbd 82e3 a03e
000000f0: c50e 9ebd e458 153d 4728 883e 9022 ce3e
00000100: 01e5 21bd f454 d8be fcd9 d63e 18da a0be
00000110: 62ce 9f3d 381e ca3b d67f fc3e 89e4 6bbe
00000120: defa 653d b7fb 19be 28e9 873e 8ed6 2cbd
00000130: 0b46 b83d c264 693e 5db8 653e 2b43 abbe
00000140: 04c7 4c3c 8686 de3d 9353 c63e 3cac 2c3e
00000150: a5ed 463e e67e a8be 797c 433e 1048 67bd
00000160: 4f26 1abf 9900 083e f1ee 9a3e 8c0a a63e
00000170: fe7d ce3e cf26 d63d 0cc2 15bf 1e36 443e
00000180: 4cbb 8e3d 46b1 943d 911e e43e bb5e d53d
00000190: e038 e13b eff8 dc3d 0299 ad3d 5e48 083f
000001a0: ac3d 093e 5de3 c8be afcd c7be 099a 9e3e
000001b0: 8297 343e 0553 9a3d 2e34 f03e b4b0 813e
000001c0: 8f0d b13e a559 c8be e1b4 843e b589 8dbd
000001d0: 00a4 763e 9e19 23bf 32e6 7e3e 3347 04be
000001e0: 816a 2cbe f04b c43e fcce dabe 8c61 e53d
000001f0: f96d 733e 3610 9dbe a2fb b3be dc58 e23e
00000200: c0fe 03bf 5257 5d3e e81c 783e 35dd 003f
00000210: 8911 2b3e 82e1 a33e 6511 533e 57c8 163e
00000220: 5321 363c 00ec 893e bb55 c83e 0949 23be
00000230: 65dd c03e e7b4 593d 27d3 693d 4b6c 50be
00000240: c8c4 723e 0d3f cdbe 5971 003e d78e efbe
00000250: 5feb ea3d 4e1d 47be 6b57 3a3e 417f f7be
00000260: 4593 bfbd 8762 763e ddf0 773e a8d1 973e
00000270: 5486 55be 4fd2 893e f9b4 513e b254 dc3e
00000280: 9e5a 4abe f30b 093f ffcb 453e 2ab2 1b3f
00000290: f357 c8bd 4802 85be 24b9 ab3e f167 863e
000002a0: ac0f 903d f8ec f7be ed7a b53e 2893 10bf
000002b0: e14c bc3e 2f27 ae3d e720 dd3d 9d63 14bf
000002c0: ea23 fabe 5313 af3d 4ecc 1ebf 7b9a efbe
000002d0: a009 f93d 3fd2 913e b34a 873e 64b5 ffbd
000002e0: 7307 d43e 3d2a 30bf 62cd fc3e 546a 2ebf
000002f0: a773 c2be e4fa 263f 129e 113e 79e9 42be
00000300: b187 dbbe f8bc c13e 5f90 b93e 7ead e53e
00000310: 53e1 ffbc 9f76 c6be 86c0 7c3d e107 c23d
00000320: 24e4 d3be 0fda 91be 2d26 463e addf afbe
00000330: b18d 2e3e 8bae 22be f69a 26be 4a07 ddbe
00000340: 91d8 f8be 9f10 f33e bfda 703d 3cd3 ef3e
00000350: a654 b4be 537a 04bf f33d 93bd e591 e63e
00000360: 80e6 14bd 1d5b 94bd a80f ebbd 2556 08bf
00000370: 8e89 193f 3116 213e 5e6f 1cbe fa6d b4be
00000380: 985d e2bd 7dbf 49be 6900 eabe ce0a 09bf
00000390: 3f42 153e f00d a13e 6d77 763c 0cb8 eabe
000003a0: f2a9 833e 94f2 0fbf a16e d03e f53f 33be
000003b0: 9187 febe db28 583e c386 d23e af96 f4be
000003c0: fd4a 1abe 1d03 fe3d 5d33 993d a3e6 843e
000003d0: 6375 07bd 4a03 26be 64cf 18bd 2de0 753e
000003e0: c838 0fbf f13e b03e ae1a cebd 24b0 9b3e
000003f0: 5e4c 1f3e bf19 9bbe 31b4 08bf 4e41 be3e
-0.21748132 -0.21978115 0.3904816 0.5410661 -0.040183123 -0.5020104 0.047057904 0.31758142
-0.3619052 0.11906842 -0.2595483 0.012277944 0.49565777 -0.54512185 -0.24235673 0.1539887
-0.5326478 0.089650914 -0.588571 -0.23512897 0.20085035 0.513522 0.047324132 -0.20472203
0.11523767 -0.15083405 0.23193586 -0.15066005 -0.17301477 0.39444175 0.40907606 -0.46091825
0.22179717 -0.30836743 -0.048279542 -0.4109846 0.3221663 0.32707736 0.09118861 -0.30429047
0.41153792 -0.109351814 -0.30165917 0.34194753 -0.14867766 -0.46172488 0.37625235 0.15562187
0.35739887 0.31364912 -0.4322194 0.29936486 0.18625106 0.4821017 -0.024186945 0.15666658
0.4016828 0.043643374 -0.035069533 0.31423575 -0.07717661 0.036461726 0.2659323 0.40260744
-0.039525036 -0.42252314 0.41963184 -0.31416392 0.07803036 0.006168153 0.4931628 -0.23036398
0.05614745 -0.15037428 0.26545072 -0.042196803 0.08997735 0.22792342 0.2243361 -0.33449683
0.012498621 0.10865502 0.38735637 0.16862577 0.19426592 -0.32909316 0.19090451 -0.05646521
-0.60214704 0.13281478 0.30260423 0.32429922 0.403305 0.10456621 -0.5849922 0.19161269
0.06969318 0.07260375 0.4455457 0.10418459 0.006873235 0.10789668 0.084764495 0.53235424
0.13402432 -0.39235964 -0.39024112 0.30976894 0.1763592 0.07535366 0.4691481 0.25330126
0.34580657 -0.39130893 0.2591925 -0.06911031 0.24085999 -0.63710964 0.248925 -0.12917785
-0.16837503 0.38339186 -0.42736042 0.11200246 0.2377242 -0.3067643 -0.35152918 0.4420842
-0.5156059 0.21615341 0.24229777 0.50337535 0.16705908 0.32007986 0.20612104 0.14724861
0.011116344 0.26937866 0.39127907 -0.1594583 0.3766891 0.053151038 0.057086136 -0.2035381
0.23707879 -0.40087166 0.12543239 -0.46788666 0.11470675 -0.19444773 0.1819741 -0.48339275
-0.09354261 0.24061023 0.24212976 0.29652143 -0.20852023 0.26918265 0.20479192 0.43033367
-0.1976113 0.5353386 0.193161 0.6081873 -0.097824 -0.25978303 0.3353969 0.26251176
0.07034239 -0.4842298 0.35445347 -0.5647454 0.36777404 0.085035674 0.10797291 -0.579645
-0.48855525 0.08548608 -0.62030494 -0.46797547 0.12160039 0.28480718 0.26424178 -0.124857694
0.41411933 -0.6881445 0.49375445 -0.68130994 -0.3797886 0.6522658 0.14220455 -0.19034375
-0.42876962 0.37839484 0.3624296 0.44858927 -0.031235373 -0.38762376 0.061707042 0.09474159
-0.41384995 -0.28486678 0.193505 -0.3435034 0.17046238 -0.15886895 -0.1627005 -0.43169624
-0.48602727 0.47473618 0.058802363 0.46840847 -0.35220832 -0.5174915 -0.0718955 0.45033184
-0.036352634 -0.07243941 -0.114775956 -0.53256446 0.59975517 0.15731122 -0.15276858 -0.35240155
-0.11053008 -0.19701953 -0.45703438 -0.5353211 0.14576052 0.31455946 0.015043122 -0.45843542
0.25715595 -0.5622952 0.40709403 -0.17504866 -0.49712804 0.21109335 0.4111844 -0.47771212
-0.15067668 0.124029376 0.074805 0.25957212 -0.033070933 -0.16212192 -0.037307158 0.24011298
-0.55946016 0.3442302 -0.100636825 0.30407822 0.15556476 -0.3029308 -0.5339995 0.371592

layers.2.bias f4 [32]
00000000: 1443 343e 384a 43bd 31cd 7a3e 0cba 7f3d
00000010: 4595 f03e 21e6 cb3d 9877 ef3e 9a40 533e
00000020: 552e 54be 140a 043f 94fe 3fbe bee2 d7be
00000030: d5f6 9d3d 0b94 b5be 243b d33d 43ee 20be
00000040: 893a 10be 93ee 013f f9d4 f53c d550 dc3e
00000050: 362c 3fbe cb73 18be 2730 9ebc 7d32 ec3d
00000060: 0c09 283b ce0b 3f3d 55b9 adbe 85f7 d93e
00000070: 7e15 5a3e bd57 af3e 0865 60bd 886d ab3e
0.17603713 -0.047678202 0.24492337 0.062433288 0.46988884 0.09956003 0.4677093 0.20630112
-0.207208 0.5157788 -0.18749458 -0.42165178 0.07713095 -0.3546451 0.103140146 -0.1571589
-0.1408483 0.5075466 0.03000878 0.4303042 -0.18669209 -0.14887922 -0.01931007 0.115330674
0.0025640158 0.046642117 -0.3393046 0.42571655 0.21297261 0.34246626 -0.05478385 0.33482003

layers.4.weight f4 [40, 32]
00000000: db19 8bbe 2173 a4be 308e 133e 57cd d2bd
00000010: 1a50 4d3c 0ad0 323e 9d17 433e 0945 c43d
00000020: 10ad c5bd de1c 24be 2af8 2a3e 7c7a 01bf
00000030: 86df 1a3e 475f 313e e6da 74be 4174 71be
00000040: b5c7 8fbd 57c4 7e3d 6354 283e 76ac 093e
00000050: 3ffa 9dbd fd0c a2bc e18b 7fbe f581 7c3e
00000060: e5fa bdbd 848e 313e 04d1 df3d cde0 8cbd
00000070: 1272 813e d791 0dbe 70bf 91bd 5ada f5bd
00000080: 685c 523e b5e7 febd f3ba a83e ab4b 073e
00000090: 8f64 22be 88aa 8ebe deac 7b3e 5af0 cfbe
000000a0: 88a2 fa3d 59e3 a23e 3e43 333e d645 14be
000000b0: 6f95 ae3e 38cc 383e fe66 2bbe 1324 02be
000000c0: f279 01bf e663 2ebe d4d8 adbe d6cf dcbc
000000d0: 9fa7 743d 0877 a2bd 0232 6abd ec97 00bf
000000e0: da8c 2e3d 7847 9e3d 9d42 dfbc 78c2 eebd
000000f0: a2a6 08be 22aa 08be b104 5a3e 4721 883d
00000100: 488b ca3e 6a95 683e a10e 143e a51d bf3d
00000110: 1cc0 3c3e e2c7 463e 8390 bebe eb05 353e
00000120: 0bde 81be fe79 a83e d762 03bf e163 ac3e
00000130: 51d6 9bbe eee2 a1be 55f6 b33e d8d8 023e
00000140: 3024 783e 496e a8be a9dd e63d caec 643d
00000150: ea85 1fbe b38a 703d f1cb f03e 4e57 adbe
00000160: 0a34 4f3d dc6f f7be 9ca5 85be fdc1 a2bd
00000170: 1d0d 7dbe f600 15bf be8a ba3d cd30 633d
00000180: ffb2 473e b9ef b03c 3235 7ebe 8f43 283d
00000190: faa6 003e aa5b a5be e6ab 8d3e 0d6c 5e3e
000001a0: 7546 283e 5841 683e 4013 81be fc4c c23e
000001b0: 7daa 9bbe 696b 5fbe 0f8e aabc a3ce 8ebe
000001c0: b5b2 c8bd f5cc b73d e4e8 36be 8562 c1be
000001d0: 280c ffbe cbba 953e 4172 9ebd 65c3 b33e
000001e0: 9e91 fd3c 291b d2bc 0bdd f23d a203 153e
000001f0: 2e5c f3bd d846 133e f5ae 43bd dee7 5bbe
00000200: eacf 6dbe 4415 663d 7529 833d a4c8 75be
00000210: d178 62be 221b 203d e79b e83b 3171 41bd
00000220: 8866 fcbc de72 8dbd 8199 af3d da66 9bbe
00000230: 6cd0 cb3d 650a 813e cb0e f2bd 8f50 acbd
00000240: 3bca 5e3d 3cf9 4dbe acea 0dbe e92c e63d
00000250: 5e44 cb3e 8ff0 e43d 3025 ce3d f749 16bd
00000260: f6bd 513e 7d3b 913e 3b99 973e 1634 f83c
00000270: 26e8 343d e206 b2bc 971f d3bd e8db d03c
00000280: 159d 193e 647c 7a3e d127 20be 19ac dcbc
00000290: 20cb f1bd 4eee 193e 48ae 57be 716c ca3e
000002a0: 891a 623e d7d8 e8be 3761 c0be 6ef4 ef3e
000002b0: 7dd9 73bb 7046 6d3d 9cdc 8d3e 29b6 8c3e
000002c0: b2e3 f33e 501b 80bd 3ebd b0bc 4ff7 923e
000002d0: 62e2 143e 810d 63bd 268d a93e 39b5 bebe
000002e0: ee7b b53e 424f bebe ac70 5c3e 4844 d6be
000002f0: a42a 4ebd cd33 13bf 8387 b23e 1a11 313e
00000300: 1c99 573d 0585 d3bd ff6a d33d ee87 d4bc
00000310: bf5e 10bd 2b9d 0c3f bc2f 903e 3c4b db3d
00000320: c039 98be 7cc1 acbc 24f0 77bc 15b7 d4be
00000330: 99d6 ae3e 8f02 79bc fe3b 68bd a375 803d
00000340: 110d b7bd 7cba b3be 8f67 613e 7865 a63d
00000350: 107c d23d db54 04bd fc06 edbd d980 9dbe
00000360: a24b 98be 8bc1 1a3e 660c 713d b278 9cbd
00000370: 47ea 32be 690b e13d bd0c 14be 2fa9 f1bc
00000380: 1bf7 aa3e c1d9 fb3d cc95 3dbe d90b 933c
00000390: a178 1b3e 97fd c43d 2b55 56bd 2c19 323d
000003a0: b67f d8bc 3a03 bcbd cb74 bebe bc0d 963e
000003b0: e81b 81bc bfbc 4b3c 21c4 b73e 9c37 453e
000003c0: 8061 b73d 64f3 e4bd 6d8c 393c 2a87 783d
000003d0: c0c0 bdbe b804 24be be66 c23d 0a28 1ebe
000003e0: f7b6 c43e 8552 f8bd e446 1cbe cdbd 353e
000003f0: f044 e9bd dd5f ee3b 0f24 e03d f50a 263e
-0.27168164 -0.32119086 0.14409709 -0.10293072 0.012531305 0.17462173 0.19051977 0.0958348
-0.0965215 -0.16026637 0.1669623 -0.5057752 0.1512433 0.17321502 -0.23911628 -0.23579504
-0.07020513 0.062198963 0.16438441 0.13444695 -0.07713746 -0.019781584 -0.24955703 0.2465895
-0.0927637 0.17339522 0.109285384 -0.06878815 0.2528234 -0.13825165 -0.07116592 -0.12004538
0.20543063 -0.12446538 0.3295513 0.13212459 -0.15858673 -0.2786448 0.24577662 -0.4061306
0.122380316 0.31814077 0.1750612 -0.14479765 0.34098384 0.18046653 -0.16738507 -0.12709074
-0.505767 -0.17030296 -0.3395449 -0.026954573 0.05973017 -0.0793286 -0.057176597 -0.50231814
0.042614795 0.07728475 -0.027253443 -0.11658186 -0.13344815 -0.1334615 0.21290852 0.06646972
0.39559388 0.22713247 0.14458705 0.09331826 0.18432659 0.19412187 -0.3721963 0.17678039
-0.25364718 0.32905573 -0.5132269 0.33669952 -0.30436948 -0.31618446 0.35148874 0.12778032
0.24232554 -0.3289664 0.11272747 0.055889882 -0.15578428 0.058726024 0.47030595 -0.3385567
0.050586738 -0.4832753 -0.26102912 -0.079471566 -0.24712034 -0.5820459 0.09108494 0.055466462
0.19501875 0.021598684 -0.2482498 0.041080054 0.12563697 -0.32296497 0.2767021 0.21720906
0.16433127 0.22681177 -0.2521 0.3794936 -0.3040351 -0.21818317 -0.020819692 -0.27892026
-0.09799711 0.08974639 -0.17862278 -0.37770477 -0.49813962 0.29244074 -0.07736636 0.35110012
0.030953225 -0.025647717 0.11858567 0.14552167 -0.11882816 0.14382493 -0.047774274 -0.21475169
-0.23223844 0.056172624 0.06404392 -0.2400232 -0.221164 0.039088376 0.007098663 -0.04722709
-0.03081061 -0.06906675 0.085742004 -0.30351907 0.09951863 0.25203243 -0.11819228 -0.08413803
0.05439208 -0.20114607 -0.13859051 0.11239035 0.39700598 0.111786954 0.10065687 -0.036691632
0.2048262 0.28365698 0.29609093 0.030298274 0.044166707 -0.021731798 -0.1030876 0.025495484
0.15001328 0.24461514 -0.15640189 -0.026937531 -0.11806321 0.15032312 -0.21062577 0.3953586
0.22080435 -0.45477936 -0.3757417 0.46866173 -0.003720849 0.057928503 0.27707374 0.27482727
0.47634655 -0.062552094 -0.021574613 0.28704306 0.14539483 -0.0554328 0.331155 -0.37247637
0.35446113 -0.37169844 0.21527356 -0.4184897 -0.050333634 -0.57500917 0.34869012 0.1729168
0.05263625 -0.10328106 0.10323142 -0.025943723 -0.035246607 0.5492732 0.28161418 0.10707709
-0.2973156 -0.021088354 -0.015132938 -0.4154593 0.341481 -0.015198364 -0.056697838 0.062724374
-0.08938039 -0.35103214 0.2201216 0.081248224 0.10277569 -0.032307487 -0.11573598 -0.30762365
-0.29745203 0.15112893 0.058849715 -0.07640208 -0.17472182 0.109885044 -0.14457984 -0.029499618
0.33391652 0.12297393 -0.18514174 0.017949985 0.15182735 0.09618681 -0.052327316 0.043481037
-0.026428085 -0.09180303 -0.3719848 0.29307353 -0.015760377 0.012435137 0.35891822 0.19259495
0.089541435 -0.111792356 0.011324984 0.060675777 -0.3706112 -0.16017425 0.09492253 -0.15444961
0.3842084 -0.12125114 -0.15261418 0.17748185 -0.11390102 0.0072746114 0.10944378 0.16215117

layers.4.bias f4 [40]
00000000: de72 1f3e 2611 9a3e 3008 bc3b e2db 8cbd
00000010: 6695 0a3e f859 72be 2799 463e 2fcf 97bc
00000020: 11a6 41bd e384 04be 0014 1dbe 7663 bebd
00000030: f60d 773e 6208 b1bc b788 3abb ec6a 623c
00000040: e1c6 833d 409c 0dbe 6b74 863e bc81 8abd
00000050: 396a 193e ef60 73be a174 81bd 2365 713c
00000060: 3710 b93e 127e 803e 11aa 073e d325 9cbc
00000070: 02dc 323e 939d 52bb 56d1 593e e4bc 803e
00000080: 1bc1 87be 2ff3 173d e163 17bd a809 4bbe
00000090: 309a bd3d d174 4cbe f03e 9cbe 4df3 0bbe
0.15571162 0.30091208 0.0057382807 -0.06877877 0.13533553 -0.23667133 0.1939436 -0.01853141
-0.047277514 -0.12941317 -0.1533966 -0.092963144 0.2412642 -0.021610443 -0.0028462836 0.0138194375
0.064344175 -0.13829136 0.26260695 -0.06763026 0.14981927 -0.23767446 -0.06321073 0.0147335855
0.36145183 0.25096184 0.13248469 -0.019061005 0.17466739 -0.0032137379 0.21271262 0.25144112
-0.26514515 0.037097152 -0.036960486 -0.19827902 0.092579246 -0.19966437 -0.30516768 -0.1366703
