data/models/test_easier_many/checkpoints/epoch_220.pt (torch, 11053 bytes, 6 tensors)

layers.0.weight f4 [16, 6]
-0.022475466 0.010443802 -0.10482129 -0.03606413 0.6549796 0.3253732 -0.0031677221 -0.0038765217
0.016074946 -0.008708199 -0.8087921 0.4205213 0.016402869 0.03181021 -0.047063377 -0.04427493
-0.18022823 0.4488104 0.037400533 0.05553385 -0.039108556 -0.024866741 -0.6373421 0.72313654
-0.11049841 -0.20683646 -0.27752185 -0.16882396 -0.07274697 -0.3179324 0.030986803 0.047761306
0.022179812 0.023424562 0.13151346 -0.75457203 0.107066125 0.14134875 0.154821 0.09980143
-0.4744847 -0.26157635 -0.0027745655 -0.0016588412 0.0006497025 -0.00032755575 -0.7780955 0.6979651
0.01899296 0.05812669 -0.00959121 -0.02384938 0.5577763 -0.80294704 0.078306645 0.03377304
0.04175214 0.012143061 0.51659137 0.6302595 0.001163021 -0.0010855193 0.012823983 -0.010564302
-0.7167805 -0.48882705 0.026314039 0.01632627 0.057122555 0.00512813 0.63649833 0.5018253
-0.076928794 -0.08883987 -0.03563473 0.0035687806 -0.4436159 0.53902996 -0.053862873 -0.025339542
-0.09714976 -0.045523386 -0.80204856 -0.5411876 0.00096733624 -0.009920922 -0.0029621944 -0.00023718251
0.6602755 -0.8017158 -0.045183495 -0.0068107126 0.012471696 0.005755862 0.6656025 0.62258923
00000000: 781e b8bc 7b1c 2b3c 8bac d6bd fbb7 13bd
00000010: beac 273f 5197 a63e 8f99 4fbb 3e0d 7ebb
00000020: 9baf 833c d5ac 0ebc 000d 4fbf 914e d73e
00000030: 4f5f 863c 6c4b 023d 87c5 40bd a159 35bd
00000040: c08d 38be 7aca e53e 4d31 193d 7677 633d
00000050: 4b30 20bd 56b5 cbbc da28 23bf 7a1f 393f
00000060: fe4c e2bd f0cc 53be 5817 8ebe 30e0 2cbe
00000070: 5dfc 94bd 09c8 a2be 09d8 fd3c 5ca1 433d
00000080: 70b2 b53c dee4 bf3c 77ab 063e a22b 41bf
00000090: 7c45 db3d babd 103e 6589 1e3e b164 cc3d
000000a0: a9ef f2be 56ed 85be 7cd5 35bb 796d d9ba
000000b0: cc50 2a3a cabb abb9 4431 47bf d7ad 323f
000000c0: 2097 9b3c 4116 6e3d 7324 1dbc c65f c3bc
000000d0: 6dca 0e3f f08d 4dbf 3c5f a03d 9955 0a3d
000000e0: 4b04 2b3d b0f3 463c 553f 043f b058 213f
000000f0: 8270 983a fc47 8eba af1b 523c e515 2dbc
00000100: ed7e 37bf 8a47 fabe 8a90 d73c abbe 853c
00000110: 57f9 693d df09 a83b 8ef1 223f 9f77 003f
00000120: d88c 9dbd aef1 b5bd b9f5 11bd 34e2 693b
00000130: a021 e3be defd 093f 519f 5cbd df94 cfbc
00000140: 74f6 c6bd bb76 3abd 0e53 4dbf 458b 0abf
00000150: d694 7d3a 5d8b 22bc 6021 42bb 32b4 78b9
00000160: d107 293f 3f3d 4dbf 5412 39bd 662c dfbb
00000170: 1656 4c3c ac9b bc3b ed64 2a3f 0262 1f3f

layers.0.bias f4 [16]
0.28764382 -0.14963596 0.7687633 -0.061754905 0.4078502 0.30792552 0.7115432 0.081718326
0.08155337 0.16861053 0.6296811 0.5067371 0.11086634 0.03431529 0.37186116 0.47233373
00000000: 0d46 933e 2b3a 19be accd 443f b6f2 7cbd
00000010: bed1 d03e 6aa8 9d3e b227 363f f05b a73d
00000020: 7405 a73d 3da8 2c3e c832 213f 86b9 013f
00000030: e40d e33d 318e 0c3d 9664 be3e bad5 f13e

layers.2.weight f4 [32, 16]
-0.21748999 -0.2197968 0.3905018 0.5410669 -0.040160593 -0.5020341 0.0470766 0.31758985
-0.36192998 0.1190616 -0.25955662 0.012280864 0.4956672 -0.54514235 -0.2423643 0.15398844
-0.5326558 0.08967671 -0.5885926 -0.23511247 0.2008403 0.5135248 0.047314946 -0.2047099
0.115258716 -0.15085818 0.23193824 -0.1506841 -0.17302382 0.39445832 0.40908673 -0.46093905
0.22179751 -0.30839664 -0.04825898 -0.4110098 0.32216722 0.32707715 0.09120207 -0.30431727
0.41152745 -0.109348595 -0.30166104 0.3419503 -0.14870135 -0.46174222 0.37624863 0.15562652
0.35740432 0.31367037 -0.4322326 0.29938126 0.18625472 0.48211828 -0.024185197 0.15668842
0.40170556 0.04364943 -0.03506459 0.31424466 -0.07715929 0.036481846 0.26595125 0.40262
-0.03952406 -0.4225316 0.4196542 -0.31417468 0.0780509 0.006151018 0.49318108 -0.23036717
0.05614845 -0.15039808 0.2654619 -0.04219744 0.08998959 0.22790092 0.22434461 -0.3345078
0.012507152 0.10864477 0.38737762 0.16861024 0.19426672 -0.32911587 0.19092992 -0.056472596
-0.60217077 0.13282353 0.30262408 0.32430407 0.4033058 0.10458988 -0.58501554 0.19161811
0.0696993 0.072619915 0.4455629 0.10420565 0.0068901703 0.107914925 0.08478197 0.5323694
0.13403341 -0.39236706 -0.3902455 0.3097718 0.17638011 0.075362496 0.46916375 0.25330204
0.34581837 -0.39133063 0.25921345 -0.06912464 0.2408709 -0.63713247 0.24895136 -0.12918663
-0.16840161 0.38340196 -0.42734802 0.11202328 0.23771635 -0.3067646 -0.35154584 0.44210014
-0.5156256 0.21617451 0.24231774 0.5033877 0.16707624 0.3200803 0.20614164 0.14726914
0.011109565 0.26938865 0.39129746 -0.15946501 0.3767019 0.053150475 0.05707814 -0.20354092
0.23709214 -0.40089718 0.12545599 -0.46791336 0.11472343 -0.19445269 0.1819978 -0.4834186
-0.09356476 0.24062003 0.24214983 0.29653612 -0.20854439 0.26919815 0.20478503 0.4303503
-0.19764225 0.5353424 0.19316691 0.6081995 -0.09781655 -0.2597822 0.33539638 0.26252985
0.07034597 -0.4842525 0.35445458 -0.56476825 0.36778638 0.08503939 0.107978195 -0.57966703
-0.48858067 0.08551346 -0.62032837 -0.46799716 0.12159587 0.2848254 0.26423895 -0.124863006
0.41412604 -0.68816835 0.49377102 -0.6813324 -0.37981087 0.652287 0.14219888 -0.19037434
-0.4287965 0.37839496 0.36244395 0.4485908 -0.031219857 -0.3876399 0.06171951 0.09474941
-0.41387355 -0.28489316 0.19351487 -0.3435288 0.17047162 -0.1588907 -0.16272421 -0.43172133
-0.48605317 0.47476447 0.058796328 0.46843666 -0.3522225 -0.51751083 -0.07191478 0.45035845
-0.036352634 -0.07245768 -0.11477968 -0.53258514 0.59977704 0.15733394 -0.15277252 -0.35242411
-0.11054056 -0.197049 -0.4570567 -0.53534365 0.14576341 0.31458047 0.015055984 -0.4584637
0.2571754 -0.5623139 0.40710178 -0.17504896 -0.49715653 0.21110958 0.41120237 -0.47771487
-0.15066122 0.124025784 0.074814595 0.25956574 -0.033084337 -0.16215402 -0.037321452 0.240102
-0.559485 0.34424534 -0.100632876 0.30408266 0.15556338 -0.302915 -0.53402346 0.37159887
00000000: b2b5 5ebe 6a12 61be daef c73e 5c83 0a3f
00000010: 6f7f 24bd 4f85 00bf 65d3 403d 239b a23e
00000020: e34e b9be 91d6 f33d 9be4 84be ad35 493c
00000030: 17c8 fd3e 738e 0bbf 592e 78be 25af 1d3e
00000040: 215c 08bf 6ca8 b73d 01ae 16bf 53c1 70be
00000050: 14a9 4d3e 5c76 033f 51cd 413d 799f 51be
00000060: c30c ec3d 917a 1abe 3881 6d3e ef4c 1abe
00000070: 282d 31be 71f6 c93e d173 d13e 3400 ecbe
00000080: e31e 633e 2ae6 9dbe 35ab 45bd e06f d2be
00000090: 1af3 a43e a876 a73e 27c8 ba3d 79cf 9bbe
000000a0: bab3 d23e 28f2 dfbd 5173 9abe 1c14 af3e
000000b0: 2b45 18be 7a69 ecbe a9a3 c03e 8f5c 1f3e
000000c0: b3fd b63e 6799 a03e 974d ddbe 8048 993e
000000d0: 8fb9 3e3e 35d8 f63e 0920 c6bc ee72 203e
000000e0: 5aac cd3e bfc9 323d e39f 0fbd ade4 a03e
000000f0: b105 9ebd fd6d 153d c32a 883e 3524 ce3e
00000100: fbe3 21bd 1056 d8be eadc d63e 81db a0be
00000110: 26d9 9f3d 7b8e c93b 3b82 fc3e 5fe5 6bbe
00000120: ebfb 653d f401 1abe 9fea 873e 39d7 2cbd
00000130: 764c b83d dc5e 693e 98ba 653e 9b44 abbe
00000140: ccea 4c3c 2681 de3d 5c56 c63e 2aa8 2c3e
00000150: dbed 463e e081 a8be 2283 433e cf4f 67bd
00000160: dd27 1abf e402 083e 8bf1 9a3e 2f0b a63e
00000170: 197e ce3e 3833 d63d 94c3 15bf 8a37 443e
00000180: 82be 8e3d c0b9 943d d220 e43e c669 d53d
00000190: f0c6 e13b 8002 dd3d 2ba2 ad3d 5c49 083f
000001a0: 0e40 093e 56e4 c8be 42ce c7be 699a 9e3e
000001b0: fd9c 343e a757 9a3d 3b36 f03e ceb0 813e
000001c0: 1b0f b13e 7d5c c8be a0b7 843e 3891 8dbd
000001d0: dca6 763e 1d1b 23bf 1bed 7e3e 8049 04be
000001e0: 7971 2cbe 434d c43e 5ccd dabe 766c e53d
000001f0: ea6b 733e 4010 9dbe d1fd b3be f35a e23e
00000200: 0a00 04bf da5c 5d3e 2422 783e 04de 003f
00000210: 0916 2b3e 91e1 a33e cb16 533e b9cd 163e
00000220: e504 363c 4fed 893e 2458 c83e cc4a 23be
00000230: 12df c03e 50b4 593d c5ca 693d 086d 50be
00000240: 48c8 723e 6542 cdbe 8977 003e 5792 efbe
00000250: 1ef4 ea3d 9b1e 47be a25d 3a3e a582 f7be
00000260: e29e bfbd 1965 763e 20f6 773e 95d3 973e
00000270: a98c 55be 57d4 893e 2bb3 513e e056 dc3e
00000280: bb62 4abe 330c 093f 8ccd 453e f6b2 1b3f
00000290: 0b54 c8bd 2c02 85be 13b9 ab3e 506a 863e
000002a0: 8c11 903d f2ef f7be 127b b53e a794 10bf
000002b0: 7f4e bc3e 2229 ae3d ac23 dd3d 0f65 14bf
000002c0: 3f27 fabe ae21 af3d d7cd 1ebf 539d efbe
000002d0: 4107 f93d a3d4 913e 544a 873e 2db8 ffbd
000002e0: 5408 d43e cd2b 30bf 8ecf fc3e cd6b 2ebf
000002f0: 9276 c2be 48fc 263f 959c 113e 7ef1 42be
00000300: 378b dbbe fcbc c13e 4192 b93e b1ad e53e
00000310: c9c0 ffbc bd78 c6be 99cd 7c3d fb0b c23d
00000320: 3ce7 d3be 84dd 91be c328 463e 02e3 afbe
00000330: 1d90 2e3e 3eb4 22be 2da1 26be 940a ddbe
00000340: f6db f8be 5414 f33e 6bd4 703d eed6 ef3e
00000350: 8256 b4be 977b 04bf 0e48 93bd 6295 e63e
00000360: 80e6 14bd b164 94bd 9c11 ebbd 8057 08bf
00000370: fd8a 193f 261c 213e 6670 1cbe ef70 b4be
00000380: 1763 e2bd 37c7 49be 5603 eabe 480c 09bf
00000390: 0143 153e b110 a13e 60ad 763c c1bb eabe
000003a0: 7eac 833e cef3 0fbf a56f d03e 0940 33be
000003b0: 4d8b febe 1c2d 583e 1e89 d23e 0b97 f4be
000003c0: ef46 1abe 3b01 fe3d 6538 993d cde5 843e
000003d0: 7183 07bd b40b 26be 61de 18bd 4cdd 753e
000003e0: 693a 0fbf ed40 b03e 9c18 cebd b9b0 9b3e
000003f0: 024c 1f3e ad17 9bbe c3b5 08bf 3542 be3e

layers.2.bias f4 [32]
0.17606162 -0.047703538 0.24494039 0.062421855 0.46991265 0.09958162 0.467727 0.20632826
-0.20719396 0.5157945 -0.18749553 -0.42167848 0.07715137 -0.3546699 0.10313452 -0.15716837
-0.14085294 0.507565 0.030018996 0.43032825 -0.18668467 -0.14889854 -0.019317977 0.1153338
0.0025749868 0.046632577 -0.3393263 0.42573768 0.212988 0.3424866 -0.054774147 0.33484256
00000000: 7f49 343e c964 43bd a7d1 7a3e 0fae 7f3d
00000010: 6498 f03e 73f1 cb3d ea79 ef3e b747 533e
00000020: a72a 54be 1c0b 043f d4fe 3fbe 3ee6 d7be
00000030: 8a01 9e3d 4b97 b5be 3138 d33d bff0 20be
00000040: c13b 10be c8ef 013f 66ea f53c fc53 dc3e
00000050: 442a 3fbe dc78 18be bc40 9ebc 2134 ec3d
00000060: 1cc1 283b cd01 3f3d 2dbc adbe 4afa d93e
00000070: 8719 5a3e 675a af3e db5a 60bd 7c70 ab3e

layers.4.weight f4 [40, 32]
-0.2716777 -0.32119024 0.14409606 -0.102928385 0.012538056 0.17461446 0.19052604 0.09585056
-0.09653014 -0.16026922 0.16695702 -0.5057751 0.15123391 0.17321073 -0.23910806 -0.23579133
-0.070184775 0.06220914 0.16439287 0.13446681 -0.07713951 -0.019791372 -0.24955474 0.24660629
-0.09274653 0.17339408 0.10928121 -0.06879129 0.25282252 -0.13827406 -0.071162544 -0.1200256
0.20543154 -0.12446511 0.32954782 0.13212341 -0.15858153 -0.2786634 0.24577919 -0.4061294
0.12239254 0.3181552 0.17505242 -0.14476766 0.34097645 0.18046834 -0.16738799 -0.12709111
-0.5057889 -0.17027281 -0.33955744 -0.02694502 0.0597325 -0.079327434 -0.057175457 -0.50233686
0.042640336 0.07727506 -0.027253177 -0.11656031 -0.13344806 -0.1334313 0.21291937 0.06647697
0.39560017 0.2271467 0.14458579 0.0933095 0.18432508 0.19414368 -0.37220168 0.17680465
-0.25364906 0.329061 -0.51323617 0.336716 -0.30439836 -0.3162132 0.35149178 0.12778139
0.24234197 -0.32899174 0.11272154 0.05588737 -0.15578477 0.058726165 0.47031134 -0.33855653
0.0505949 -0.48329037 -0.2610513 -0.079459205 -0.24713054 -0.58206993 0.09106711 0.05545946
0.19503823 0.021600144 -0.24825355 0.041099843 0.1256405 -0.3229782 0.27672085 0.21719384
0.16434117 0.2268104 -0.2521211 0.3795085 -0.30406407 -0.21821524 -0.020821165 -0.27893475
-0.09802525 0.089744814 -0.17864023 -0.3777298 -0.49816284 0.29244095 -0.07737765 0.35110146
0.030958679 -0.02564873 0.11860728 0.14551573 -0.11883988 0.14383854 -0.047756687 -0.21475275
-0.23224969 0.056171216 0.06404433 -0.24003497 -0.22117312 0.039081547 0.0070929276 -0.047235247
-0.03080641 -0.069051065 0.08574304 -0.30353677 0.09951916 0.25204474 -0.11818626 -0.08412423
0.054403838 -0.20113301 -0.13858001 0.112416014 0.3970076 0.11178386 0.100665174 -0.03671158
0.20483096 0.28364664 0.29609105 0.03031547 0.044174578 -0.021727797 -0.10308961 0.02551444
0.15000317 0.24463454 -0.15640412 -0.026942628 -0.11808377 0.1503138 -0.21064776 0.39536196
0.22079962 -0.45478338 -0.37574098 0.46868327 -0.0037196632 0.057940334 0.2770839 0.27482992
0.4763555 -0.062553234 -0.021577418 0.28704363 0.14541121 -0.055420075 0.3311672 -0.37248406
0.35446334 -0.3717143 0.21527366 -0.41850805 -0.05033131 -0.5750332 0.3486851 0.17291974
0.052644968 -0.1032694 0.10322919 -0.025944775 -0.035239283 0.54928905 0.28161544 0.107087985
-0.29732174 -0.021097172 -0.015117917 -0.41548884 0.3414949 -0.015209922 -0.056685593 0.06271912
-0.089374475 -0.35105604 0.22013898 0.081245966 0.10277246 -0.032308485 -0.11572921 -0.30761877
-0.29747054 0.1511371 0.05885005 -0.07640986 -0.17471448 0.1099085 -0.14459331 -0.02951826
0.3339163 0.1229656 -0.18513809 0.017954284 0.1518397 0.09618283 -0.052325368 0.043470968
-0.026424691 -0.0917981 -0.37198818 0.2930673 -0.015738135 0.012462531 0.35891852 0.19259414
0.08952909 -0.11181303 0.011320644 0.06067646 -0.37060452 -0.16016825 0.094919436 -0.15447243
0.38420665 -0.12125306 -0.15260963 0.17749518 -0.11388995 0.007290473 0.10944127 0.16214834
00000000: 5719 8bbe 0c73 a4be eb8d 133e 1ecc d2bd
00000010: 6b6c 4d3c 22ce 323e 4219 433e 4c4d c43d
00000020: 98b1 c5bd 9d1d 24be c8f6 2a3e 7a7a 01bf
00000030: 10dd 1a3e 275e 313e bed8 74be 4873 71be
00000040: 09bd 8fbd 03cf 7e3d 9b56 283e abb1 093e
00000050: 52fb 9dbd 8421 a2bc 478b 7fbe 5c86 7c3e
00000060: e5f1 bdbd 388e 313e d4ce df3d 73e2 8cbd
00000070: f471 813e b797 0dbe abbd 91bd fbcf f5bd
00000080: a55c 523e 90e7 febd 7eba a83e 5c4b 073e
00000090: 3263 22be f8ac 8ebe 8aad 7b3e 31f0 cfbe
000000a0: f1a8 fa3d 3de5 a23e f140 333e f93d 14be
000000b0: 7794 ae3e b1cc 383e c267 2bbe 2c24 02be
000000c0: 627b 01bf ff5b 2ebe 79da adbe cdbb dcbc
000000d0: 11aa 743d 6c76 a2bd d030 6abd 2699 00bf
000000e0: a2a7 2e3d 6342 9e3d 0e42 dfbc 2cb7 eebd
000000f0: 9ca6 08be 37a2 08be 8907 5a3e 1425 883d
00000100: 1b8c ca3e 2599 683e 4c0e 143e 0d19 bf3d
00000110: b7bf 3c3e 9acd 463e 3891 bebe 470c 353e
00000120: 4ade 81be af7a a83e 7263 03bf 0a66 ac3e
00000130: 1ada 9bbe b2e6 a1be bbf6 b33e 20d9 023e
00000140: 7e28 783e 9b71 a8be 8dda e63d 28ea 643d
00000150: 0b86 1fbe d98a 703d a6cc f03e 4857 adbe
00000160: 993c 4f3d d671 f7be 84a8 85be 82bb a2bd
00000170: ca0f 7dbe 8902 15bf 6581 ba3d 7529 633d
00000180: 1ab8 473e c9f2 b03c 2e36 7ebe 4f58 283d
00000190: e7a7 003e 665d a5be 5bae 8d3e 1068 5e3e
000001a0: 0d49 283e fc40 683e 0416 81be f04e c23e
000001b0: 49ae 9bbe d173 5fbe 2691 aabc 89d0 8ebe
000001c0: 76c1 c8bd 21cc b73d 77ed 36be cd65 c1be
000001d0: 330f ffbe d2ba 953e 2c78 9ebd 92c3 b33e
000001e0: 0e9d fd3c 491d d2bc 60e8 f23d 1302 153e
000001f0: 5362 f3bd 694a 133e 849c 43bd 25e8 5bbe
00000200: ddd2 6dbe ca13 663d ac29 833d bacb 75be
00000210: 357b 62be f913 203d ca6b e83b bf79 41bd
00000220: b95d fcbc a56a 8dbd 0c9a af3d 2c69 9bbe
00000230: b4d0 cb3d 020c 813e a30b f2bd 5349 acbd
00000240: 8fd6 5e3d d0f5 4dbe ebe7 0dbe 5e3a e63d
00000250: 9544 cb3e f0ee e43d 8b29 ce3d e25e 16bd
00000260: 35bf 513e 223a 913e 3f99 973e 2658 f83c
00000270: 67f0 343d 7efe b1bc a520 d3bd a903 d13c
00000280: 6e9a 193e 7a81 7a3e 6728 20be c9b6 dcbc
00000290: e7d5 f1bd dceb 193e 0cb4 57be e26c ca3e
000002a0: 4c19 623e 5ed9 e8be 1f61 c0be 41f7 ef3e
000002b0: 98c5 73bb d852 6d3d f1dd 8d3e 82b6 8c3e
000002c0: dee4 f33e e91b 80bd 20c3 b0bc 62f7 923e
000002d0: ade6 143e 2900 63bd bf8e a93e 3bb6 bebe
000002e0: 387c b53e 5651 bebe b370 5c3e b046 d6be
000002f0: 3428 4ebd 6035 13bf da86 b23e df11 313e
00000300: 40a2 573d e87e d3bd d369 d33d 238a d4bc
00000310: 1157 10bd 359e 0c3f e62f 903e f250 db3d
00000320: 8e3a 98be fad3 acbc 24b1 77bc f4ba d4be
00000330: 6bd8 ae3e 0933 79bc 272f 68bd e272 803d
00000340: f709 b7bd 9ebd b3be 1d6c 613e 4964 a63d
00000350: 5e7a d23d e755 04bd 7003 edbd 3580 9dbe
00000360: 0f4e 98be afc3 1a3e c00c 713d c67c 9cbd
00000370: 5ae8 32be b517 e13d 4510 14be 47d0 f1bc
00000380: 14f7 aa3e 63d5 fb3d d794 3dbe dd14 933c
00000390: de7b 1b3e 81fb c43d 2053 56bd 9d0e 323d
000003a0: 9878 d8bc a400 bcbd 3c75 bebe eb0c 963e
000003b0: 43ed 80bc a52f 4c3c 2bc4 b73e 6637 453e
000003c0: 075b b73d 3bfe e4bd 397a 393c e187 783d
000003d0: e0bf bdbe 2503 24be 1f65 c23d 052e 1ebe
000003e0: bcb6 c43e 8653 f8bd b345 1cbe 4cc1 353e
000003f0: 223f e9bd ece4 ee3b bf22 e03d 370a 263e

layers.4.bias f4 [40]
0.1557188 0.30091882 0.0057409867 -0.0687648 0.13533711 -0.23669511 0.19394344 -0.018524382
-0.047285963 -0.12941977 -0.15340653 -0.092980854 0.24127617 -0.02161165 -0.002865151 0.013834739
0.06432761 -0.13829543 0.2626137 -0.06763099 0.14981134 -0.23769492 -0.063200094 0.014733936
0.36145365 0.250981 0.13249539 -0.019078244 0.17467186 -0.0032146177 0.21272136 0.25144488
-0.26514065 0.03709145 -0.036963917 -0.19827862 0.092588 -0.1996841 -0.3051688 -0.13666163
00000000: c074 1f3e 0812 9a3e e31e bc3b 8fd4 8cbd
00000010: d095 0a3e 3460 72be 1c99 463e 72c0 97bc
00000020: edae 41bd 9e86 04be 9a16 1dbe bf6c bebd
00000030: 1a11 773e ea0a b1bc 42c5 3bbb 1aab 623c
00000040: 32be 833d 519d 0dbe 4e75 863e 1e82 8abd
00000050: 2568 193e 4c66 73be 0d6f 81bd 9b66 713c
00000060: 7410 b93e 9580 803e dfac 073e fa49 9cbc
00000070: 2edd 323e 56ac 52bb a1d3 593e 62bd 803e
00000080: 84c0 87be 34ed 173d 7a67 17bd 8d09 4bbe
00000090: c79e bd3d fd79 4cbe 163f 9cbe 07f1 0bbe
