data/models/test_easier_many/checkpoints/epoch_30.pt (torch, 11041 bytes, 6 tensors)

layers.0.weight f4 [16, 6]
00000000: 1ec0 35bd e095 0b3d 28ed 1abe c909 debc
00000010: 800d 163f 3523 853e 7dce 10bb bd34 9fbc
00000020: 288b 773d 3bdd 72bc 3b91 3bbf 3c9d bc3e
00000030: 674f 203c beab 853d 1cea 86bd 046f d0bd
00000040: cf76 6abe 32f0 ea3e e153 5f3d 19a0 943d
00000050: a1f5 8fbd 09ca d4bc 449d 12bf f892 2a3f
00000060: 45ef f9bd 22d7 70be 9c08 acbe 4b77 62be
00000070: 1bf9 4abd b9aa 8abe 2ad6 993c cd01 a23d
00000080: 9924 d03c fc3a b43c 6d1b a73d 2d34 2ebf
00000090: e9ac 093e 8a05 3c3e 7cc6 143e 2b40 ff3d
000000a0: 90d1 e9be 4c76 72be 9612 0bbd c58a c63c
000000b0: 1cce f2bb 74a4 24bc f43c 36bf df95 1e3f
000000c0: b219 6d3d b300 0a3e 7396 a03c 8833 76bd
000000d0: 425a ff3e 8e83 37bf 320c 173e 3b65 363d
000000e0: 6bbd c23d f6b7 193d 31cb e13e ecbc 0e3f
000000f0: 9b34 623c 5891 61bc af51 613d 2e83 eebc
00000100: 19de 28bf beed ebbe be42 123d 6e9f 1f3d
00000110: 48ce 933d e79d 60bc 1032 123f 006a e03e
00000120: 3cc9 afbd 8360 01be c371 60bd 512c af3c
00000130: b90b c0be fcf1 f33e b6bd a6bd 6027 60bc
00000140: 8848 1bbe 4ec4 5ebd bd1f 3abf 015a ebbe
00000150: ccaa 893a 56e4 02bd 2a3d f8bc cc27 783c
00000160: 641d 1b3f 8950 38bf 5c5b 3cbd e194 7cbb
00000170: 1668 8e3c 8ef1 eaba 386b 1a3f 24a9 0d3f
-0.04437267 0.03407848 -0.1512953 -0.027104275 0.5861435 0.26003423 -0.0022095733 -0.019434327
0.060435444 -0.014823253 -0.7326848 0.3683871 0.009784556 0.06526898 -0.065876216 -0.101774246
-0.22896884 0.4588638 0.054523353 0.07257099 -0.07029272 -0.025975244 -0.5727122 0.66630507
-0.1220384 -0.23519567 -0.33600318 -0.22115819 -0.04955397 -0.27083376 0.01877888 0.079105
0.025408076 0.022000782 0.08159528 -0.68048364 0.13444866 0.18361488 0.14528841 0.12463411
-0.45667696 -0.23677939 -0.03395327 0.024236092 -0.007409824 -0.010048974 -0.7118676 0.61947435
0.057885833 0.13476829 0.01960299 -0.060107738 0.4987355 -0.7168511 0.14750746 0.044530135
0.09508785 0.037528954 0.44100335 0.5575702 0.013806487 -0.013767563 0.05500954 -0.029115286
-0.65963894 -0.4607982 0.03570818 0.038970403 0.072170794 -0.013709522 0.5710764 0.43830872
-0.08583304 -0.12634473 -0.05479599 0.021383436 -0.37508944 0.47645557 -0.08141653 -0.013681263
-0.15164387 -0.05438643 -0.7270468 -0.45967105 0.0010503172 -0.03195604 -0.030302603 0.015146207
0.6059172 -0.71997887 -0.045985565 -0.0038540887 0.017383616 -0.0017924772 0.6031985 0.55336213

layers.0.bias f4 [16]
00000000: e1c2 763e a77e 40be 4f83 2b3f 3a40 0ebb
00000010: dcd8 a23e b33b 7a3e aa49 1f3f abfe 873d
00000020: a1c3 1b3c 066b ce3d 173b 0d3f 22f3 e53e
00000030: 1ae9 0e3e 5dfb 5b3d 8a7e b83e 3897 d43e
0.24097778 -0.18798314 0.66997236 -0.0021705762 0.31806076 0.24436836 0.6222178 0.06640371
0.009507091 0.10079007 0.5516829 0.44912058 0.13956109 0.053706516 0.36034042 0.4152162

layers.2.weight f4 [32, 16]
00000000: 5558 35be 77bb 31be 6eb5 aa3e c86a 033f
00000010: 5787 cbbd c5bb cfbe 59e2 8fbb 666b 903e
00000020: 74a5 93be 46d1 0d3e ac93 66be e1f7 223a
00000030: db8a e73e ea60 f5be 3edf 52be 7a8b 193e
00000040: 3e3f f5be 1fa8 de3c 1fae 01bf 863a 82be
00000050: fa63 593e 60c7 f13e 7d60 4b3d dd32 5dbe
00000060: 3df4 723d 64cc dbbd fae8 4f3e a683 d2bd
00000070: 19d8 17be 0bf9 aa3e f090 bd3e da43 d6be
00000080: 2db9 583e c6be 50be 6e20 d3bd b6b7 abbe
00000090: bc4c 9e3e 824d a23e a8e8 763d 9f45 6dbe
000000a0: 0baa db3e 23da f6bd df93 91be b64f a23e
000000b0: 2d15 c5bd 4c65 cfbe 4740 c13e 649a 093e
000000c0: 7c03 a33e 2376 7a3e fa39 c1be ce2f 7e3e
000000d0: 761d 333e a99d da3e 474e d0bc 966c cb3d
000000e0: 9f32 a93e e049 bf3c 3ef1 38bd 96ee 893e
000000f0: b16e f9bd e68f d6bc da0f 5a3e 499b b33e
00000100: 3e7b dcbc de6e bebe 4b1e b33e 1099 8abe
00000110: a8c0 e13c 3611 5c3d c1b1 dd3e 8934 54be
00000120: 6651 853d 1496 adbd 313c 743e 8ff2 36bd
00000130: 4fa5 613d c9b6 943e 9580 533e a10d 98be
00000140: 1e72 96bc 4e22 123e e6c3 a33e deeb 573e
00000150: dff6 4b3e 0b4b 83be 9cdc dc3d 7087 15bd
00000160: 7767 febe 1aad bd3d 9bf7 6b3e 4aad 923e
00000170: 6389 c73e c6f3 113d 456e fcbe e73e 2a3e
00000180: 1958 473d 480e 1d3d 7146 c23e b69f 533d
00000190: 3f51 28bd 5c39 4a3d 428c ea3c d51e f03e
000001a0: baa0 db3d 6993 b0be 2f99 b9be 5c83 913e
000001b0: c9c0 f13d 4ccb 753d e953 d53e 8196 7a3e
000001c0: 551e 983e 2390 a7be 35ca 493e 90fc 10bd
000001d0: 01fe 583e f6c6 0abf b149 3d3e 173b d5bd
000001e0: 30c1 c5bd 2396 b03e 8d52 dfbe a7ef 743d
000001f0: cc1d 823e 23dd 96be bf94 9bbe 3fdc cc3e
00000200: 1435 ddbe 0703 1d3e 5dda 483e 4c33 e03e
00000210: 8922 003e c304 9c3e 12c8 273e 28c5 b33d
00000220: 072d 4d3c 2754 553e c69f af3e 63e1 0ebe
00000230: 31eb a53e 42b7 543d 29ba 9e3d 0190 4fbe
00000240: 83bc 403e 0b32 a6be 18b4 773d 4ee5 c6be
00000250: 2651 9e3d 2b44 28be 58b5 e23d ba65 cbbe
00000260: 92fd bebc 4a5c 483e 8fc0 3d3e 677e 773e
00000270: 1b90 0dbe d2f8 5d3e fa94 703e f2dd bf3e
00000280: f8cd 03be 3b98 fc3e 29e5 403e e4a9 0d3f
00000290: be52 09be 1ca5 8abe bc99 ac3e aeef 543e
000002a0: ec35 0e3d d4da d6be 3ca0 ac3e 16f6 fbbe
000002b0: b332 a63e b011 7c3d 14ea 983d d808 04bf
000002c0: 7e2d d4be 58ea 20bb 2d38 07bf 533e d5be
000002d0: 97f8 033e 10ae 6c3e 60b9 8a3e b33e f2bd
000002e0: 6c7c bf3e c7f1 1cbf a127 e13e efe9 1abf
000002f0: 71ce a2be e3e4 123f f6f7 2e3e 5b52 edbd
00000300: d490 b7be 1b10 bc3e f1b1 a83e 9b32 df3e
00000310: c173 8abd 3baa b7be 52af fb3c c60d a23d
00000320: 9b0b c2be 36bf 55be 5eb4 233e ddd4 8fbe
00000330: 0068 163e f271 ddbd ee4e 10be e463 bdbe
00000340: 57c7 d3be 8321 ca3e 2a92 a83d c0b2 c83e
00000350: 7410 9ebe fc0e ecbe 7bda 2ebc 7dbd c23e
00000360: 6b04 12bd bde4 3fbc ba31 cdbd f9d6 ecbe
00000370: 4ecc 043f ee6c b43d e261 18be c274 95be
00000380: c0ae 99bd 583d 05be 021c ccbe 38c2 f1be
00000390: 2e33 f93d dc89 823e 7566 bebc 5fb1 c3be
000003a0: d9f3 463e 9acd fcbe 60c9 bd3e 77c3 22be
000003b0: 536b d8be d1ff 263e 5888 b63e ff95 e7be
000003c0: d5e3 4fbe 919b 0c3e 6214 2a3d b90c 8b3e
000003d0: 9a79 e43a 5292 9fbd a58f 1abb 2065 873e
000003e0: 5f14 e9be 847a 913e 84f1 b9bd e9d5 8a3e
000003f0: 1279 163e 7e3f a2be b11f e2be 8a9d aa3e
-0.17709477 -0.17356668 0.33341545 0.5133481 -0.099379234 -0.40572944 -0.0043909964 0.28206939
-0.28837168 0.13849363 -0.2251727 0.00062167464 0.45223126 -0.47925502 -0.20592973 0.14994612
-0.47899812 0.027179776 -0.5065631 -0.25435275 0.21229544 0.47222424 0.049652565 -0.21601434
0.059314955 -0.10732344 0.20303717 -0.10279016 -0.14828528 0.3339313 0.3702464 -0.41848642
0.21164389 -0.20385274 -0.1030892 -0.33538598 0.3091792 0.3169976 0.060280472 -0.2317109
0.4290317 -0.12053325 -0.2843313 0.3170144 -0.096231796 -0.4050697 0.37744352 0.13437802
0.31838596 0.24459128 -0.37739545 0.24822924 0.17491707 0.4269841 -0.02542795 0.099328205
0.33046433 0.023350656 -0.04515194 0.2693984 -0.12179316 -0.026191663 0.2129511 0.3507941
-0.026914235 -0.3719396 0.3498405 -0.27069902 0.027557686 0.05372735 0.43299678 -0.20723166
0.06509666 -0.08475891 0.23851086 -0.044664916 0.05508929 0.29045704 0.20654519 -0.29697898
-0.018364962 0.14270899 0.31985396 0.2108607 0.19918393 -0.2564319 0.107842654 -0.036506116
-0.49688312 0.09261532 0.23043673 0.28647834 0.38972005 0.03563287 -0.4930288 0.16625558
0.048668 0.038343698 0.37944368 0.051665984 -0.041093107 0.04937111 0.028631333 0.46898523
0.107240155 -0.34487465 -0.36249682 0.28420532 0.11804349 0.060008332 0.4166558 0.24471475
0.29710642 -0.32727155 0.19706042 -0.035397112 0.21190645 -0.5420984 0.18485142 -0.10411661
-0.09655988 0.34489545 -0.4361767 0.059798863 0.25413358 -0.2946559 -0.30386922 0.40011784
-0.43204558 0.15333186 0.19614549 0.43789136 0.12513174 0.30472383 0.16384915 0.08777839
0.012522942 0.20832883 0.34301585 -0.13953166 0.32406 0.05193258 0.07750351 -0.20269777
0.18821912 -0.32460055 0.060474485 -0.3884682 0.077303216 -0.16432254 0.11069745 -0.3972605
-0.023314271 0.19566455 0.18530487 0.24169312 -0.13824503 0.21676949 0.2349433 0.37474018
-0.1287154 0.49334893 0.18837418 0.5533736 -0.1341047 -0.27079093 0.3371104 0.20794556
0.034719393 -0.41963828 0.33716 -0.49211186 0.32460555 0.061540306 0.07466522 -0.51575994
-0.41440958 -0.0024553742 -0.5282009 -0.41649112 0.12887798 0.23113275 0.27094555 -0.11828365
0.37399614 -0.6130642 0.43975547 -0.60513204 -0.31798127 0.57380503 0.17086777 -0.11587974
-0.35852683 0.36731037 0.3294826 0.43593296 -0.067603596 -0.35872063 0.030723248 0.07912783
-0.3789948 -0.20873722 0.15986773 -0.2809209 0.1468811 -0.10812749 -0.1409261 -0.36990273
-0.41363022 0.39478692 0.082310036 0.39198875 -0.30871928 -0.46105182 -0.010672207 0.38035193
-0.035648745 -0.01171225 -0.1001925 -0.4625776 0.51874244 0.08809839 -0.1488109 -0.29190642
-0.07504034 -0.13011682 -0.39865118 -0.4721849 0.12167965 0.25495803 -0.023242215 -0.3822126
0.19428958 -0.49375612 0.370677 -0.15894876 -0.42269382 0.16308524 0.35650897 -0.45231625
-0.20301755 0.13731219 0.041523345 0.27158144 0.001743126 -0.0779158 -0.0023584154 0.2644434
-0.45523354 0.28413785 -0.090792686 0.27116325 0.14694622 -0.31689066 -0.44164804 0.33323318

layers.2.bias f4 [32]
00000000: 10a8 de3d a757 493c 9272 523e f85c c73d
00000010: 2dc7 c93e 7744 1d3d 42b9 d03e 67aa 0d3e
00000020: f11c 66be b459 e73e d18a 3abe 7f8f adbe
00000030: 6828 353d 7db2 90be da94 f53d f434 0ebe
00000040: b56d f3bd afca e03e a54f 133b 5391 b23e
00000050: 109e 4cbe 2db0 babd 3537 8cb7 7379 de3d
00000060: 761a 05bd 8c4e 2e3d 6944 88be 7383 bb3e
00000070: da35 343e 31d3 913e b485 aabd 3ebb 873e
0.10871899 0.012288964 0.20551518 0.09734529 0.39409772 0.03839537 0.4076634 0.13834535
-0.22471978 0.45185626 -0.18217017 -0.3389854 0.044227988 -0.28261176 0.11991282 -0.13887388
-0.11886159 0.43904635 0.0022477892 0.348765 -0.19982171 -0.09115634 -1.6715008e-05 0.10863008
-0.03249594 0.042555377 -0.26614693 0.36623725 0.17598668 0.2848144 -0.08326283 0.26510042

layers.4.weight f4 [40, 32]
00000000: dc83 97be 9ec3 9fbe 077f 0a3e 7d14 e7bd
00000010: 60a8 e3bb 02e0 443e ec82 2a3e aef4 3d3d
00000020: 8518 87bd 4047 1cbe eea6 423e 45e8 fdbe
00000030: 07c2 3b3e b5b6 423e 377b 88be 7e30 7abe
00000040: 8d41 07be d1f5 303d de03 0c3e c9d4 973d
00000050: 50c5 86bd 0d2a 213b d867 7dbe 436f 453e
00000060: 1e66 0abe 9550 343e a340 f93d 4829 7ebd
00000070: 89c7 853e 0fd6 8dbd 0978 a5bd dfbf 32be
00000080: edd7 473e 1340 e1bd 1f15 b33e d979 063e
00000090: 9c9b 37be efc9 5cbe 6ed1 643e 27f7 ccbe
000000a0: f256 ac3d 46cc 873e 9d2a 533e e6e2 73be
000000b0: 1fe6 bc3e c350 2e3e a82a 0dbe b705 05be
000000c0: 35e0 d1be c706 88be eb68 94be 2e0d 28bd
000000d0: 28df 893d e056 a1bd e5a4 39bd 9c62 debe
000000e0: 9bd5 28bd 0dc6 d23d 7a2f d5bc 5c3b 35be
000000f0: 3858 00be 17a4 6abe bbcf 313e 0c53 463d
00000100: 76c8 b73e fcbd 373e 99b5 1e3e 9c52 fa3d
00000110: 34e3 473e f1db 013e 404d abbe 6133 d73d
00000120: 863a 70be 60c8 9a3e 0911 f0be 2045 8d3e
00000130: e7b4 77be e961 88be 1158 a43e 4835 d53d
00000140: d1c3 3e3e 6d3d 7ebe e969 083e f718 533d
00000150: e0e8 2bbe d688 5c3d ed8e dc3e b994 a5be
00000160: 0dbb 333c dbea dabe ce43 4abe ab54 ebbd
00000170: ac5a 5cbe e93d fcbe 974b 023e d87c 963d
00000180: 77b9 063e 33e5 a23c 9ae9 6bbe 3016 98bc
00000190: a17e e33d b5d8 8bbe ae57 543e cdd7 833e
000001a0: beec 083e 171f 653e 2983 3cbe 8edd a43e
000001b0: d128 6cbe 6639 18be 8bbd 3ebc 88c1 6fbe
000001c0: 6b54 05bb 6f11 ab3d f52f ffbd 7020 9abe
000001d0: 6c82 d7be 2dd7 923e a18a 23bd ca39 ab3e
000001e0: 43ec d33c 7a89 abbc 1cd9 4d3d fd5c 233e
000001f0: 552b acbd 3ebd c43d 6149 cfbd 3052 53be
00000200: 77ca 43be a0da 343d 127b 933d 4e28 4bbe
00000210: 1b6c 47be be9d 6e3d d329 fb3c d675 96bc
00000220: 00ba 28bd bfd4 e7bd 85c8 9c3d 7b3b 77be
00000230: 03c8 bb3d 57b8 503e 64bf 16be 62b4 eabd
00000240: 53d5 dd3c cf4b 6abe 182e 33be 11e7 033d
00000250: ed77 c13e a4ab f53d 306c 8d3d b8b6 c83c
00000260: dbc9 323e ade1 a43e 4cee 953e 75b6 91bc
00000270: 5900 9a3c 51e1 99bc 7dcd b8bd df76 9ebc
00000280: fb34 2e3e 4588 423e 39bc 18be 58f6 fabc
00000290: 6d4c 8ebd 1978 3a3e 7ae0 14be 19df c23e
000002a0: dd13 5a3e c8c7 d3be f198 b9be 1246 ce3e
000002b0: e38a 523b 4ffd 093d 9bc4 6a3e 4520 813e
000002c0: 0f9f e13e c142 54bd 0875 0dbd b363 853e
000002d0: 4818 cb3d 7028 93bd cb41 8e3e de8c aabe
000002e0: d8fb aa3e 9917 a2be eff5 5a3e e737 b7be
000002f0: e8c9 50bd efe3 fbbe ee0f b73e 0543 143e
00000300: ad74 f83c e3ff fcbd 82c7 d13d 8d43 a6bc
00000310: 1359 74bd 7224 f23e 97e9 883e e986 af3d
00000320: 1ebf 82be 397f d03b 6e2e 78bd c701 a6be
00000330: fff8 973e cfac b63c 6b89 c9bd 586b a73d
00000340: 9a41 cfbd bbda 97be 8b20 243e 626b 853d
00000350: 786b ca3d a83b cabc fdd1 07be 0cef a9be
00000360: 8790 70be cbac fa3d 1ada 7e3d 9038 5dbd
00000370: e2d1 4dbe 3bed 523d 3e8e c8bd 04d3 b73c
00000380: 3c1d a73e a9af 0e3e 2cf9 43be 3fd9 4f3c
00000390: 837b e23d 564a ea3d bf2c 7cbd f8af 973d
000003a0: ea45 f0bc 5561 dabd 449e b3be b3b1 a73e
000003b0: 2fc8 82bd bc7d 83bd 77cd b23e 3fdf 433e
000003c0: ee00 003e 6106 5bbd 56d8 933c fd13 4f3d
000003d0: 561c c2be 92d2 32be 357e c83d b57e b4bd
000003e0: 457a cb3e 23ef d2bd 5fd3 1bbe 2f6e 053e
000003f0: f316 10be 59e3 23bd e7db e33d 3da0 2e3e
-0.29592788 -0.31203932 0.1352502 -0.11283205 -0.006947562 0.19226077 0.16651505 0.046375923
-0.065964736 -0.15261555 0.19008991 -0.4959127 0.18335734 0.1901501 -0.26656505 -0.24432561
-0.132086 0.04320318 0.1367335 0.074136324 -0.06580603 0.0024591715 -0.24746644 0.19280724
-0.13515517 0.17608865 0.121705316 -0.062051088 0.26128796 -0.06925594 -0.080795355 -0.17456006
0.19515963 -0.10998549 0.34977052 0.13132419 -0.17930454 -0.21561407 0.22345516 -0.40032312
0.08415021 0.26523036 0.20621724 -0.23817024 0.36894318 0.17022996 -0.13785803 -0.12990461
-0.4099137 -0.2656767 -0.28986296 -0.041028194 0.06732017 -0.07877898 -0.04532327 -0.43434608
-0.041219335 0.102916814 -0.026023615 -0.17698425 -0.12533653 -0.22914158 0.17364399 0.048419043
0.35895127 0.17943567 0.15498962 0.12222788 0.19520265 0.12681557 -0.33457375 0.105078466
-0.23459825 0.30231 -0.46887997 0.275918 -0.24190103 -0.266372 0.3209844 0.10410553
0.18629386 -0.2482812 0.13321652 0.05153748 -0.16788054 0.053841434 0.43077794 -0.3234003
0.010969889 -0.42757306 -0.19752428 -0.114907585 -0.21518964 -0.49265984 0.12724148 0.07348031
0.13156687 0.019884681 -0.2303833 -0.018565267 0.11108137 -0.27313772 0.20736572 0.2575058
0.1337156 0.22375141 -0.18409409 0.32200283 -0.23062445 -0.14865646 -0.01164187 -0.2341367
-0.0020344506 0.083529346 -0.12460319 -0.30102873 -0.42091691 0.2867979 -0.03992713 0.33442527
0.025869494 -0.020939577 0.05025588 0.15953441 -0.084067024 0.096064076 -0.10121418 -0.20636821
-0.19120203 0.04415381 0.07201208 -0.19839594 -0.19474833 0.058255903 0.030659592 -0.018366735
-0.04119301 -0.11319875 0.076554336 -0.24143784 0.091690086 0.2038282 -0.14721447 -0.114601865
0.02707926 -0.22880481 -0.17498052 0.032202784 0.3778681 0.119956285 0.06905401 0.02450119
0.17459814 0.32203427 0.2928337 -0.017787198 0.018798994 -0.018784197 -0.09023569 -0.019343792
0.17012398 0.18997295 -0.14915551 -0.030635044 -0.06948171 0.18209876 -0.14538756 0.38060835
0.2129664 -0.41363358 -0.36249498 0.40287834 0.003212624 0.03368884 0.22926562 0.25219932
0.44066665 -0.051821474 -0.034535438 0.26052627 0.09916741 -0.07185447 0.2778457 -0.33310598
0.33395267 -0.3165863 0.21382879 -0.35784838 -0.050973803 -0.49197337 0.3575434 0.14478691
0.030329073 -0.12353494 0.10243131 -0.020295883 -0.05965526 0.4729343 0.26740715 0.08570654
-0.25536436 0.0063628224 -0.060591154 -0.3242323 0.29682156 0.022299198 -0.098406635 0.08174771
-0.101199344 -0.29659066 0.16028039 0.06514622 0.09883779 -0.02468665 -0.13263698 -0.3319019
-0.23492633 0.12239989 0.062219717 -0.05400902 -0.20099595 0.05149577 -0.097927555 0.022439487
0.32639492 0.13934197 -0.1913802 0.012686073 0.11058714 0.1143996 -0.06156611 0.0740661
-0.029330213 -0.10663096 -0.35081685 0.3275276 -0.06385838 -0.06420466 0.34922382 0.1912813
0.12500355 -0.05347288 0.018047493 0.05055617 -0.37912244 -0.17463139 0.09789697 -0.0881323
0.39741722 -0.10299518 -0.1521735 0.13030313 -0.14071254 -0.040011737 0.111259274 0.17053314

layers.4.bias f4 [40]
00000000: 1591 063e 137b 883e 5651 8e3b 2cd6 d3bd
00000010: 805e 0b3e 93de 34be 3743 453e 8dc7 22bd
00000020: 519e d2bc 541a d3bd 1faa fbbd cf2b 47bd
00000030: ba73 523e 5238 86bc 2be2 473d a7bb c7bc
00000040: 161e d53d 4320 efbd dfbf 6c3e 3538 70bd
00000050: cfb0 2e3e c461 3fbe 021c b7bd 1019 0a3c
00000060: 372a aa3e dc5e 443e 4bd7 d83d aa6c e33c
00000070: 36ea 1e3e d358 babb 8f99 3b3e 3600 653e
00000080: 0d0d 92be 6034 6b3d 1b51 acbc 4c49 4dbe
00000090: cfff 913d 1e22 15be 4a1e 93be a4e0 20be
0.13141282 0.26656398 0.004343192 -0.103435844 0.13610268 -0.1766303 0.19263922 -0.039741088
-0.025710257 -0.10307756 -0.122883074 -0.048625764 0.20551959 -0.016384277 0.048799675 -0.024381472
0.10406129 -0.11676075 0.23120068 -0.058647353 0.17059635 -0.18689638 -0.08940889 0.008428827
0.33235332 0.19176811 0.10587939 0.027761776 0.15519032 -0.005686858 0.18320297 0.22363362
-0.28525582 0.057422996 -0.021034768 -0.20047492 0.0712887 -0.14563796 -0.28734046 -0.15710694
