data/models/test_easier_many/checkpoints/epoch_120.pt (torch, 11053 bytes, 6 tensors)

layers.0.weight f4 [16, 6]
00000000: 6794 b9bc c21f 2d3c 987a d7bd 18a2 13bd
00000010: d87d 273f 4652 a63e e3cc 50bb 8d98 80bb
00000020: 2d51 873c 3e2d 11bc 86dd 4ebf 8607 d73e
00000030: ff00 873c 2680 033d dfa7 41bd 9ae6 36bd
00000040: 0c12 39be a0bc e53e e4cd 193d 50ad 643d
00000050: 29ac 21bd a398 ccbc cbff 22bf dbf3 383f
00000060: 3a79 e2bd 9d32 54be 0f59 8ebe 8646 2dbe
00000070: 7772 94bd bb85 a2be 3c4e fe3c 65bd 443d
00000080: df5a b53c ea0b c03c 5930 063e a7fb 40bf
00000090: 2de3 db3d 701e 113e b692 1e3e 2a04 cd3d
000000a0: 31e9 f2be efd2 85be 218f 36bb f518 d6ba
000000b0: f5a2 263a 12c5 b3b9 a504 47bf 897e 323f
000000c0: ee13 9d3c 48ae 703d d6ab 1bbc d814 c5bc
000000d0: aca0 0e3f 125d 4dbf 6c59 a13d cdbd 0a3d
000000e0: a3a1 2c3d 8dc2 483c d511 043f 1d2c 213f
000000f0: 0bee a63a fda1 97ba af71 583c f302 30bc
00000100: f951 37bf 5113 fabe 8b0c d83c 6b0c 873c
00000110: a14a 6a3d 16b0 a33b a4c3 223f 9a4c 003f
00000120: d9c2 9dbd 6b90 b6bd 720b 12bd f351 723b
00000130: 54c7 e2be aad2 093f d96c 5dbd e33c cebc
00000140: 790e c8bd 7ff9 3abd 4e24 4dbf 8b5b 0abf
00000150: 7f4b 833a d900 23bc d2b9 46bb 65fc 54b9
00000160: f3e3 283f 5a0c 4dbf d109 39bd 4112 e1bb
00000170: 1918 4d3c 87fb ba3b 6238 2a3f a234 1f3f
-0.022653772 0.010566654 -0.1052143 -0.036043257 0.654264 0.32484645 -0.0031860403 -0.0039244355
0.0165182 -0.008860884 -0.8080677 0.41997927 0.016479967 0.032104634 -0.047279235 -0.044653513
-0.1807329 0.44870472 0.03754987 0.055829346 -0.039470825 -0.024975127 -0.6367156 0.72247094
-0.110582784 -0.20722432 -0.2780232 -0.16921434 -0.07248395 -0.31742653 0.031043164 0.048032183
0.022138057 0.023443181 0.1310438 -0.7538399 0.1073669 0.14171767 0.15485653 0.1001056
-0.47443536 -0.26137492 -0.0027856308 -0.0016334342 0.000635668 -0.0003428837 -0.7774146 0.6972433
0.019174542 0.058759958 -0.009501418 -0.02405779 0.55713916 -0.8022014 0.07878384 0.033872414
0.042146336 0.012253416 0.5158971 0.62957937 0.0012735737 -0.0011568662 0.013210698 -0.010742891
-0.71609455 -0.48842862 0.026373168 0.016485414 0.057200078 0.0049953563 0.63579774 0.50116885
-0.0770318 -0.08914264 -0.035655446 0.0036975115 -0.442927 0.5383707 -0.054058883 -0.025175517
-0.097683854 -0.045648094 -0.8013352 -0.54045933 0.0010017006 -0.009948933 -0.003032316 -0.0002031192
0.6597282 -0.8009697 -0.045175377 -0.006868631 0.012517952 0.005706254 0.66492283 0.62189686

layers.0.bias f4 [16]
00000000: b414 933e 41b2 19be 819c 443f 7b75 7abd
00000010: 146f d03e 5353 9d3e 11f7 353f 8356 a73d
00000020: c1b4 a53d 8800 2c3e 1408 213f 3995 013f
00000030: 7eb8 e33d 81d3 0d3d 0047 be3e 4d86 f13e
0.28726733 -0.15009405 0.76801306 -0.061147194 0.40709746 0.30727634 0.7108012 0.08170798
0.08091117 0.16797078 0.6290295 0.5061832 0.111191735 0.034625534 0.37163544 0.47172776

layers.2.weight f4 [32, 16]
00000000: 7b70 5ebe 7ca8 60be a7a6 c73e 7575 0a3f
00000010: e0d2 26bd c153 00bf c9ed 3e3d 5973 a23e
00000020: d8f6 b8be 8e36 f43d cdbb 84be fcf4 473c
00000030: 179e fd3e 9061 0bbf 57f5 77be 69b2 1d3e
00000040: 103e 08bf 544f b63d c87e 16bf 5f30 71be
00000050: fcf2 4d3e 3c60 033f 08b9 423d 65f5 51be
00000060: 4dff ea3d bdf2 19be 996c 6d3e b6b9 19be
00000070: d2ec 30be 40b4 c93e 2445 d13e dab9 ebbe
00000080: 701c 633e 1980 9dbe 87ce 47bd 8b17 d2be
00000090: 26ea a43e 0577 a73e 291b ba3d f571 9bbe
000000a0: 14e2 d23e ec20 e0bd d165 9abe 54fb ae3e
000000b0: faab 17be e529 ecbe 29bc c03e c734 1f3e
000000c0: e9dc b63e 4d49 a03e 4315 ddbe 4705 993e
000000d0: cc97 3e3e 3397 f63e 6880 c6bc f7e0 1f3e
000000e0: 205a cd3e b428 323d 8125 10bd 0bb9 a03e
000000f0: e0ea 9ebd fb5a 133d 0de2 873e 34f0 cd3e
00000100: 1bfc 21bd 032f d8be eb8b d63e 35ad a0be
00000110: d0cc 9e3d 3d86 d73b 8d3d fc3e 12ca 6bbe
00000120: 51de 653d a169 19be 8ebb 873e 5bc7 2cbd
00000130: 06b1 b73d 63f0 693e f179 653e 7815 abbe
00000140: aa5f 493c a206 df3d 280a c63e f60f 2d3e
00000150: 28e9 463e 002e a8be 51de 423e 3f91 66bd
00000160: 8bf5 19bf dbc1 073e 86a7 9a3e f5eb a53e
00000170: f376 ce3e 6cfa d43d 1992 15bf 6409 443e
00000180: 8f66 8e3d 22e8 933d 8bdc e33e 5e55 d43d
00000190: decd d33b 1817 dc3d f6b9 ac3d 8022 083f
000001a0: 26fb 083e e9bc c8be 8cb2 c7be e581 9e3e
000001b0: f413 343e 7dde 993d 8af7 ef3e c9a4 813e
000001c0: 2bdc b03e 740c c8be 016a 843e fadb 8cbd
000001d0: 4d59 763e 5deb 22bf 0b43 7e3e 6c07 04be
000001e0: 8cc6 2bbe 781f c43e c000 dbbe 965d e43d
000001f0: a4a7 733e 310c 9dbe 83bf b3be 891d e23e
00000200: 80d4 03bf cad0 5c3e 509b 773e beb9 003f
00000210: a99f 2a3e 3dda a33e eb8b 523e ec46 163e
00000220: 24c3 383c 6fc0 893e 4c10 c83e 8716 23be
00000230: 3bab c03e adbf 593d 6c9a 6a3d 9355 50be
00000240: 826c 723e f5e8 ccbe 7dbd ff3d 0d36 efbe
00000250: 201a ea3d 89f3 46be 7bc3 393e f328 f7be
00000260: 7980 bebd f11a 763e e270 773e ac99 973e
00000270: 3af2 54be 3d95 893e 46eb 513e f517 dc3e
00000280: e5a2 49be 41f3 083f 789b 453e 9b8f 1b3f
00000290: 5db7 c8bd 9808 85be 1ebf ab3e 2125 863e
000002a0: 25e0 8f3d aba0 f7be 3c71 b53e de65 10bf
000002b0: 9118 bc3e 6ff6 ad3d 18de dc3d e937 14bf
000002c0: 1ccf f9be eab7 ad3d 9c9c 1ebf 174f efbe
000002d0: 0440 f93d f190 913e 385f 873e 4a6f ffbd
000002e0: eae3 d33e 73fa 2fbf 6890 fc3e af3c 2ebf
000002f0: b026 c2be 42ce 263f 10cd 113e 0132 42be
00000300: db2f dbbe 9cbc c13e ac56 b93e 8b9e e53e
00000310: b17a 01bd 2436 c6be 4084 7b3d f8a5 c13d
00000320: 308e d3be 3e82 91be 2fde 453e a38b afbe
00000330: e74c 2e3e 3c25 22be 5d06 26be 84b3 dcbe
00000340: 3084 f8be 18b3 f23e a474 713d b975 ef3e
00000350: e219 b4be ec50 04bf e14c 92bd 1f37 e63e
00000360: 80e6 14bd 288d 93bd b0da eabd 2f2c 08bf
00000370: 9d5c 193f 9088 203e 935d 1cbe c824 b4be
00000380: ddd2 e1bd c811 49be 6bb4 e9be 9add 08bf
00000390: ff27 153e 63c4 a03e a971 713c 925c eabe
000003a0: 5763 833e 62c8 0fbf 3b49 d03e 233b 33be
000003b0: ff2b febe 2cc1 573e 6044 d23e a17f f4be
000003c0: 41b3 1abe b22e fe3d b8b6 983d 5207 853e
000003d0: 892d 06bd cc3f 25be b376 17bd 4e2a 763e
000003e0: 9f07 0fbf 5e04 b03e 9c51 cebd a192 9b3e
000003f0: 0257 1f3e 0057 9bbe 2184 08bf e61b be3e
-0.21722595 -0.21939272 0.38994333 0.54085475 -0.04072845 -0.501278 0.04661349 0.31728628
-0.36125827 0.11924468 -0.2592453 0.012204405 0.49534675 -0.54445744 -0.24214683 0.1540009
-0.532197 0.089018494 -0.587872 -0.23553608 0.20112222 0.51318717 0.04753974 -0.20503767
0.11474476 -0.15034004 0.23185958 -0.1501225 -0.1727784 0.39395332 0.40873063 -0.4604023
0.22178817 -0.30761793 -0.048780944 -0.41033587 0.3220989 0.32707992 0.09087212 -0.3036038
0.4118811 -0.10943779 -0.30155805 0.34176123 -0.14811698 -0.46125713 0.37643555 0.15547477
0.35715416 0.31305924 -0.43180284 0.2988684 0.18612593 0.4816223 -0.02423115 0.15613161
0.40107822 0.04349585 -0.035192017 0.31391177 -0.077596426 0.035975438 0.2653965 0.40222323
-0.039547067 -0.42223367 0.41903624 -0.31382146 0.07753909 0.0065772817 0.4926571 -0.23026302
0.05612022 -0.149817 0.2651028 -0.042182308 0.089693114 0.22845607 0.22409798 -0.33414817
0.0122908745 0.10889937 0.38679624 0.1690062 0.1942488 -0.32847595 0.1903012 -0.05629086
-0.60140294 0.13257544 0.30205935 0.32406583 0.40325126 0.10399327 -0.5842605 0.19144207
0.06953155 0.0722201 0.44504198 0.10367845 0.0064637503 0.10746592 0.08433907 0.5317764
0.13377056 -0.39206627 -0.39003408 0.30958477 0.17585737 0.075131394 0.46868545 0.25321034
0.34542975 -0.39072 0.25862125 -0.06877895 0.24057503 -0.63640386 0.24830262 -0.12893456
-0.16774958 0.3830526 -0.4277401 0.111506626 0.23794419 -0.30673364 -0.3510705 0.4416316
-0.51496124 0.21564022 0.24180341 0.5028342 0.16662468 0.3200244 0.20561187 0.14675492
0.011276994 0.26904628 0.39074934 -0.15926562 0.37630638 0.053161312 0.057276174 -0.20345144
0.23674205 -0.40021482 0.12487314 -0.46720925 0.11430764 -0.19428839 0.18140976 -0.4827343
-0.09301848 0.24033715 0.24164155 0.2960943 -0.20795527 0.26871672 0.20499906 0.42987028
-0.19691046 0.53496176 0.19297588 0.60766 -0.09800599 -0.2598312 0.33544248 0.26200202
0.07025174 -0.48364767 0.35437953 -0.56405437 0.36737493 0.08494269 0.107845485 -0.5789781
-0.48790824 0.084823444 -0.61957717 -0.46740028 0.12170413 0.28430894 0.26439834 -0.124723986
0.41384822 -0.6874153 0.49328923 -0.68061346 -0.3792014 0.65158474 0.14238381 -0.18964387
-0.42809948 0.3783921 0.36198938 0.4484752 -0.03161115 -0.3871318 0.06140542 0.09455484
-0.41319418 -0.2841968 0.19323038 -0.34286222 0.17021523 -0.15834516 -0.16213365 -0.4310571
-0.4853835 0.47402263 0.058949128 0.46769503 -0.35175997 -0.51685977 -0.0714357 0.4496393
-0.036352634 -0.07204658 -0.114674926 -0.5319242 0.5990694 0.15677094 -0.1527007 -0.35184312
-0.11026547 -0.1963569 -0.4564546 -0.5346314 0.14566039 0.3139983 0.014736571 -0.4577375
0.25661728 -0.56165135 0.4068087 -0.17503028 -0.4964294 0.21069783 0.4106779 -0.47753623
-0.15107442 0.1241125 0.07456726 0.25982147 -0.03275827 -0.16137618 -0.036978435 0.24039575
-0.55871004 0.34378332 -0.100741595 0.30385306 0.15560535 -0.30339813 -0.5332661 0.3713066

layers.2.bias f4 [32]
00000000: a0ab 333e 75cf 40bd e15f 7a3e 696d 803d
00000010: 9343 f03e 0cdb ca3d 6836 ef3e 2998 523e
00000020: de8d 54be 6ce3 033f e3f3 3fbe e488 d7be
00000030: 11f5 9c3d 2940 b5be e184 d33d e3ab 20be
00000040: be15 10be c9c5 013f add0 f33c fffc db3e
00000050: 1a63 3fbe 4ffa 17be 1fa3 9cbc f70a ec3d
00000060: a017 173b 8df1 3f3d 946c adbe feac d93e
00000070: 8eb0 593e c00e af3e 035d 61bd 241f ab3e
0.17545938 -0.047072846 0.24450637 0.06270868 0.46926555 0.09905061 0.46721196 0.20565857
-0.20757243 0.51518893 -0.18745379 -0.42096627 0.0766393 -0.35400513 0.10328079 -0.1569057
-0.14070794 0.5069242 0.02976259 0.42966458 -0.18690148 -0.14841579 -0.019120751 0.11525529
0.0023054853 0.04686122 -0.338719 0.42514795 0.21258757 0.3419094 -0.055020344 0.33422196

layers.4.weight f4 [40, 32]
00000000: 9934 8bbe f879 a4be 1a98 133e 2bed d2bd
00000010: acaa 4a3c ea07 333e b6e6 423e 1a80 c33d
00000020: 7f3c c5bd 4504 24be 5924 2b3e dc7f 01bf
00000030: d723 1b3e 0786 313e 1619 75be 4394 71be
00000040: 95c5 90bd 5ec5 7d3d 6715 283e de2e 093e
00000050: beda 9dbd d727 a0bc 8f9f 7fbe a315 7c3e
00000060: 75cf bebd 3598 313e 6e0b e03d 2db6 8cbd
00000070: 747a 813e 1503 0dbe a1ed 91bd c2cf f6bd
00000080: c854 523e c6e8 febd 0fd5 a83e a258 073e
00000090: 678d 22be e566 8ebe 1f94 7b3e 38fb cfbe
000000a0: 4c0b fa3d 65ab a23e 1385 333e fafe 14be
000000b0: edb9 ae3e 91bc 383e d748 2bbe 591e 02be
000000c0: 714c 01bf 891c 2fbe 6aa4 adbe 69ae debc
000000d0: 3c73 743d 4785 a2bd a84c 6abd d56e 00bf
000000e0: 050a 2c3d 37c0 9e3d 9a47 dfbc 6dd0 efbd
000000f0: c9a5 08be ec63 09be 3cba 593e 1ec4 873d
00000100: de68 ca3e 4635 683e b818 143e e08d bf3d
00000110: 3fce 3c3e 763d 463e 1371 bebe 7b70 343e
00000120: 7ccd 81be 6759 a83e 8844 03bf cf25 ac3e
00000130: 357d 9bbe 628c a1be 58de b33e 68cd 023e
00000140: d4bb 773e d718 a8be d02c e73d 6f2a 653d
00000150: e080 1fbe 0583 703d 86ab f03e d658 adbe
00000160: a465 4e3d 2b34 f7be 9c57 85be a05d a3bd
00000170: eac3 7cbe e2d0 14bf c365 bb3d bee0 633d
00000180: e536 473e caa3 b03c 1413 7ebe f84a 263d
00000190: 7388 003e 9129 a5be 1365 8d3e 55d3 5e3e
000001a0: 0aff 273e 444e 683e 27c9 80be 3a14 c23e
000001b0: 5a4b 9bbe cbac 5ebe ab47 aabc aa96 8ebe
000001c0: d548 c7bd dfe0 b73d 127a 36be 1d0d c1be
000001d0: 78bb febe fcb8 953e 4de6 9dbd 8db7 b33e
000001e0: 457e fc3c 6ae3 d1bc a8cd f13d df30 153e
000001f0: d1cc f2bd 5bec 123e ac6e 45bd 61df 5bbe
00000200: be82 6dbe 123a 663d f123 833d fb77 75be
00000210: 5c33 62be 0ac8 203d 3e33 ed3b 17a5 40bd
00000220: b12d fdbc d234 8ebd e38e af3d 7924 9bbe
00000230: eccb cb3d 69d8 803e d85a f2bd 50fa acbd
00000240: 9d9e 5d3d b251 4ebe 3b34 0ebe 9fe6 e43d
00000250: a435 cb3e a51a e53d 50bb cd3d 194d 14bd
00000260: ff96 513e f667 913e 8497 973e 13cd f43c
00000270: d627 343d 65cd b2bc e801 d3bd a31d cd3c
00000280: cde5 193e 0904 7a3e 8412 20be a5ac dbbc
00000290: a2c9 f0bd 9631 1a3e 0124 57be 5a56 ca3e
000002a0: 7f40 623e 6fbe e8be b36a c0be 47a8 ef3e
000002b0: 8bfe 75bb 5014 6c3d 99b1 8d3e d2a3 8c3e
000002c0: 2dba f33e d70b 80bd d433 b0bc 3cf5 923e
000002d0: 6376 143e c44c 64bd ca5b a93e 7790 bebe
000002e0: 066b b53e fa12 bebe e06d 5c3e ad01 d6be
000002f0: 7968 4ebd f803 13bf 18a3 b23e 05f9 303e
00000300: b1b9 563d 921c d4bd 8f87 d33d 295c d4bc
00000310: 681d 11bd 2077 0c3f 7324 903e 4fbe da3d
00000320: ee17 98be 3604 abbc 46e4 7dbc ad56 d4be
00000330: 929e ae3e d478 74bc 3876 69bd 2ab8 803d
00000340: 3060 b7bd 4f65 b3be bff4 603e c283 a63d
00000350: e2a5 d23d 6943 04bd bb60 edbd 2a9e 9dbe
00000360: f007 98be 2581 1a3e 98fc 703d 1515 9cbd
00000370: b122 33be b4e3 df3d 93b5 13be 54ee edbc
00000380: 33f8 aa3e 5646 fc3d 74b7 3dbe 632e 923c
00000390: 7222 1b3e 4131 c53d f287 56bd 8a0d 333d
000003a0: fb2d d9bc e645 bcbd c95c bebe cd30 963e
000003b0: dd7b 85bc 58ea 403c 9abf b73e ff3e 453e
000003c0: 32f8 b73d cbec e3bd b035 3b3c eb70 783d
000003d0: fbe4 bdbe e236 24be 288e c23d 5e96 1dbe
000003e0: bfc4 c43e bc38 f8bd 516b 1cbe 1364 353e
000003f0: 73d3 e9bd 1da6 e13b cc42 e03d ba23 263e
-0.27188566 -0.32124305 0.14413491 -0.102991425 0.012369793 0.17483488 0.19033322 0.09545918
-0.09630679 -0.16017254 0.16713084 -0.5058572 0.1515039 0.17336284 -0.23935351 -0.23591714
-0.07068936 0.061955802 0.16414414 0.13396785 -0.077077374 -0.019550247 -0.2496321 0.24617629
-0.09316913 0.17343219 0.1093968 -0.06870685 0.25288737 -0.13770707 -0.07125402 -0.120513454
0.20540154 -0.12446742 0.3297505 0.13217404 -0.15874253 -0.27812877 0.24568222 -0.40621352
0.12209186 0.3177139 0.17531233 -0.14550391 0.34126225 0.18040682 -0.16727005 -0.12706889
-0.50507265 -0.17100729 -0.339145 -0.027182775 0.05968021 -0.07935577 -0.05720201 -0.50169116
0.042001743 0.07751506 -0.027255822 -0.11709676 -0.13344492 -0.13417023 0.21262449 0.06629203
0.39533132 0.22676572 0.14462554 0.093532324 0.18438052 0.19359383 -0.37195644 0.17621033
-0.25352085 0.3288071 -0.51276445 0.33622596 -0.30368963 -0.31552416 0.35130572 0.12773669
0.24192744 -0.3283145 0.11287844 0.05594867 -0.15576506 0.0587187 0.47005862 -0.3385684
0.0503899 -0.48281989 -0.26043403 -0.07976842 -0.2468411 -0.5813123 0.09150269 0.055634253
0.19454534 0.021562476 -0.24811965 0.04059884 0.12552051 -0.32258275 0.27616176 0.21760304
0.16405883 0.22686106 -0.25153467 0.37906057 -0.30330926 -0.21745603 -0.020786127 -0.27849323
-0.097306885 0.08978438 -0.17820004 -0.37705317 -0.49752402 0.29242694 -0.07709942 0.35100976
0.030821929 -0.025621135 0.11806804 0.14569424 -0.11855472 0.14347975 -0.048201248 -0.21471931
-0.23194405 0.056207724 0.0640334 -0.2397155 -0.22089905 0.039253272 0.0072387746 -0.047032442
-0.030905576 -0.069436684 0.08572175 -0.30301264 0.099510044 0.25165108 -0.11833733 -0.08446181
0.054106344 -0.20148352 -0.13887112 0.111768 0.39689362 0.11186723 0.10045493 -0.03620634
0.20467757 0.28399628 0.29607785 0.029882943 0.043983303 -0.021826455 -0.10303098 0.025038546
0.15029068 0.24415602 -0.15632063 -0.026815722 -0.117572084 0.15057978 -0.21009828 0.39519006
0.22094916 -0.4545779 -0.37581405 0.46808073 -0.0037535753 0.05763656 0.2767456 0.27468735
0.47602978 -0.06252258 -0.021509089 0.28702724 0.14498286 -0.055737272 0.33077842 -0.37219593
0.35433215 -0.37123853 0.21526289 -0.41798154 -0.0503926 -0.5742793 0.34890056 0.17282493
0.052423183 -0.10357012 0.1032859 -0.025922852 -0.035428435 0.5486927 0.2815281 0.1068083
-0.29705757 -0.020876031 -0.015496319 -0.41472378 0.34105355 -0.014921386 -0.056997508 0.062851265
-0.08953893 -0.3503823 0.21968363 0.081305996 0.10285546 -0.03229085 -0.115907155 -0.30784732
-0.29693556 0.15088327 0.058834642 -0.076212086 -0.17493702 0.10932103 -0.14424734 -0.029044308
0.33392486 0.12318103 -0.18527013 0.017844385 0.15149859 0.09628535 -0.05237574 0.043714084
-0.026511183 -0.091930196 -0.37180164 0.29334107 -0.016294414 0.011774622 0.35888368 0.19262312
0.089828864 -0.11129149 0.011426374 0.060654562 -0.3708876 -0.16036561 0.094997704 -0.15389392
0.38431355 -0.12120196 -0.15275313 0.17713957 -0.11417284 0.0068862573 0.109502405 0.16224566

layers.4.bias f4 [40]
00000000: cd3c 1f3e 50ed 993e e0c9 b93b 9a88 8dbd
00000010: b089 0a3e eac7 71be 2899 463e 152e 99bc
00000020: 40cd 40bd 3e50 04be 98ce 1cbe 678c bdbd
00000030: f5bc 763e 2dcb b0bc 10fd 1cbb a865 5c3c
00000040: e492 843d bc7b 0dbe c650 863e dc77 8abd
00000050: f0a5 193e b9e3 72be 9ef7 81bd 9229 713c
00000060: f701 b93e 4937 803e e65d 073e 02de 98bc
00000070: 46ba 323e a350 51bb 4e92 593e a5a2 803e
00000080: 08dc 87be 5182 183d 2c0e 17bd d60d 4bbe
00000090: cb25 bd3d 43fa 4bbe b831 9cbe ef32 0cbe
0.15550537 0.30063868 0.0056698173 -0.0691082 0.13529086 -0.23611417 0.19394362 -0.018698731
-0.04707074 -0.12921235 -0.15313184 -0.09255295 0.24095519 -0.021581257 -0.0023954548 0.013451971
0.0647333 -0.13816732 0.262335 -0.067611426 0.15004706 -0.23719682 -0.06346057 0.014719384
0.36134312 0.2504218 0.13219413 -0.01866055 0.1745387 -0.0031938932 0.21247217 0.25124088
-0.26535058 0.037233654 -0.03687875 -0.19829497 0.09235724 -0.19919686 -0.30506682 -0.13691305
