data/models/test_dc9_only_20_bins/checkpoints/epoch_390.pt (torch, 8301 bytes, 6 tensors)

layers.0.weight f4 [16, 4]
-0.20494765 0.07125935 -0.004536523 0.62962043 -0.46015128 -0.53321075 -0.23518756 -0.17852198
-0.55030686 -0.36351782 0.046478394 0.012654978 0.25928044 -0.21929212 -0.27572444 0.3790206
-0.44361234 -0.25603175 0.34545678 -0.253956 0.49727416 0.6051094 -0.39872798 -0.012708986
0.35650092 -0.45710054 -0.47305354 -0.026474914 -0.51273817 0.19978061 -0.48520148 -0.010718972
0.18904063 -0.29737136 0.23700495 -0.29092404 -0.48387834 -0.2151668 0.61175746 0.19660497
-0.061073035 -0.39660463 -0.2742145 0.4408482 -0.40698043 -0.29149503 -0.7238933 -0.39633754
-0.3985036 0.007848355 0.56986403 0.28742924 0.391756 0.45560914 0.40918487 -0.4440082
-0.3768346 -0.30137232 0.0031016888 0.0595809 -0.082359724 0.14549112 -0.4376311 -0.6956867
00000000: ccdd 51be 6cf0 913d 1da7 94bb ce2e 213f
00000010: f398 ebbe 8080 08bf 02d5 70be 77ce 36be
00000020: e9e0 0cbf 021f babe 2160 3e3d d356 4f3c
00000030: 68c0 843e 1d8e 60be c12b 8dbe fd0e c23e
00000040: 2821 e3be 9816 83be b6df b03e 8506 82be
00000050: b89a fe3e 73e8 1a3f 1326 ccbe 5a39 50bc
00000060: 4a87 b63e 1509 eabe 1334 f2be ebe1 d8bc
00000070: cf42 03bf 4a93 4c3e 546c f8be a19e 2fbc
00000080: de93 413e 0f41 98be 6db1 723e fff3 94be
00000090: e7be f7be b054 5cbe 239c 1c3f d052 493e
000000a0: b827 7abd c30f cbbe d865 8cbe dbb6 e13e
000000b0: bd5f d0be d63e 95be 1251 39bf c1ec cabe
000000c0: aa08 ccbe 6396 003c 9ce2 113f ed29 933e
000000d0: 3e94 c83e 9a45 e93e ae80 d13e 0b55 e3be
000000e0: 77f0 c0be 794d 9abe b445 4b3b 1a0b 743d
000000f0: 37ac a8bd a0fb 143e 2f11 e0be 8618 32bf

layers.0.bias f4 [16]
-0.39086506 0.12723397 0.14373204 0.38544765 0.021813786 -0.25691497 -0.04916359 0.24751353
0.47288293 -0.4416802 -0.09556951 0.038613725 0.5702194 -0.26601836 0.2452242 -0.38641343
00000000: 771f c8be 9f49 023e 7e2e 133e 6559 c53e
00000010: d3b2 b23c 5c8a 83be c35f 49bd 3074 7d3e
00000020: b61d f23e e823 e2be f2b9 c3bd 6d29 1e3d
00000030: e6f9 113f 8f33 88be 0d1c 7b3e fbd7 c5be

layers.2.weight f4 [32, 16]
-0.10596451 0.15340051 -0.023265278 -0.33356923 0.29453877 -0.38583672 0.011545655 -0.07803474
-0.12232179 0.02496799 0.049115695 -0.20832342 0.3007228 -0.20599833 0.048196264 -0.31200057
0.13257535 0.2482996 0.30098322 0.14854057 0.05047814 0.07180591 0.35932738 0.21606223
0.24614576 -0.01337793 -0.08029384 -0.12636413 0.11911977 -0.07924132 0.23416965 -0.24217811
0.8417862 0.06559929 0.052392796 -0.042819954 -0.299662 0.06964824 -0.0598876 0.039482124
-0.050249342 -0.17780705 0.16912788 0.22787108 -0.46081197 -0.15276837 0.27278152 0.27225217
-0.24664867 -0.18813214 0.17594606 -0.13754381 0.08387231 -0.0028929114 -0.07783443 0.004961195
-0.14832003 -0.2649616 -0.23654619 -0.0008130097 0.069699995 -0.2051933 -0.11378096 0.11640595
-0.3030599 0.17070268 0.15598616 -0.19052473 -0.12937328 0.1816534 -0.06691263 -0.0107863555
0.07874799 -0.15433212 -0.21329333 -0.5484664 0.07707485 -0.37869963 0.112308845 -0.48621443
0.011150332 -0.05920885 0.18244652 -0.056655876 -0.24189027 0.07961273 0.081610955 0.32268018
-0.62071586 0.1921941 -0.21096574 -0.0025782543 -0.31257936 -0.07601882 0.0792765 -0.15335102
-0.29738522 -0.20133807 -0.19896917 -0.14307934 0.20714805 -0.048737288 0.17251077 0.34211785
-0.26488084 -0.13894813 0.099406384 -0.505782 0.055030517 -0.2702455 0.009195751 0.052658465
0.15856148 0.25663042 -0.19075213 -0.12452396 -0.2409295 0.090768084 -0.8394321 0.07833402
-0.11246261 0.056684244 0.074366525 0.05099457 0.1900835 -0.12693854 0.15114573 -0.6534369
0.15931761 0.18760027 0.17349304 0.17972988 -0.5970408 -0.47068098 0.4061692 -0.13345784
-0.28127605 -0.13718706 0.1342231 -0.024596713 -0.15463923 -0.24658495 -0.11723937 -0.05538142
-0.17577255 -0.12297765 -0.3905095 -0.24916254 0.11946674 -0.29400456 -0.042423517 -0.30968338
0.27488634 -0.50412077 0.026144424 -0.20158248 -0.13503197 0.13155858 -0.31449178 -0.35702747
0.020559851 -0.08400937 -0.122467585 -0.0031030932 -0.10504029 -0.04544401 0.10582075 0.2282944
0.17082283 0.09427388 -0.10221864 -0.3070456 -0.052792728 -0.444234 0.1603174 0.1200912
-0.36854145 0.27657574 0.0126297865 -0.30258206 -0.08025726 -0.33783802 -0.2766432 0.21222539
0.27936953 0.012839072 -0.40221965 -0.34843838 -0.14296249 0.16102965 0.12156237 0.07055554
0.023827123 0.3278322 0.002292625 -0.11611406 0.019817501 0.20461164 -0.17566177 -0.70735407
0.293906 -0.5043256 0.36741433 -0.118792824 -0.22783333 0.13433032 0.33450764 -0.08316714
-0.07915053 0.023436427 -0.13149793 0.24025825 -0.11538387 -0.010713585 0.0049506105 0.12794815
-0.18481284 0.12089902 0.20761368 -0.14318354 -0.030704413 0.2914984 0.17003474 -0.10980146
0.24051481 -0.091874704 0.017756447 0.011907671 -0.49765706 -0.01287844 0.17329516 0.047851667
-0.16437839 -0.4721794 0.105375476 -0.22079867 0.06535984 0.4300044 -0.1407054 0.18315141
-0.05311373 -0.18896429 0.036714405 -0.21423411 0.16556856 -0.18563893 -0.09635675 0.0014672911
-0.21102051 -0.012337844 0.10232997 -0.048568282 0.015262632 0.120039605 -0.23317568 0.08422521
00000000: ec03 d9bd 0615 1d3e d396 bebc 96c9 aabe
00000010: c9cd 963e 648c c5be fd29 3d3c aed0 9fbd
00000020: d983 fabd ac89 cc3c 8a2d 493d bc52 55be
00000030: 57f8 993e 3af1 52be 7269 453d 8abe 9fbe
00000040: d5c1 073e 4042 7e3e 791a 9a3e 051b 183e
00000050: 2bc2 4e3d fa0e 933d c2f9 b73e 6b3f 5d3e
00000060: a20d 7c3e 1b2f 5bbc 1971 a4bd 9965 01be
00000070: 11f5 f33d 4649 a2bd 2bca 6f3e 8afd 77be
00000080: 4d7f 573f ec58 863d d499 563d fa63 2fbd
00000090: 4c6d 99be bda3 8e3d b34c 75bd 02b8 213d
000000a0: 41d2 4dbd 0d13 36be dc2f 2d3e 0957 693e
000000b0: 8cef ebbe 506f 1cbe 05aa 8b3e a364 8b3e
000000c0: 7891 7cbe b6a5 40be 342b 343e 49d8 0cbe
000000d0: 3fc5 ab3d 0097 3dbb a867 9fbd 8591 a23b
000000e0: 35e1 17be 0ca9 87be 2a39 72be 2820 55ba
000000f0: dfbe 8e3d 311e 52be fe05 e9bd 3e66 ee3d
00000100: ab2a 9bbe afcc 2e3e d6ba 1f3e ea18 43be
00000110: 6e7a 04be 5903 3a3e 7d09 89bd 41b9 30bc
00000120: a046 a13d 3d09 1ebe 9169 5abe 4b68 0cbf
00000130: 6bd9 9d3d ebe4 c1be 2e02 e63d 19f1 f8be
00000140: e2af 363c fb84 72bd 43d3 3a3e fe0f 68bd
00000150: 15b2 77be 000c a33d a523 a73d 5636 a53e
00000160: 3ce7 1ebf 88ce 443e 6707 58be eef7 28bb
00000170: 670a a0be c1af 9bbd b85b a23d 0d08 1dbe
00000180: e042 98be 912b 4ebe 93be 4bbe 6483 12be
00000190: 9e1e 543e c0a0 47bd aaa6 303e 122a af3e
000001a0: 769e 87be 6b48 0ebe 9395 cb3d ee7a 01bf
000001b0: ae67 613d 9e5d 8abe c6a9 163c 67b0 573d
000001c0: f15d 223e 1065 833e 8754 43be 6b06 ffbd
000001d0: 39b6 76be 9ee4 b93d 06e5 56bf 966d a03d
000001e0: cc52 e6bd bd2d 683d 7a4d 983d afdf 503d
000001f0: 40a5 423e 2dfc 01be f2c5 1a3e a447 27bf
00000200: 2824 233e 491a 403e 29a8 313e 1c0b 383e
00000210: aad7 18bf 19fd f0be 69f5 cf3e 2ca9 08be
00000220: 6a03 90be c47a 0cbe c871 093e 0c7f c9bc
00000230: bf59 1ebe c480 7cbe 321b f0bd a1d7 62bd
00000240: b8fd 33be b5db fbbd dcf0 c7be 7724 7fbe
00000250: faaa f43d c487 96be 48c4 2dbd d28e 9ebe
00000260: e7bd 8c3e 0f0e 01bf d52c d63c a36b 4ebe
00000270: d245 0abe 4bb7 063e 1105 a1be 4ecc b6be
00000280: 226d a83c 1b0d acbd 49d0 fabd 445d 4bbb
00000290: 5d1f d7bd 8023 3abd 8db8 d83d 02c6 693e
000002a0: 2eec 2e3e aa12 c13d 0258 d1bd 1535 9dbe
000002b0: 303d 58bd a472 e3be 3f2a 243e 60f2 f53d
000002c0: 77b1 bcbe 569b 8d3e 2aed 4e3c 09ec 9abe
000002d0: eb5d a4bd 1bf9 acbe 2da4 8dbe 9d51 593e
000002e0: 8609 8f3e f95a 523c bcef cdbe 8466 b2be
000002f0: c264 12be f5e4 243e b1f5 f83d 6c7f 903d
00000300: 1931 c33c 9fd9 a73e dd3f 163b 35cd edbd
00000310: 5058 a23c b785 513e aee0 33be 2815 35bf
00000320: d97a 963e 7c1b 01bf bb1d bc3e a749 f3bd
00000330: 244d 69be e38d 093e 9644 ab3e 8953 aabd
00000340: ac19 a2bd c0fd bf3c 65a7 06be 4206 763e
00000350: 614e ecbd 0888 2fbc bb38 a23b d704 033e
00000360: 943f 3dbe e899 f73d ae98 543e b59e 12be
00000370: d287 fbbc 473f 953e 961d 2e3e 96df e0bd
00000380: 8449 763e ce28 bcbd f875 913c 6418 433c
00000390: e8cc febe 1800 53bc 4974 313e 1c00 443d
000003a0: cf52 28be 80c1 f1be 19cf d73d 0c19 62be
000003b0: 61db 853d 8929 dc3e 1415 10be 0b8c 3b3e
000003c0: c88d 59bd db7f 41be d861 163d 3060 5bbe
000003d0: ce8a 293e 2218 3ebe b056 c5bd 1f52 c03a
000003e0: c315 58be ab24 4abc 6092 d13d 89ef 46bd
000003f0: 1e10 7a3c 53d7 f53d 9bc5 6ebe 447e ac3d

layers.2.bias f4 [32]
0.08798409 -0.09822588 -0.11896464 -0.197877 0.22561286 0.12803808 0.18032949 0.06921855
-0.042230472 -0.06762904 0.14090343 0.059235293 -0.18609503 0.009216661 0.022087889 -0.25290537
-0.13219501 -0.27727368 -0.019802105 -0.31119156 -0.2512169 -0.085218914 0.117138326 0.30236453
-0.15412684 0.12500924 -0.10322488 -0.05249286 0.108166 -0.052641355 -0.18972318 0.17274776
00000000: 0131 b43d a62a c9bd bca3 f3bd 45a0 4abe
00000010: 0f07 673e 6a1c 033e 4ba8 383e 75c2 8d3d
00000020: dcf9 2cbd 1881 8abd fd48 103e b5a0 723d
00000030: b28f 3ebe 7a01 173c a9f1 b43c d07c 81be
00000040: 215e 07be d1f6 8dbe 0638 a2bc 8054 9fbe
00000050: 809f 80be 4187 aebd 38e6 ef3d 86cf 9a3e
00000060: 6dd3 1dbe 6c02 003e 9167 d3bd c102 57bd
00000070: 2386 dd3d 769e 57bd cb46 42be cae4 303e

layers.4.weight f4 [20, 32]
0.15519719 0.15105334 -0.43762252 -0.06440407 -0.55058026 0.13180576 -0.0035276425 -0.080170505
-0.26713574 -0.1827265 -0.12737232 -0.1502394 0.34998786 0.0485278 -0.22627486 -0.20358364
0.21239394 -0.113062784 0.33244258 0.39209783 0.015888002 0.22398464 -0.08058449 -0.111915
-0.15217869 0.0125618335 0.3500933 -0.2713154 -0.17076904 0.27496195 -0.18946016 -0.10410394
-0.04785903 0.1300538 -0.3616042 -0.029381175 -0.3246958 0.28935757 -0.18673737 -0.012225777
-0.082852475 0.05939584 -0.019178292 -0.28850618 0.7043687 -0.09191653 -0.09022897 -0.16776207
0.2600259 -0.13762014 0.07985632 0.12589122 -0.026514517 0.3677903 0.2395396 -0.14898701
0.16467899 -0.0446405 0.20496525 -0.1423715 -0.3215076 0.012661095 -0.4351685 0.13756384
-0.027607739 0.17586292 -0.24679232 0.038314603 -0.37203783 0.31399783 -0.49075532 0.0012184393
-0.14127229 0.20838024 0.12859549 -0.19660714 0.25019473 -0.108716995 -0.32410887 -0.1617522
0.025370717 -0.19325687 -0.14840145 0.17975731 -0.052967105 0.33101118 0.026880395 0.04908034
0.38290438 -0.20719223 0.33309433 -0.11374298 -0.14566892 -0.010150961 -0.14781916 0.046435863
-0.0013807194 0.1157814 -0.19157498 -0.15126744 -0.01408903 0.028533017 -0.08497353 0.013362577
-0.24884994 -0.5934342 0.03879543 0.081668735 0.36755013 -0.06936288 0.049792767 -0.13424905
0.13604033 0.13133901 0.10603294 0.31380564 0.24747269 0.073053606 0.054128107 -0.019003069
-0.0694232 -0.07091484 0.21451446 -0.13369124 0.29880804 0.1547623 0.07625195 -0.003721103
-0.008495368 0.16795564 -0.21002439 0.034356195 -0.19310603 -0.007885413 -0.32300606 0.15171579
-0.18802434 0.34994748 -0.021888213 -0.105012186 0.26484442 0.04876586 -0.15935509 -0.10894033
-0.03355709 -0.23066904 -0.01566666 0.15674755 -0.07790245 -0.052218214 0.06469399 -0.15517202
0.30498886 -0.04814532 -0.10015611 -0.21287487 -0.054829083 -0.50798875 0.015895655 -0.17543988
0.1546035 0.15065004 -0.13123156 -0.064047895 -0.14410198 0.09619039 -0.1463654 -0.091170885
-0.034647547 0.26188558 0.061022125 -0.10959207 0.03610563 0.15558037 0.09154844 0.012181026
0.027778415 -0.23254648 0.08966426 0.094057165 -0.16558933 0.1379927 -0.06524178 0.03937404
-0.3597127 0.08680266 0.004722808 -0.13924623 -0.057205167 0.14088728 -0.005736963 0.1087531
0.083733395 0.10195184 -0.073803134 -0.1392511 0.09119532 -0.028036224 -0.2897912 0.11087215
-0.06937465 0.12997693 0.10811437 0.119519725 0.06134373 0.059142955 -0.024776528 0.123416595
-0.10060461 -0.18275645 -0.26119497 -0.004138135 -0.06387143 -0.3808177 -0.08052471 0.045005668
-0.08225405 0.04105466 0.13617964 -0.20740868 0.056066286 0.15104595 0.10644549 0.03732118
0.011075993 0.024948731 0.023980923 0.13705102 -0.022172872 0.085128196 -0.44367054 -0.11146965
0.078865655 -0.31264514 -0.017511526 -0.076761544 0.1071537 -0.27077287 0.12832099 -0.1275144
-0.10898895 0.093011424 -0.09141461 0.32902384 0.09171606 -0.049109053 0.19634949 -0.06046807
-0.2733047 -0.052636184 0.12069224 0.019967623 0.0045690644 -0.3021436 -0.17440157 -0.15184028
00000000: 03ec 1e3e baad 1a3e 0f10 e0be 48e6 83bd
00000010: d4f2 0cbf 17f8 063e 0530 67bb 6f30 a4bd
00000020: 04c6 88be a81c 3bbe e46d 02be 5bd8 19be
00000030: 9c31 b33e 16c5 463d 99b4 67be 3b78 50be
00000040: cc7d 593e 768d e7bd ea35 aa3e 0cc1 c83e
00000050: 8e27 823c 3b5c 653e 7b09 a5bd b133 e5bd
00000060: bbd4 1bbe 26d0 4d3c 6e3f b33e dae9 8abe
00000070: 14de 2ebe d0c7 8c3e d801 42be 7234 d5bd
00000080: d507 44bd d32c 053e 3024 b9be cab0 f0bc
00000090: 873e a6be ad26 943e 1538 3fbe a04e 48bc
000000a0: 8fae a9bd 0d49 733d cb1b 9dbc 15b7 93be
000000b0: 8251 343f bc3e bcbd f7c9 b8bd d2c9 2bbe
000000c0: 1d22 853e 4bec 0cbe b68b a33d a1e9 003e
000000d0: f934 d9bc 034f bc3e de49 753e 0d90 18be
000000e0: 9ca1 283e f5d8 36bd 69e2 513e d6c9 11be
000000f0: a59c a4be 7b70 4f3c 68ce debe 89dd 0c3e
00000100: a029 e2bc 6915 343e 20b7 7cbe c6ef 1c3d
00000110: be7b bebe 53c4 a03e 4844 fbbe 0ab4 9f3a
00000120: afa9 10be a161 553e 89ae 033e 6253 49be
00000130: 8619 803e 04a7 debd 99f1 a5be 5ea2 25be
00000140: 40d6 cf3c 21e5 45be 8df6 17be 4d12 383e
00000150: 09f4 58bd 4c7a a93e 4634 dc3c 7708 493d
00000160: 0b0c c43e 332a 54be 578b aa3e 14f2 e8bd
00000170: 3c2a 15be 3750 26bc e85d 17be 8833 3e3d
00000180: 41f9 b4ba cc1e ed3d 3b2c 44be dae5 1abe
00000190: add5 66bc 13be e93c 9a06 aebd b6ee 5a3c
000001a0: 85d2 7ebe 4eeb 17bf f5e7 1e3d f041 a73d
000001b0: 882f bc3e 200e 8ebd 80f3 4b3d 9578 09be
000001c0: 284e 0b3e bc7d 063e cc27 d93d 22ab a03e
000001d0: 7b69 7d3e 219d 953d 6fb5 5d3d 53ac 9bbc
000001e0: c02d 8ebd cd3b 91bd aea9 5b3e 5be6 08be
000001f0: 5efd 983e 027a 1e3e fb29 9c3d c0dd 73bb
00000200: 2830 0bbc 90fc 2b3e a210 57be 15b9 0c3d
00000210: 96bd 45be d231 01bc 0d61 a5be 625b 1b3e
00000220: 7489 40be 512c b33e e94e b3bc a110 d7bd
00000230: b099 873e b6be 473d fb2d 23be 1c1c dfbd
00000240: 2973 09bd 8134 6cbe 5e57 80bc 6e82 203e
00000250: 528b 9fbd c4e2 55bd 487e 843d 6ae5 1ebe
00000260: 8027 9c3e 0734 45bd a61e cdbd dffb 59be
00000270: 7694 60bd 8d0b 02bf 9b37 823c 83a6 33be
00000280: 6150 1e3e 0144 1a3e 9161 06be 8b2b 83bd
00000290: 788f 13be 78ff c43d d0e0 15be cdb7 babd
000002a0: 96ea 0dbd de15 863e 56f2 793d cf71 e0bd
000002b0: 7fe3 133d 7650 1f3e c07d bb3d ed92 473c
000002c0: 8f8f e33c aa20 6ebe e5a1 b73d 0ba1 c03d
000002d0: 4090 29be f54d 0d3e 7b9d 85bd ac46 213d
000002e0: 432c b8be 98c5 b13d c9c1 9a3b 9096 0ebe
000002f0: f74f 6abd c144 103e 22fd bbbb f2b9 de3d
00000300: 6a7c ab3d 20cc d03d 1926 97bd d797 0ebe
00000310: 9dc4 ba3d 39ac e5bc 835f 94be f010 e33d
00000320: 4c14 8ebd ac18 053e 116b dd3d c2c6 f43d
00000330: 9043 7b3d e23f 723d 25f8 cabc d7c1 fc3d
00000340: ca09 cebd 8224 3bbe 59bb 85be 3199 87bb
00000350: 06cf 82bd 8afa c2be 24ea a4bd dd57 383d
00000360: d074 a8bd ee28 283d ad72 0b3e f162 54be
00000370: c3a5 653d caab 1a3e 1800 da3d 18de 183d
00000380: 1578 353c 4861 cc3c a473 c43c 1a57 0c3e
00000390: e2a3 b5bc b157 ae3d c928 e3be 334a e4bd
000003a0: 5184 a13d 0613 a0be 5574 8fbc 2835 9dbd
000003b0: 6673 db3d bea2 8abe 9466 033e 2393 02be
000003c0: 9935 dfbd c67c be3d 9537 bbbd d075 a83e
000003d0: a1d5 bb3d 9326 49bd d70f 493e 5ead 77bd
000003e0: 98ee 8bbe 0a99 57bd 7e2d f73d 2493 a33c
000003f0: 17b8 953b 91b2 9abe 5396 32be 057c 1bbe

layers.4.bias f4 [20]
0.06151858 0.048605397 0.10896814 -0.089237474 0.122711666 -0.05548304 0.0060206233 0.075758606
0.05481806 -0.06318233 0.026655776 0.008340375 -0.0288916 -0.015902087 -0.0040623783 0.06522654
-0.0621406 0.04169882 0.022960907 -0.036062058
00000000: e8fa 7b3d 7416 473d b02a df3d 23c2 b6bd
00000010: 4150 fb3d 2f42 63bd a648 c53b 5427 9b3d
00000020: e788 603d bd65 81bd 375d da3c 11a6 083c
00000030: 14ae ecbc 1845 82bc b31d 85bb 7e95 853d
00000040: 2487 7ebd 62cc 2a3d 8318 bc3c cfb5 13bd
