data/models/test_dc9_only_20_bins/checkpoints/epoch_370.pt (torch, 8301 bytes, 6 tensors)

layers.0.weight f4 [16, 4]
-0.2049477 0.07125931 -0.004536509 0.62962043 -0.46015128 -0.53321075 -0.23518702 -0.17852166
-0.55030686 -0.36351773 0.046478238 0.012654562 0.25928035 -0.21929213 -0.27572447 0.3790204
-0.44361222 -0.25603172 0.34545675 -0.25395587 0.49727416 0.6051094 -0.39872786 -0.01270856
0.35650077 -0.4571005 -0.47305343 -0.026474819 -0.51273817 0.19978058 -0.48520133 -0.010718748
0.18904048 -0.29737136 0.23700501 -0.29092404 -0.48387828 -0.21516629 0.61175746 0.19660519
-0.061072983 -0.3966044 -0.27421442 0.44084796 -0.4069804 -0.29149503 -0.7238933 -0.3963376
-0.39850375 0.007848352 0.56986403 0.28742924 0.391756 0.4556091 0.4091848 -0.44400808
-0.3768344 -0.30137238 0.003101506 0.059580605 -0.08235931 0.14548983 -0.4376305 -0.6956867
00000000: cfdd 51be 67f0 913d ffa6 94bb ce2e 213f
00000010: f398 ebbe 8080 08bf ded4 70be 62ce 36be
00000020: e9e0 0cbf ff1e babe f75f 3e3d 1455 4f3c
00000030: 65c0 843e 1e8e 60be c22b 8dbe f60e c23e
00000040: 2421 e3be 9716 83be b5df b03e 8106 82be
00000050: b89a fe3e 73e8 1a3f 0f26 ccbe 9037 50bc
00000060: 4587 b63e 1409 eabe 0f34 f2be b8e1 d8bc
00000070: cf42 03bf 4893 4c3e 4f6c f8be b09d 2fbc
00000080: d493 413e 0f41 98be 71b1 723e fff3 94be
00000090: e5be f7be 8d54 5cbe 239c 1c3f df52 493e
000000a0: aa27 7abd bb0f cbbe d565 8cbe d3b6 e13e
000000b0: bc5f d0be d63e 95be 1251 39bf c3ec cabe
000000c0: af08 ccbe 6096 003c 9ce2 113f ed29 933e
000000d0: 3e94 c83e 9945 e93e ac80 d13e 0755 e3be
000000e0: 70f0 c0be 7b4d 9abe a342 4b3b cb0a 743d
000000f0: ffab a8bd 49fb 143e 1b11 e0be 8618 32bf

layers.0.bias f4 [16]
-0.3908649 0.12723373 0.14373226 0.38544762 0.021813909 -0.2569148 -0.049163155 0.24751325
0.4728831 -0.44168016 -0.09556921 0.038613573 0.5702194 -0.2660182 0.24522403 -0.38641337
00000000: 721f c8be 8f49 023e 8d2e 133e 6459 c53e
00000010: 15b3 b23c 568a 83be 4e5f 49bd 1d74 7d3e
00000020: bc1d f23e e723 e2be cab9 c3bd 4429 1e3d
00000030: e6f9 113f 8a33 88be 021c 7b3e f9d7 c5be

layers.2.weight f4 [32, 16]
-0.1059642 0.15340045 -0.023265045 -0.3335692 0.29453892 -0.38583672 0.011545336 -0.07803493
-0.122322015 0.02496782 0.04911605 -0.2083235 0.3007227 -0.2059982 0.04819647 -0.31200033
0.13257523 0.24829963 0.30098316 0.14854032 0.05047785 0.07180563 0.3593275 0.21606179
0.2461457 -0.013377699 -0.08029426 -0.12636407 0.11911951 -0.07924122 0.23416954 -0.24217765
0.8417862 0.065598905 0.052392524 -0.042819962 -0.2996619 0.06964827 -0.059887446 0.0394829
-0.050249316 -0.17780557 0.16912816 0.22787118 -0.46081194 -0.15276799 0.27278143 0.27225217
-0.24664867 -0.18813214 0.17594606 -0.13754381 0.08387231 -0.0028929114 -0.07783443 0.004961195
-0.14832003 -0.2649616 -0.23654619 -0.0008130097 0.069699995 -0.2051933 -0.11378096 0.11640595
-0.30305997 0.17070231 0.1559863 -0.19052462 -0.12937294 0.18165278 -0.06691285 -0.010786705
0.078747585 -0.1543321 -0.21329278 -0.5484664 0.077075295 -0.37869966 0.112308756 -0.48621368
0.011150207 -0.059208617 0.18244627 -0.05665544 -0.24189168 0.0796128 0.08161011 0.3226801
-0.62071586 0.19219004 -0.21096578 -0.002578197 -0.31257927 -0.076018676 0.079276405 -0.15335111
-0.29738522 -0.20133698 -0.19896892 -0.1430794 0.20714782 -0.048737038 0.17251049 0.34211776
-0.26488075 -0.13894778 0.09940653 -0.505782 0.055030327 -0.27024543 0.009195074 0.052658163
0.15856066 0.25663042 -0.1907521 -0.124523476 -0.24092992 0.09076778 -0.8394321 0.078334
-0.112462856 0.05668466 0.07436655 0.050994497 0.19008365 -0.1269381 0.15114596 -0.6534369
0.15931763 0.1875999 0.17349277 0.17972983 -0.5970408 -0.47068086 0.4061692 -0.1334575
-0.28127605 -0.13718583 0.13422306 -0.024596663 -0.15463923 -0.2465836 -0.11723976 -0.055381782
-0.17577255 -0.122976825 -0.3905091 -0.2491616 0.119466126 -0.2940043 -0.042424396 -0.30968335
0.27488637 -0.50412077 0.026144149 -0.20158058 -0.13503206 0.13155809 -0.31449148 -0.3570275
0.020559596 -0.084009655 -0.12246732 -0.0031027363 -0.10504019 -0.045443803 0.10582009 0.22829412
0.17082274 0.094273604 -0.10221841 -0.30704564 -0.052792493 -0.44423392 0.16031742 0.120091505
-0.36854145 0.27657586 0.012629968 -0.302582 -0.080257 -0.33783793 -0.27664328 0.21222568
0.2793696 0.0128396815 -0.40221915 -0.3484383 -0.14296213 0.16102959 0.121562324 0.07055496
0.023827031 0.3278322 0.0022924687 -0.11611374 0.01981727 0.2046115 -0.17566137 -0.70735407
0.293906 -0.5043256 0.36741439 -0.11879295 -0.2278332 0.1343305 0.33450764 -0.08316648
-0.07915077 0.023436178 -0.13149802 0.24025841 -0.11538352 -0.010713389 0.0049507245 0.12794842
-0.18481268 0.12089925 0.20761372 -0.14318332 -0.030704452 0.29149842 0.1700346 -0.10980138
0.24051444 -0.09187472 0.01775706 0.011908119 -0.49765697 -0.012877743 0.17329514 0.04785202
-0.16437861 -0.4721792 0.10537559 -0.22079913 0.06535949 0.43000418 -0.14070517 0.18315148
-0.05311373 -0.18896429 0.036714405 -0.21423411 0.16556856 -0.18563893 -0.09635675 0.0014672911
-0.21102051 -0.012337844 0.10232997 -0.048568282 0.015262632 0.120039605 -0.23317568 0.08422521
00000000: c203 d9bd 0215 1d3e 5696 bebc 95c9 aabe
00000010: cecd 963e 648c c5be a628 3d3c c7d0 9fbd
00000020: f783 fabd 5089 cc3c e92d 493d c152 55be
00000030: 53f8 993e 31f1 52be a969 453d 82be 9fbe
00000040: cdc1 073e 4242 7e3e 771a 9a3e f41a 183e
00000050: ddc1 4e3d d50e 933d c6f9 b73e 4d3f 5d3e
00000060: 9e0d 7c3e 232e 5bbc 5171 a4bd 9565 01be
00000070: eef4 f33d 3949 a2bd 24ca 6f3e 6bfd 77be
00000080: 4d7f 573f b858 863d 8b99 563d fc63 2fbd
00000090: 496d 99be c1a3 8e3d 8a4c 75bd d2b8 213d
000000a0: 3ad2 4dbd aa12 36be ef2f 2d3e 1057 693e
000000b0: 8bef ebbe 366f 1cbe 02aa 8b3e a364 8b3e
000000c0: 7891 7cbe b6a5 40be 342b 343e 49d8 0cbe
000000d0: 3fc5 ab3d 0097 3dbb a867 9fbd 8591 a23b
000000e0: 35e1 17be 0ca9 87be 2a39 72be 2820 55ba
000000f0: dfbe 8e3d 311e 52be fe05 e9bd 3e66 ee3d
00000100: ad2a 9bbe 96cc 2e3e dfba 1f3e e318 43be
00000110: 577a 04be 3003 3a3e 9b09 89bd b8ba 30bc
00000120: 6a46 a13d 3c09 1ebe 6c69 5abe 4b68 0cbf
00000130: a7d9 9d3d ece4 c1be 2202 e63d 00f1 f8be
00000140: 5caf 363c bc84 72bd 32d3 3a3e 890f 68bd
00000150: 74b2 77be 090c a33d 3423 a73d 5336 a53e
00000160: 3ce7 1ebf 77cd 443e 6a07 58be f8f6 28bb
00000170: 640a a0be aeaf 9bbd ab5b a23d 1308 1dbe
00000180: e042 98be 482b 4ebe 82be 4bbe 6883 12be
00000190: 8f1e 543e 7da0 47bd 97a6 303e 0f2a af3e
000001a0: 739e 87be 5448 0ebe a795 cb3d ee7a 01bf
000001b0: 7b67 613d 9c5d 8abe f0a6 163c 16b0 573d
000001c0: ba5d 223e 1065 833e 8554 43be 2a06 ffbd
000001d0: 55b6 76be 75e4 b93d 06e5 56bf 946d a03d
000001e0: ed52 e6bd 2d2e 683d 7d4d 983d 9bdf 503d
000001f0: 4aa5 423e 10fc 01be 02c6 1a3e a447 27bf
00000200: 2924 233e 301a 403e 17a8 313e 190b 383e
00000210: aad7 18bf 15fd f0be 69f5 cf3e 15a9 08be
00000220: 6a03 90be 717a 0cbe c571 093e f17e c9bc
00000230: bf59 1ebe 6980 7cbe 661b f0bd 02d8 62bd
00000240: b8fd 33be 46db fbbd cff0 c7be 3824 7fbe
00000250: a8aa f43d bb87 96be 34c5 2dbd d18e 9ebe
00000260: e8bd 8c3e 0f0e 01bf 412c d63c 246b 4ebe
00000270: d845 0abe 2ab7 063e 0705 a1be 4fcc b6be
00000280: 996c a83c 410d acbd 25d0 fabd 4757 4bbb
00000290: 501f d7bd 4823 3abd 34b8 d83d efc5 693e
000002a0: 28ec 2e3e 8512 c13d e357 d1bd 1635 9dbe
000002b0: f13c 58bd a172 e3be 402a 243e 89f2 f53d
000002c0: 77b1 bcbe 5a9b 8d3e eded 4e3c 07ec 9abe
000002d0: c85d a4bd 18f9 acbe 30a4 8dbe b051 593e
000002e0: 8809 8f3e 875d 523c abef cdbe 8166 b2be
000002f0: aa64 12be f1e4 243e abf5 f83d 1e7f 903d
00000300: e830 c33c 9fd9 a73e 3e3d 163b 0acd edbd
00000310: d457 a23c ad85 513e 93e0 33be 2815 35bf
00000320: d97a 963e 7c1b 01bf bd1d bc3e b849 f3bd
00000330: 1b4d 69be ef8d 093e 9644 ab3e 3053 aabd
00000340: cd19 a2bd 3afd bf3c 6ba7 06be 4d06 763e
00000350: 324e ecbd 3687 2fbc b039 a23b e904 033e
00000360: 893f 3dbe 079a f73d b198 543e a69e 12be
00000370: e787 fbbc 483f 953e 8d1d 2e3e 8cdf e0bd
00000380: 6b49 763e d028 bcbd 4177 913c 451a 433c
00000390: e5cc febe 2bfd 52bc 4874 313e 7b00 443d
000003a0: de52 28be 79c1 f1be 28cf d73d 2b19 62be
000003b0: 32db 853d 8229 dc3e 0415 10be 108c 3b3e
000003c0: c88d 59bd db7f 41be d861 163d 3060 5bbe
000003d0: ce8a 293e 2218 3ebe b056 c5bd 1f52 c03a
000003e0: c315 58be ab24 4abc 6092 d13d 89ef 46bd
000003f0: 1e10 7a3c 53d7 f53d 9bc5 6ebe 447e ac3d

layers.2.bias f4 [32]
0.08798395 -0.098225884 -0.1189649 -0.197877 0.22561267 0.12803821 0.18032941 0.06921833
-0.042230267 -0.06762891 0.14090312 0.059235014 -0.18609498 0.009216536 0.022087678 -0.25290537
-0.13219509 -0.27727365 -0.019802079 -0.31119165 -0.25121704 -0.08521888 0.11713856 0.30236453
-0.15412681 0.12500925 -0.10322449 -0.052492436 0.10816602 -0.052641466 -0.18972285 0.17274776
00000000: ee30 b43d a72a c9bd dfa3 f3bd 45a0 4abe
00000010: 0207 673e 731c 033e 46a8 383e 57c2 8d3d
00000020: a5f9 2cbd 0781 8abd e848 103e 6aa0 723d
00000030: af8f 3ebe f400 173c 38f1 b43c d07c 81be
00000040: 265e 07be d0f6 8dbe f837 a2bc 8354 9fbe
00000050: 859f 80be 3c87 aebd 57e6 ef3d 86cf 9a3e
00000060: 6bd3 1dbe 6d02 003e 5d67 d3bd 4f02 57bd
00000070: 2586 dd3d 949e 57bd b546 42be cae4 303e

layers.4.weight f4 [20, 32]
0.15519693 0.1510531 -0.4376225 -0.06440407 -0.55058026 0.13180539 -0.0035264755 -0.080169715
-0.26713568 -0.18272634 -0.12737192 -0.15023954 0.34998772 0.048527434 -0.22627483 -0.20358364
0.21239388 -0.11306187 0.33244255 0.3920978 0.015887601 0.22398502 -0.080584444 -0.11191483
-0.15217638 0.012561325 0.3500933 -0.2713155 -0.17076759 0.2749621 -0.18945943 -0.10410394
-0.04785867 0.13005373 -0.36160418 -0.029381175 -0.32469574 0.28935763 -0.1867373 -0.012225022
-0.08285226 0.059395175 -0.019178169 -0.28850594 0.7043687 -0.09191611 -0.090228826 -0.16776207
0.26002595 -0.13761993 0.07985605 0.12589091 -0.02651431 0.36779025 0.23954034 -0.14898694
0.16467792 -0.04464056 0.20496516 -0.14237185 -0.32150733 0.012660691 -0.435168 0.13756384
-0.027607575 0.17586291 -0.2467925 0.038314603 -0.37203783 0.31399778 -0.49075532 0.0012186929
-0.14127192 0.20837985 0.12859516 -0.19660726 0.25019467 -0.108716756 -0.32410887 -0.1617522
0.025370602 -0.1932566 -0.14840172 0.1797567 -0.052966483 0.33101118 0.026881043 0.049080286
0.3829043 -0.20719226 0.3330943 -0.11374328 -0.14566784 -0.010151299 -0.14781901 0.046435863
-0.0013811486 0.11578188 -0.19157527 -0.15126744 -0.014089362 0.028533034 -0.08497272 0.013362521
-0.24884996 -0.5934342 0.038795587 0.081668176 0.36755005 -0.06936301 0.049792938 -0.13424905
0.1360403 0.1313389 0.10603219 0.3138058 0.24747185 0.07305418 0.054127492 -0.019002978
-0.069422714 -0.070914924 0.21451445 -0.13369104 0.29880798 0.15476173 0.07625243 -0.003721103
-0.008495343 0.16795564 -0.21002479 0.034356195 -0.19310665 -0.0078851 -0.32300606 0.15171576
-0.18802455 0.34994692 -0.021888109 -0.10501163 0.26484424 0.04876595 -0.15935484 -0.10894033
-0.03355697 -0.23066841 -0.015666302 0.15674667 -0.07790241 -0.0522178 0.0646947 -0.15517183
0.30498886 -0.0481452 -0.10015618 -0.2128745 -0.054830246 -0.50798875 0.015895782 -0.17543988
0.15460321 0.15064988 -0.13123181 -0.064047895 -0.14410202 0.09618999 -0.14636566 -0.09117066
-0.0346476 0.26188555 0.061022505 -0.1095915 0.036105286 0.1555806 0.09154824 0.012181026
0.027778309 -0.23254639 0.08966414 0.09405742 -0.16558899 0.1379925 -0.06524144 0.039374217
-0.3597126 0.08680264 0.004722933 -0.1392461 -0.057203755 0.14088723 -0.0057368116 0.1087531
0.08373308 0.10195209 -0.07380312 -0.1392511 0.09119506 -0.02803662 -0.28979048 0.11087135
-0.06937488 0.12997703 0.108114064 0.11951999 0.06134389 0.059143204 -0.024776468 0.123416595
-0.1006044 -0.18275519 -0.26119503 -0.0041391924 -0.063871846 -0.3808176 -0.08052496 0.045005713
-0.08225435 0.041054808 0.13617955 -0.20740837 0.056066886 0.15104577 0.1064449 0.03732118
0.011075923 0.024948793 0.023981059 0.13705102 -0.022172688 0.08512779 -0.44367042 -0.11146987
0.07886579 -0.31264514 -0.017511964 -0.07676146 0.10715289 -0.27077278 0.12832114 -0.1275144
-0.10898835 0.093011364 -0.0914139 0.32902354 0.091716446 -0.04910635 0.19634898 -0.060468297
-0.27330452 -0.052636337 0.120691694 0.019967541 0.004568563 -0.30214363 -0.1744013 -0.15184028
00000000: f2eb 1e3e aaad 1a3e 0e10 e0be 48e6 83bd
00000010: d4f2 0cbf fef7 063e 711c 67bb 0530 a4bd
00000020: 02c6 88be 9d1c 3bbe c96d 02be 65d8 19be
00000030: 9731 b33e b4c4 463d 97b4 67be 3b78 50be
00000040: c87d 593e fb8c e7bd e935 aa3e 0bc1 c83e
00000050: b726 823c 545c 653e 7509 a5bd 9a33 e5bd
00000060: 20d4 1bbe 04ce 4d3c 6e3f b33e dde9 8abe
00000070: b3dd 2ebe d5c7 8c3e a701 42be 7234 d5bd
00000080: 7407 44bd ce2c 053e 2f24 b9be cab0 f0bc
00000090: 853e a6be af26 943e 1038 3fbe 754b 48bc
000000a0: 72ae a9bd 5b48 733d 891b 9dbc 0db7 93be
000000b0: 8251 343f 833e bcbd e4c9 b8bd d2c9 2bbe
000000c0: 1f22 853e 3dec 0cbe 928b a33d 8ce9 003e
000000d0: 8a34 d9bc 014f bc3e 104a 753e 0890 18be
000000e0: 54a1 283e 05d9 36bd 63e2 513e edc9 11be
000000f0: 9c9c a4be c96e 4f3c 57ce debe 89dd 0c3e
00000100: 4829 e2bc 6815 343e 2cb7 7cbe c6ef 1c3d
00000110: be7b bebe 51c4 a03e 4844 fbbe 8cbc 9f3a
00000120: 96a9 10be 8761 553e 73ae 033e 6a53 49be
00000130: 8419 803e e4a6 debd 99f1 a5be 5ea2 25be
00000140: 02d6 cf3c 0fe5 45be 9ff6 17be 2412 383e
00000150: 62f3 58bd 4c7a a93e a235 dc3c 6908 493d
00000160: 080c c43e 352a 54be 568b aa3e 3df2 e8bd
00000170: f329 15be a251 26bc de5d 17be 8833 3e3d
00000180: a807 b5ba 0d1f ed3d 4f2c 44be dae5 1abe
00000190: 11d7 66bc 1cbe e93c 2d06 aebd 7aee 5a3c
000001a0: 86d2 7ebe 4eeb 17bf 1fe8 1e3d a541 a73d
000001b0: 852f bc3e 320e 8ebd aef3 4b3d 9578 09be
000001c0: 264e 0b3e b47d 063e 6827 d93d 27ab a03e
000001d0: 4369 7d3e 6e9d 953d cab4 5d3d 22ac 9bbc
000001e0: 7f2d 8ebd d83b 91bd ada9 5b3e 4ee6 08be
000001f0: 5cfd 983e dc79 1e3e 3c2a 9c3d c0dd 73bb
00000200: 0d30 0bbc 90fc 2b3e bd10 57be 15b9 0c3d
00000210: c0bd 45be 8230 01bc 0d61 a5be 605b 1b3e
00000220: 8289 40be 3e2c b33e b14e b3bc 5610 d7bd
00000230: aa99 873e cebe 473d ea2d 23be 1c1c dfbd
00000240: 0973 09bd 5734 6cbe 9e56 80bc 3382 203e
00000250: 4c8b 9fbd 55e2 55bd a87e 843d 5de5 1ebe
00000260: 8027 9c3e e733 45bd af1e cdbd c6fb 59be
00000270: ae95 60bd 8d0b 02bf df37 823c 83a6 33be
00000280: 4e50 1e3e f643 1a3e a261 06be 8b2b 83bd
00000290: 7b8f 13be 42ff c43d e1e0 15be afb7 babd
000002a0: a4ea 0dbd dd15 863e bcf2 793d 8271 e0bd
000002b0: 23e3 133d 8550 1f3e a57d bb3d ed92 473c
000002c0: 568f e33c a420 6ebe d5a1 b73d 2da1 c03d
000002d0: 2990 29be e84d 0d3e 4e9d 85bd dc46 213d
000002e0: 402c b8be 95c5 b13d d5c2 9a3b 8896 0ebe
000002f0: 7c4e 6abd be44 103e ddfb bbbb f2b9 de3d
00000300: 407c ab3d 42cc d03d 1726 97bd d797 0ebe
00000310: 7ac4 ba3d 0ead e5bc 6b5f 94be 8510 e33d
00000320: 6b14 8ebd b318 053e e86a dd3d e6c6 f43d
00000330: bb43 7b3d 2540 723d 05f8 cabc d7c1 fc3d
00000340: ae09 cebd 2d24 3bbe 5bbb 85be 10a2 87bb
00000350: 3ecf 82bd 86fa c2be 45ea a4bd e957 383d
00000360: f874 a8bd 1629 283d a772 0b3e dc62 54be
00000370: 64a6 653d beab 1a3e c9ff d93d 18de 183d
00000380: ca77 353c 6961 cc3c ed73 c43c 1a57 0c3e
00000390: 7fa3 b5bc 7b57 ae3d c528 e3be 514a e4bd
000003a0: 6384 a13d 0613 a0be 4075 8fbc 1d35 9dbd
000003b0: f972 db3d bba2 8abe 9e66 033e 2393 02be
000003c0: 4935 dfbd be7c be3d 3637 bbbd c675 a83e
000003d0: d5d5 bb3d bd23 49bd b50f 493e 9bad 77bd
000003e0: 92ee 8bbe 3399 57bd 352d f73d f892 a33c
000003f0: e2b3 953b 92b2 9abe 4196 32be 057c 1bbe

layers.4.bias f4 [20]
0.061518535 0.048605017 0.108967975 -0.0892374 0.12271161 -0.05548338 0.0060206624 0.07575837
0.05481823 -0.0631821 0.026655808 0.008340433 -0.028891701 -0.015901728 -0.0040625185 0.06522655
-0.062140618 0.041698687 0.022960877 -0.036061928
00000000: dcfa 7b3d 0e16 473d 9a2a df3d 19c2 b6bd
00000010: 3950 fb3d 8a42 63bd fa48 c53b 3427 9b3d
00000020: 1589 603d 9e65 81bd 485d da3c 50a6 083c
00000030: 4aae ecbc 5744 82bc e01e 85bb 7f95 853d
00000040: 2987 7ebd 3ecc 2a3d 7318 bc3c acb5 13bd
