data/models/test_dc9_only_20_bins/checkpoints/epoch_320.pt (torch, 8301 bytes, 6 tensors)

layers.0.weight f4 [16, 4]
0	0xbe51ddc0	-0.20494747
1	0x3d91f02e	0.07125889
2	0xbb94a5c5	-0.004536363
3	0x3f212eab	0.62961835
4	0xbeeb98e2	-0.46015078
5	0xbf088044	-0.5332072
6	0xbe70d368	-0.23518145
7	0xbe36cd03	-0.17851643
8	0xbf0ce094	-0.5503018
9	0xbeba1e89	-0.3635142
10	0x3d3e5f8b	0.046477836
11	0x3c4f4691	0.012651102
12	0x3e84bf96	0.25927418
13	0xbe608e5f	-0.2192931
14	0xbe8d2b9f	-0.27572343
15	0x3ec20e77	0.3790166
16	0xbee32057	-0.4436061
17	0xbe831639	-0.25602892
18	0x3eb0dfb1	0.34545663
19	0xbe8205a4	-0.25394928
20	0x3efe9a68	0.49727178
21	0x3f1ae84f	0.60510725
22	0xbecc2529	-0.398721
23	0xbc5028ce	-0.012705041
24	0x3eb686ab	0.35649619
25	0xbeea0891	-0.4570966
26	0xbef23331	-0.4730468
27	0xbcd8df27	-0.026473595
28	0xbf0342a2	-0.5127355
29	0x3e4c9323	0.19978003
30	0xbef86b43	-0.48519334
31	0xbc2f969f	-0.010717063
32	0x3e419391	0.18903948
33	0xbe9840de	-0.2973699
34	0x3e72b15b	0.23700468
35	0xbe94f3a9	-0.29092148
36	0xbef7bdfb	-0.4838713
37	0xbe5c52c5	-0.21515949
38	0x3f1c9bfb	0.6117551
39	0x3e495303	0.19660573
40	0xbd7a2724	-0.061072484
41	0xbecb0efe	-0.39659876
42	0xbe8c6558	-0.2742107
43	0x3ee1b601	0.4408417
44	0xbed05f57	-0.4069774
45	0xbe953ea2	-0.29149348
46	0xbf3950ec	-0.723891
47	0xbecaec8a	-0.3963359
48	0xbecc08f2	-0.39850575
49	0x3c0096bd	0.007848439
50	0x3f11e274	0.56986165
51	0x3e9329c8	0.28742814
52	0x3ec893de	0.39175314
53	0x3ee94516	0.4556052
54	0x3ed1802c	0.409181
55	0xbee3547c	-0.44400394
56	0xbec0ef54	-0.37682593
57	0xbe9a4da6	-0.30137366
58	0x3b4b2c97	0.003100192
59	0x3d7407e9	0.059577856
60	0xbda8a9db	-0.08235522
61	0x3e14f800	0.1454773
62	0xbee00f7d	-0.43761817
63	0xbf32188c	-0.69568706

layers.0.bias f4 [16]
0	0xbec81f42	-0.39086348
1	0x3e0248e0	0.12723112
2	0x3e132f96	0.14373621
3	0x3ec5595e	0.38544744
4	0x3cb2b4ee	0.02181479
5	0xbe83895f	-0.25690743
6	0xbd495b3a	-0.049159266
7	0x3e7d737e	0.24751088
8	0x3ef21d6b	0.4728807
9	0xbee223b7	-0.44167873
10	0xbdc3b890	-0.09556687
11	0x3d1e2843	0.038612615
12	0x3f11f9b0	0.5702162
13	0xbe88331c	-0.26601493
14	0x3e7b1b0c	0.24522036
15	0xbec5d7eb	-0.38641295

layers.2.weight f4 [32, 16]
0	0xbdd902a3	-0.10596206
1	0x3e1d1537	0.15340124
2	0xbcbe93b6	-0.023263793
3	0xbeaac8b7	-0.33356258
4	0x3e96cd9d	0.29453745
5	0xbec58c0d	-0.38583413
6	0x3c3d1d15	0.011542578
7	0xbd9fd1b0	-0.078036666
8	0xbdfa84ee	-0.122323856
9	0x3ccc852a	0.024965841
10	0x3d49301d	0.04911815
11	0xbe5552ec	-0.20832413
12	0x3e99f844	0.30072224
13	0xbe52f080	-0.20599556
14	0x3d456b0b	0.048197787
15	0xbe9fbd2e	-0.3119902
16	0x3e07c164	0.13257366
17	0x3e7e42b0	0.24830127
18	0x3e9a1a44	0.30098164
19	0x3e181a65	0.14853819
20	0x3d4ec011	0.050476138
21	0x3d930df4	0.07180396
22	0x3eb7f9b8	0.35932708
23	0x3e5d3e25	0.21605738
24	0x3e7c0d9e	0.2461457
25	0xbc5b251a	-0.013375545
26	0xbda472d2	-0.08029713
27	0xbe016517	-0.12636219
28	0x3df3f40b	0.11911782
29	0xbda24931	-0.079241164
30	0x3e6fca2a	0.23416963
31	0xbe77fbaf	-0.24217103
32	0x3f577f1f	0.84178346
33	0x3d865690	0.06559479
34	0x3d569615	0.052389223
35	0xbd2f64b3	-0.042820644
36	0xbe996cff	-0.2996597
37	0x3d8ea348	0.06964737
38	0xbd754c29	-0.059887085
39	0x3d21be25	0.039487977
40	0xbd4dd263	-0.05024947
41	0xbe360f02	-0.17779163
42	0x3e2d3095	0.16913064
43	0x3e695716	0.22787127
44	0xbeebef74	-0.46081126
45	0xbe1c6e31	-0.1527641
46	0x3e8ba9bd	0.27277938
47	0x3e8b649d	0.272252
48	0xbe7c9178	-0.24664867
49	0xbe40a5b6	-0.18813214
50	0x3e342b34	0.17594606
51	0xbe0cd849	-0.13754381
52	0x3dabc53f	0.08387231
53	0xbb3d9700	-0.0028929114
54	0xbd9f67a8	-0.07783443
55	0x3ba29185	0.004961195
56	0xbe17e135	-0.14832003
57	0xbe87a90c	-0.2649616
58	0xbe72392a	-0.23654619
59	0xba552028	-0.0008130097
60	0x3d8ebedf	0.069699995
61	0xbe521e31	-0.2051933
62	0xbde905fe	-0.11378096
63	0x3dee663e	0.11640595
64	0xbe9b2ab7	-0.30306026
65	0x3e2ecba6	0.17069873
66	0x3e1fbb0d	0.15598698
67	0xbe431832	-0.19052199
68	0xbe0479b0	-0.12937045
69	0x3e3a021a	0.18164864
70	0xbd890a32	-0.06691398
71	0xbc30c3e4	-0.010788891
72	0x3da144d9	0.0787446
73	0xbe1e08fe	-0.15433118
74	0xbe5a6846	-0.2132884
75	0xbf0c681f	-0.54846376
76	0x3d9ddb56	0.07707851
77	0xbec1e533	-0.37870178
78	0x3de601dd	0.11230824
79	0xbef8ee24	-0.48619187
80	0x3c36ab28	0.011149205
81	0xbd7281ed	-0.059205938
82	0x3e3ad29b	0.18244402
83	0xbd680c2e	-0.05665224
84	0xbe77b5af	-0.241904
85	0x3da30c2f	0.07961308
86	0x3da71fbf	0.08160352
87	0x3ea535b2	0.3226753
88	0xbf1ee702	-0.6207124
89	0x3e44c54f	0.19215892
90	0xbe580793	-0.2109664
91	0xbb28e521	-0.0025771337
92	0xbea00a89	-0.31258038
93	0xbd9baee1	-0.07601715
94	0x3da25b64	0.07927588
95	0xbe1d07d0	-0.15335011
96	0xbe984256	-0.2973811
97	0xbe4e2864	-0.20132595
98	0xbe4bbe21	-0.19896747
99	0xbe128396	-0.14308009
100	0x3e541ddb	0.20714514
101	0xbd479e11	-0.04873473
102	0x3e30a62d	0.17250891
103	0x3eaf29a4	0.34211457
104	0xbe879e1e	-0.2648782
105	0xbe0e4790	-0.13894486
106	0x3dcb9672	0.099408045
107	0xbf017aa0	-0.50577736
108	0x3d6165bc	0.055028662
109	0xbe8a5ceb	-0.27024016
110	0x3c1690a9	0.009189763
111	0x3d57ae09	0.052656207
112	0x3e225bcd	0.15855332
113	0x3e8364d1	0.25662854
114	0xbe4354ae	-0.19075271
115	0xbdff04a6	-0.124520585
116	0xbe76b70d	-0.24093266
117	0x3db9e2cb	0.090764605
118	0xbf56e3df	-0.83941454
119	0x3da06d4d	0.078333475
120	0xbde65458	-0.11246556
121	0x3d683111	0.05668742
122	0x3d984cfc	0.074365586
123	0x3d50df18	0.05099401
124	0x3e42a564	0.19008404
125	0xbe01fb23	-0.12693457
126	0x3e1ac668	0.15114748
127	0xbf2746fb	-0.6534268
128	0x3e232426	0.15931758
129	0x3e40190b	0.18759553
130	0x3e31a6d0	0.1734879
131	0x3e380af7	0.17972933
132	0xbf18d758	-0.5970359
133	0xbef0fd00	-0.47068024
134	0x3ecff504	0.4061662
135	0xbe08a7d8	-0.13345277
136	0xbe900317	-0.28127357
137	0xbe0c77c3	-0.1371756
138	0x3e09713b	0.134221
139	0xbcc97ed7	-0.024596615
140	0xbe1e59ca	-0.1546394
141	0xbe7c7cda	-0.24657002
142	0xbdf01cf9	-0.11724276
143	0xbd62dbaf	-0.055385288
144	0xbe33fdb8	-0.17577255
145	0xbdfbd843	-0.12297108
146	0xbec7f00e	-0.39050335
147	0xbe7f2283	-0.24915509
148	0x3df4a805	0.1194611
149	0xbe968662	-0.293994
150	0xbd2dcd00	-0.04243183
151	0xbe9e8f48	-0.3096869
152	0x3e8cbddb	0.27488598
153	0xbf010cef	-0.5041036
154	0x3cd6281a	0.026142169
155	0xbe4e66d6	-0.20156416
156	0xbe0a467c	-0.1350345
157	0x3e06b5f2	0.13155344
158	0xbea103ec	-0.31448305
159	0xbeb6cba2	-0.35702235
160	0x3ca86663	0.020556634
161	0xbdac0e53	-0.0840117
162	0xbdfacf39	-0.12246556
163	0xbb4b2812	-0.0030999226
164	0xbdd71f05	-0.105039634
165	0xbd3a20f9	-0.0454416
166	0x3dd8b5f6	0.10581581
167	0x3e69c526	0.22829112
168	0x3e2eeb9e	0.17082068
169	0x3dc1117a	0.094271615
170	0xbdd156e8	-0.10221654
171	0xbe9d3462	-0.30704027
172	0xbd583b82	-0.052791126
173	0xbee37222	-0.44423014
174	0x3e242a25	0.16031702
175	0x3df5f48d	0.12009535
176	0xbebcb289	-0.36854962
177	0x3e8d9af4	0.27657282
178	0x3c4ef189	0.012630829
179	0xbe9aebb1	-0.30257943
180	0xbda45cdd	-0.08025525
181	0xbeacf905	-0.33783737
182	0xbe8da4fb	-0.27664933
183	0x3e595237	0.21222769
184	0x3e8f0978	0.27936912
185	0x3c526ff0	0.012844071
186	0xbecdedba	-0.40220433
187	0xbeb2666f	-0.34843776
188	0xbe1263df	-0.1429591
189	0x3e24e4d1	0.16102912
190	0x3df8f542	0.12156154
191	0x3d907bf9	0.07054896
192	0x3cc32e45	0.023825774
193	0x3ea7d977	0.327831
194	0x3b16227f	0.0022908745
195	0xbdedcbaa	-0.116111115
196	0x3ca253ac	0.019815288
197	0x3e518556	0.2046102
198	0xbe33df96	-0.1756576
199	0xbf3514e7	-0.7073502
200	0x3e967a8b	0.29390368
201	0xbf011b40	-0.50432205
202	0x3ebc1d62	0.36741167
203	0xbdf34a3d	-0.11879394
204	0xbe694cf4	-0.22783262
205	0x3e098e3d	0.13433166
206	0x3eab4466	0.3345062
207	0xbdaa5064	-0.083161145
208	0xbda21a65	-0.079151906
209	0x3cbff8db	0.023434093
210	0xbe06a775	-0.13149817
211	0x3e76071c	0.2402615
212	0xbdec4cdc	-0.11538097
213	0xbc2f7c94	-0.010710854
214	0x3ba23fd5	0.004951457
215	0x3e03055e	0.12795016
216	0xbe3d3f3f	-0.18481158
217	0x3df79b6e	0.12090193
218	0x3e5498c4	0.207614
219	0xbe129ee4	-0.14318424
220	0xbcfb86ef	-0.03070399
221	0x3e953e87	0.29149267
222	0x3e2e1d4c	0.17003363
223	0xbde0df34	-0.109800726
224	0x3e7647f7	0.2405089
225	0xbdbc292e	-0.09187542
226	0x3c917fae	0.017761078
227	0x3c43286a	0.011911491
228	0xbefecc25	-0.49765125
229	0xbc52e6ff	-0.012872457
230	0x3e317457	0.17329536
231	0x3d4402e5	0.047854323
232	0xbe285362	-0.16438058
233	0xbef1bf8a	-0.47216445
234	0x3dd7cfb1	0.10537661
235	0xbe621a6d	-0.22080393
236	0x3d85d9df	0.06535696
237	0x3edc28d9	0.42999914
238	0xbe10149f	-0.14070366
239	0x3e3b8c59	0.18315257
240	0xbd598dc8	-0.05311373
241	0xbe417fdb	-0.18896429
242	0x3d1661d8	0.036714405
243	0xbe5b6030	-0.21423411
244	0x3e298ace	0.16556856
245	0xbe3e1822	-0.18563893
246	0xbdc556b0	-0.09635675
247	0x3ac0521f	0.0014672911
248	0xbe5815c3	-0.21102051
249	0xbc4a24ab	-0.012337844
250	0x3dd19260	0.10232997
251	0xbd46ef89	-0.048568282
252	0x3c7a101e	0.015262632
253	0x3df5d753	0.120039605
254	0xbe6ec59b	-0.23317568
255	0x3dac7e44	0.08422521

layers.2.bias f4 [32]
0	0x3db42ff7	0.08798211
1	0xbdc92a95	-0.09822575
2	0xbdf3a560	-0.11896777
3	0xbe4aa045	-0.197877
4	0x3e6706a1	0.22561122
5	0x3e031cd0	0.1280396
6	0x3e38a815	0.18032868
7	0x3d8dc121	0.06921602
8	0xbd2cf7c7	-0.042228486
9	0xbd8a80d9	-0.06762857
10	0x3e104863	0.14090113
11	0x3d729d98	0.059232324
12	0xbe3e8fca	-0.18609539
13	0x3c16fecf	0.009216025
14	0x3cb4ed68	0.02208586
15	0xbe817cd0	-0.25290537
16	0xbe075e20	-0.132195
17	0xbe8df6af	-0.27727267
18	0xbca2372b	-0.019801697
19	0xbe9f5455	-0.31119028
20	0xbe809f54	-0.25121558
21	0xbdae872c	-0.08521876
22	0x3defe6f3	0.11713972
23	0x3e9acf6b	0.30236372
24	0xbe1dd30c	-0.15412539
25	0x3e000241	0.1250086
26	0xbdd365d8	-0.103221595
27	0xbd56fe2f	-0.052488502
28	0x3ddd86c3	0.108167194
29	0xbd579efe	-0.05264186
30	0xbe424592	-0.18971851
31	0x3e30e4ca	0.17274776

layers.4.weight f4 [20, 32]
0	0x3e1eeb49	0.15519442
1	0x3e1aad78	0.15105236
2	0xbee00fe3	-0.4376212
3	0xbd83e648	-0.06440407
4	0xbf0cf245	-0.55057174
5	0x3e06f6c0	0.13180065
6	0xbb668d64	-0.003517949
7	0xbda42d20	-0.080164194
8	0xbe88c4e1	-0.26712707
9	0xbe3b1be1	-0.18272354
10	0xbe026ce4	-0.12736851
11	0xbe19d8ad	-0.15024062
12	0x3eb330c3	0.3499814
13	0x3d46c14c	0.048524186
14	0xbe67b4c6	-0.22627553
15	0xbe50783b	-0.20358364
16	0x3e597dd2	0.21239403
17	0xbde789aa	-0.11305554
18	0x3eaa357a	0.33243924
19	0x3ec8c138	0.39209914
20	0x3c822030	0.015884489
21	0x3e655d22	0.22398809
22	0xbda5095a	-0.08058424
23	0xbde533a8	-0.11191493
24	0xbe1bcf0a	-0.15215698
25	0x3c4dbcd7	0.01255723
26	0x3eb33f7b	0.3500937
27	0xbe8aea2c	-0.27131784
28	0xbe2eda78	-0.17075527
29	0x3e8cc7e2	0.27496248
30	0xbe42006e	-0.18945476
31	0xbdd53472	-0.10410394
32	0xbd440488	-0.047855884
33	0x3e052cb5	0.13005336
34	0xbeb92468	-0.36160588
35	0xbcf0b0ca	-0.029381175
36	0xbea63dfa	-0.3246916
37	0x3e94261f	0.28935334
38	0xbe3f37d0	-0.18673635
39	0xbc483237	-0.012219003
40	0xbda9ada3	-0.08285072
41	0x3d734228	0.059389263
42	0xbc9d18da	-0.01917689
43	0xbe93b67e	-0.28850168
44	0x3f345159	0.70436627
45	0xbdbc3d23	-0.091913484
46	0xbdb8c940	-0.090227604
47	0xbe2bc9d2	-0.16776207
48	0x3e852225	0.26002613
49	0xbe0cebfb	-0.13761894
50	0x3da38ad6	0.07985465
51	0x3e00e8bd	0.12588783
52	0xbcd930f8	-0.026512608
53	0x3ebc4e9d	0.36778727
54	0x3e754ba5	0.23954637
55	0xbe188fd7	-0.1489862
56	0x3e289ea3	0.16466765
57	0xbd36d87e	-0.044640057
58	0x3e51e1d6	0.20496306
59	0xbe11cb55	-0.14237721
60	0xbea49be0	-0.32150173
61	0x3c4f64ff	0.012658357
62	0xbedeccaa	-0.4351552
63	0x3e0cdd89	0.13756384
64	0xbce2259c	-0.027605824
65	0x3e3415be	0.17586419
66	0xbe7cb788	-0.24679387
67	0x3d1cefc6	0.038314603
68	0xbebe7b24	-0.37203324
69	0x3ea0c433	0.31399688
70	0xbefb43db	-0.49075207
71	0x3aa004e5	0.001220849
72	0xbe10a865	-0.14126737
73	0x3e556083	0.20837598
74	0x3e03adb7	0.12859236
75	0xbe4953b8	-0.19660842
76	0x3e801928	0.25019193
77	0xbddea609	-0.108715124
78	0xbea5f180	-0.32410812
79	0xbe25a25e	-0.1617522
80	0x3ccfd5b1	0.02537045
81	0xbe45e447	-0.19325362
82	0xbe17f753	-0.1484044
83	0x3e3810c5	0.17975147
84	0xbd58eddb	-0.05296121
85	0x3ea97a89	0.331013
86	0x3cdc4077	0.026886208
87	0x3d49074f	0.049079236
88	0x3ec40b52	0.38289887
89	0xbe542a18	-0.20719182
90	0x3eaa8ae7	0.333091
91	0xbde8f3d6	-0.11374633
92	0xbe15275e	-0.14565799
93	0xbc265ddb	-0.010154213
94	0xbe175d25	-0.14781626
95	0x3d3e3388	0.046435863
96	0xbab56503	-0.0013839308
97	0x3ded210e	0.1157857
98	0xbe442c82	-0.19157603
99	0xbe1ae5da	-0.15126744
100	0xbc66dd9b	-0.014090921
101	0x3ce9bf3d	0.028533572
102	0xbdae024c	-0.08496532
103	0x3c5aefd6	0.013362845
104	0xbe7ed2a5	-0.24885042
105	0xbf17eaa2	-0.59342396
106	0x3d1eeac2	0.0387981
107	0x3da73f71	0.08166397
108	0x3ebc2e56	0.36754102
109	0xbd8e0e11	-0.06936277
110	0x3d4bf575	0.049794633
111	0xbe097895	-0.13424905
112	0x3e0b4ea5	0.1360422
113	0x3e067d72	0.13133791
114	0x3dd92427	0.10602599
115	0x3ea0ab78	0.3138082
116	0x3e7d671a	0.24746361
117	0x3d959fe1	0.07305885
118	0x3d5db039	0.054123137
119	0xbc9ba8ad	-0.01900133
120	0xbd8e2b80	-0.06941891
121	0xbd913bb3	-0.07091465
122	0x3e5ba99b	0.21451418
123	0xbe08e5b4	-0.13368875
124	0x3e98fc6d	0.29880086
125	0x3e1e78b0	0.15475726
126	0x3d9c2be9	0.07625563
127	0xbb73ddc0	-0.003721103
128	0xbc0b3191	-0.008495704
129	0x3e2bfc85	0.16795547
130	0xbe5711bf	-0.21002863
131	0x3d0cb915	0.034356195
132	0xbe45bf54	-0.19311267
133	0xbc012343	-0.007881942
134	0xbea55fb9	-0.32299593
135	0x3e1b5b5c	0.1517157
136	0xbe408a29	-0.18802704
137	0x3eb32a70	0.34993315
138	0xbcb34e28	-0.021887854
139	0xbdd70e1d	-0.10500739
140	0x3e879891	0.26483586
141	0x3d47bed6	0.04876598
142	0xbe232d0a	-0.1593515
143	0xbddf1c1c	-0.10894033
144	0xbd097276	-0.033556424
145	0xbe6c32c3	-0.23066239
146	0xbc8053b0	-0.015664905
147	0x3e208027	0.15673886
148	0xbd9f8b2c	-0.07790217
149	0xbd55def9	-0.052214596
150	0x3d848126	0.064699456
151	0xbe1ee524	-0.15517098
152	0x3e9c2712	0.30498558
153	0xbd453270	-0.048143804
154	0xbdcd1f31	-0.10015715
155	0xbe59fb48	-0.21287262
156	0xbd609e7a	-0.054838635
157	0xbf020b62	-0.5079862
158	0x3c823b1b	0.015897324
159	0xbe33a683	-0.17543988
160	0x3e1e4f7a	0.15460005
161	0x3e1a439b	0.15064852
162	0xbe0661f3	-0.13123302
163	0xbd832b8b	-0.064047895
164	0xbe138fcf	-0.14410327
165	0x3dc4fd4e	0.096186265
166	0xbe15e12e	-0.1463668
167	0xbdbab6c2	-0.091168895
168	0xbd0dea73	-0.034647416
169	0x3e8615e6	0.26188582
170	0x3d79f594	0.061025217
171	0xbde06efe	-0.1095867
172	0x3d13e12c	0.036103413
173	0x3e1f50d8	0.15558183
174	0x3dbb7ca9	0.091546364
175	0x3c4792ed	0.012181026
176	0x3ce38e3c	0.027777784
177	0xbe6e2020	-0.23254442
178	0x3db7a18d	0.0896636
179	0x3dc0a250	0.09405959
180	0xbe298f31	-0.1655853
181	0x3e0d4d82	0.13799098
182	0xbd859b40	-0.06523752
183	0x3d21489e	0.039375894
184	0xbeb82b30	-0.3597045
185	0x3db1c5b7	0.08680289
186	0x3b9ad362	0.004724906
187	0xbe0e95cc	-0.1392433
188	0xbd6a42ec	-0.057192728
189	0x3e1044cf	0.14088748
190	0xbbbbe994	-0.005734632
191	0x3ddeb9f2	0.1087531
192	0x3dab7afc	0.08373067
193	0x3dd0ccdb	0.10195323
194	0xbd972600	-0.07380295
195	0xbe0e97d7	-0.1392511
196	0x3dbac2eb	0.09119209
197	0xbce5b3f6	-0.028039914
198	0xbe945d76	-0.28977555
199	0x3de30cbc	0.11086413
200	0xbd8e157b	-0.06937691
201	0x3e051883	0.12997632
202	0x3ddd690f	0.10811054
203	0x3df4c7bf	0.11952161
204	0x3d7b44d7	0.061344948
205	0x3d72421b	0.059145074
206	0xbccaf6d2	-0.024775896
207	0x3dfcc1d7	0.123416595
208	0xbdce08fd	-0.10060308
209	0xbe3b2133	-0.18274383
210	0xbe85bb77	-0.26119587
211	0xbb87ea66	-0.0041478155
212	0xbd82d146	-0.06387572
213	0xbec2f9d3	-0.38081226
214	0xbda4eb93	-0.08052745
215	0x3d385815	0.045005877
216	0xbda875f2	-0.08225621
217	0x3d2829a7	0.041055348
218	0x3e0b7263	0.13617854
219	0xbe546254	-0.20740634
220	0x3d65aa32	0.056070514
221	0x3e1aab4b	0.15104406
222	0x3dd9fd21	0.10643984
223	0x3d18de18	0.03732118
224	0x3c357761	0.011075825
225	0x3ccc631d	0.024949605
226	0x3cc47719	0.023982571
227	0x3e0c571a	0.13705102
228	0xbcb59fc7	-0.022170914
229	0x3dae566a	0.08512576
230	0xbee32788	-0.44366097
231	0xbde44b23	-0.11147144
232	0x3da184a7	0.078866296
233	0xbea01310	-0.31264544
234	0xbc8f7b98	-0.017514989
235	0xbd9d3433	-0.07675972
236	0x3ddb6fc8	0.1071468
237	0xbe8aa293	-0.2707716
238	0x3e0366aa	0.12832132
239	0xbe029323	-0.1275144
240	0xbddf32d0	-0.108983636
241	0x3dbe7c28	0.09301025
242	0xbdbb343d	-0.09140823
243	0x3ea874be	0.32901567
244	0x3dbbd74f	0.09171926
245	0xbd490c43	-0.04908396
246	0x3e490e4b	0.19634359
247	0xbd77af97	-0.06047019
248	0xbe8becb5	-0.2732903
249	0xbd579a55	-0.052637417
250	0x3df72b50	0.12068808
251	0x3ca392f9	0.019967543
252	0x3b9590af	0.004564367
253	0xbe9ab1d3	-0.30213794
254	0xbe329550	-0.1743977
255	0xbe1b7c05	-0.15184028

layers.4.bias f4 [20]
0	0x3d7bf9c1	0.06151748
1	0x3d47134a	0.04860238
2	0x3ddf2a37	0.10896724
3	0xbdb6c108	-0.089235365
4	0x3dfb4fd7	0.122710876
5	0xbd6344df	-0.055485602
6	0x3bc546ac	0.0060203876
7	0x3d9b263a	0.075756505
8	0x3d608a3b	0.054819327
9	0xbd81646a	-0.063179806
10	0x3cda5dca	0.02665605
11	0x3c08a7f8	0.008340828
12	0xbcecae58	-0.028891727
13	0xbc824101	-0.015900137
14	0xbb852dff	-0.004064321
15	0x3d859585	0.06522659
16	0xbd7e8785	-0.06214096
17	0x3d2acbbe	0.04169821
18	0x3cbc180b	0.022960683
19	0xbd13b453	-0.036060642
