data/models/test_dc9_only_20_bins/checkpoints/epoch_210.pt (torch, 8301 bytes, 6 tensors)

layers.0.weight f4 [16, 4]
000000 03 db 51 be 96 eb 91 3d 76 c9 94 bb b6 27 21 3f
       -0.20493703 0.071250126 -0.0045406176 0.6295122
000010 05 96 eb be f2 6f 08 bf 32 9d 70 be 9b a5 36 be
       -0.46012893 -0.53295815 -0.23497465 -0.17836611
000020 bf cf 0c bf 69 0e ba be 12 54 3e 3d 7d 16 4d 3c
       -0.55004495 -0.3633912 0.046466894 0.012517569
000030 17 9e 84 3e 77 9b 60 be af 27 8d be 85 fa c1 3e
       0.25901863 -0.21934305 -0.2756934 0.37886444
000040 cc 04 e3 be 07 08 83 be 08 de b0 3e b0 e5 81 be
       -0.44339597 -0.25592062 0.34544396 -0.2537055
000050 5d 8f fe 3e 68 e2 1a 3f a3 03 cc be 93 2d 4e bc
       0.49718753 0.6050172 -0.39846525 -0.012584108
000060 26 6f b6 3e 74 f5 e9 be 20 11 f2 be 50 4e d8 bc
       0.35631675 -0.45695078 -0.4727869 -0.02640453
000070 44 37 03 bf 9b 90 4c 3e e9 43 f8 be 74 77 2e bc
       -0.51256204 0.19977038 -0.4848931 -0.010648597
000080 3f 85 41 3e a4 38 98 be 01 ae 72 3e e6 e7 94 be
       0.18898486 -0.29730713 0.2369919 -0.29083174
000090 a5 9b f7 be 73 17 5c be fb 92 1c 3f ce 5d 49 3e
       -0.48360935 -0.2149332 0.61161774 0.1966469
0000a0 c5 18 7a bd 7b f4 ca be 34 55 8c be a3 96 e1 3e
       -0.06105878 -0.3963965 -0.27408755 0.4406024
0000b0 f5 53 d0 be cb 37 95 be cb 46 39 bf 5b e6 ca be
       -0.40689054 -0.2914413 -0.72373646 -0.39628872
0000c0 c5 12 cc be c0 b8 00 3c 1b da 11 3f af 27 93 3e
       -0.3985807 0.007856548 0.5697343 0.28741214
0000d0 ef 85 c8 3e 36 30 e9 3e 77 6d d1 3e 7f 40 e3 be
       0.39164683 0.45544595 0.40903828 -0.44385144
0000e0 2f c9 c0 be 9c 50 9a be 61 e1 47 3b 7f 97 73 3d
       -0.3765349 -0.30139625 0.0030499327 0.05947065
0000f0 a2 5a a8 bd ab 7f 14 3e 7e d4 df be a6 1c 32 bf
       -0.08220412 0.14501826 -0.43716806 -0.69574964

layers.0.bias f4 [16]
000000 11 16 c8 be 57 36 02 3e 11 59 13 3e a5 57 c5 3e
       -0.39079335 0.12716042 0.14389445 0.3854343
000010 79 db b2 3c f8 63 83 be 7a d1 48 bd d8 59 7d 3e
       0.021833168 -0.25662208 -0.049027897 0.24741304
000020 74 10 f2 3e 2c 19 e2 be b6 87 c3 bd 16 08 1e 3d
       0.47278178 -0.4415983 -0.09547369 0.03858193
000030 5d eb 11 3f c1 20 88 be 74 fe 7a 3e 6e d1 c5 be
       0.5699976 -0.2658749 0.24511129 -0.38636345

layers.2.weight f4 [32, 16]
000000 23 d8 d8 bd f8 1d 1d 3e 71 25 be bc 20 a6 aa be
       -0.105881 0.15343463 -0.023211213 -0.33329868
000010 62 c3 96 3e d8 7d c5 be d8 c4 3b 3c 63 ed 9f bd
       0.2944594 -0.38572574 0.011460505 -0.0780895
000020 10 a8 fa bd 10 f0 cb 3c 2b 97 49 3d 39 55 55 be
       -0.12239087 0.024894744 0.04921643 -0.20833291
000030 ab f4 99 3e f0 da 52 be f7 a4 45 3d eb 8c 9f be
       0.3006948 -0.2059133 0.048253026 -0.311622
000040 3c b4 07 3e 80 4e 7e 3e f4 14 9a 3e de 02 18 3e
       0.13252348 0.24834633 0.3009411 0.14844844
000050 5b 8e 4e 3d 04 eb 92 3d 10 f5 b7 3e 7b 14 5d 3e
       0.05042873 0.07173732 0.35929155 0.21589844
000060 8d 0e 7c 3e 38 b2 59 bc 72 ae a4 bd 4b 58 01 be
       0.24614926 -0.01328712 -0.08041085 -0.12631337
000070 16 dc f3 3d 7e 43 a2 bd a2 ca 6f 3e 48 c6 77 be
       0.119072124 -0.07923029 0.23417142 -0.24196732
000080 06 79 57 3f 1a 11 86 3d dd 2d 56 3d 30 6b 2f bd
       0.8416904 0.065462306 0.052289832 -0.04282683
000090 bd 62 99 be e0 a2 8e 3d 07 2f 75 bd 87 96 22 3d
       -0.29958144 0.0696466 -0.059859302 0.039694335
0000a0 b0 c9 4d bd f4 89 35 be 6d 4d 2d 3e 18 5b 69 3e
       -0.050241172 -0.17728406 0.16924067 0.22788656
0000b0 f2 e8 eb be 0f 41 1c be 37 a0 8b 3e 14 67 8b 3e
       -0.4607616 -0.15259193 0.27270672 0.2722708
0000c0 78 91 7c be b6 a5 40 be 34 2b 34 3e 49 d8 0c be
       -0.24664867 -0.18813214 0.17594606 -0.13754381
0000d0 3f c5 ab 3d 00 97 3d bb a8 67 9f bd 85 91 a2 3b
       0.08387231 -0.0028929114 -0.07783443 0.004961195
0000e0 35 e1 17 be 0c a9 87 be 2a 39 72 be 28 20 55 ba
       -0.14832003 -0.2649616 -0.23654619 -0.0008130097
0000f0 df be 8e 3d 31 1e 52 be fe 05 e9 bd 3e 66 ee 3d
       0.069699995 -0.2051933 -0.11378096 0.11640595
000100 0e 2d 9b be bb a5 2e 3e f3 bc 1f 3e 8a 05 43 be
       -0.30307811 0.17055409 0.15599422 -0.19045082
000110 09 66 04 be bf d6 39 3e 96 32 89 bd 7e 28 32 bc
       -0.12929548 0.18148325 -0.066991016 -0.010873912
000120 10 06 a1 3d b5 04 1e be a6 47 5a be d9 61 0c bf
       0.078624845 -0.15431483 -0.21316394 -0.54836804
000130 f2 12 9e 3d 25 f2 c1 be 49 ed e5 3d ac 8d f8 be
       0.07718457 -0.37880054 0.11226899 -0.48545587
000140 de 9a 35 3c 0e 31 72 bd c5 b5 3a 3e 8f b3 67 bd
       0.0110842865 -0.059128813 0.18233402 -0.056567725
000150 0f 2e 78 be 3a 0d a3 3d 03 a0 a6 3d c6 1d a5 3e
       -0.2423632 0.07961507 0.081359886 0.32249278
000160 81 d9 1e bf 0d 8a 43 3e ea 15 58 be 79 d4 26 bb
       -0.62050635 0.19095631 -0.2110211 -0.0025456233
000170 12 14 a0 be 09 90 9b bd ba 42 a2 3d 9c fb 1c be
       -0.31265312 -0.07595832 0.07922883 -0.15330356
000180 2c 2e 98 be c8 c6 4d be 3f b2 4b be c5 8a 12 be
       -0.29722726 -0.2009536 -0.19892214 -0.14310749
000190 76 00 54 3e ab 4d 47 bd 89 94 30 3e 34 1b af 3e
       0.20703301 -0.048658054 0.17244162 0.34200442
0001a0 ec 91 87 be da 2d 0e be a1 af cb 3d c8 69 01 bf
       -0.26478517 -0.13884678 0.09945608 -0.50552034
0001b0 41 1e 61 3d 5f 41 8a be 75 42 13 3c 59 6b 57 3d
       0.054960493 -0.27003 0.008988013 0.05259261
0001c0 56 18 22 3e 72 56 83 3e 0a 62 43 be 1a d5 fe bd
       0.15829596 0.2565189 -0.19080368 -0.1244299
0001d0 97 d7 76 be 30 aa b9 3d b4 ac 56 bf 7f 51 a0 3d
       -0.24105678 0.09065664 -0.83857274 0.07828044
0001e0 57 89 e6 bd 2c 83 68 3d de 31 98 3d 94 a0 50 3d
       -0.11256664 0.05676572 0.074313864 0.05093439
0001f0 1f a7 42 3e 3f d4 01 be 1b ce 1a 3e 20 27 27 bf
       0.19009064 -0.12678622 0.15117685 -0.65294075
000200 ec 22 23 3e 35 f4 3f 3e ef 7a 31 3e 84 06 38 3e
       0.1593129 0.18745501 0.17332052 0.17971236
000210 ed c4 18 bf fc f9 f0 be 2a e9 cf 3e b8 7d 08 be
       -0.59675485 -0.47065723 0.40607578 -0.13329208
000220 12 f4 8f be 1b 16 0c be fa 5f 09 3e 8e 6e c9 bc
       -0.28115898 -0.13680308 0.13415518 -0.02458885
000230 eb 5b 1e be 3c f6 7b be d9 4f f0 bd b4 5f 63 bd
       -0.15464751 -0.2460565 -0.1173398 -0.05551119
000240 b8 fd 33 be aa 66 fb bd 2e d2 c7 be 88 da 7e be
       -0.17577255 -0.12275441 -0.39027542 -0.2488805
000250 97 51 f4 3d 47 53 96 be 03 bf 2e bd f3 a1 9e be
       0.119296245 -0.2936041 -0.04266263 -0.30982932
000260 1b c0 8c 3e 5f d7 00 bf 8f c6 d5 3c f8 d0 4d be
       0.27490315 -0.5032863 0.026095657 -0.20099247
000270 dd 5f 0a be 73 88 06 3e 16 d7 a0 be c5 b6 b6 be
       -0.13513131 0.13137989 -0.31414098 -0.35686317
000280 92 ab a7 3c 96 2e ac bd 00 a6 fa bd f5 c6 43 bb
       0.020467553 -0.08407323 -0.12238693 -0.0029873226
000290 bc 0d d7 bd ad cd 39 bd c1 66 d8 3d 7e ad 69 3e
       -0.105006665 -0.045362163 0.10566474 0.22820088
0002a0 8c d8 2e 3e 94 ee c0 3d d8 2e d1 bd ea 1b 9d be
       0.17074794 0.09420505 -0.10214013 -0.3068536
0002b0 6f fa 57 bd fa 5f e3 be c4 2a 24 3e 59 2b f6 3d
       -0.052729066 -0.44409162 0.16031939 0.12019987
0002c0 3a dc bc be 70 8c 8d 3e 1c 5e 4f 3c a9 d9 9a be
       -0.3688677 0.27646208 0.012656715 -0.30244187
0002d0 b5 43 a4 bd 5a f2 ac be aa c2 8d be 0a 71 59 3e
       -0.080207266 -0.3377865 -0.2768758 0.21234527
0002e0 1b 09 8f 3e 9b f1 54 3c 02 a2 cd be 58 5d b2 be
       0.27936634 0.012997056 -0.40162665 -0.3483684
0002f0 bc 46 12 be 94 de 24 3e 39 e7 f8 3d 07 2b 90 3d
       -0.14284796 0.16100532 0.12153477 0.07039457
000300 de c9 c2 3c 3a d6 a7 3e bc 1f 13 3b 4f 9e ed bd
       0.023777898 0.3278063 0.0022449335 -0.116024606
000310 c1 e1 a1 3c 80 77 51 3e 5f bc 33 be 33 07 35 bf
       0.019760968 0.20455742 -0.17552327 -0.7071411
000320 24 71 96 3e a4 0f 01 bf b3 0e bc 3e b4 5a f3 bd
       0.29383194 -0.5041449 0.36729965 -0.118825346
000330 22 43 69 be 91 99 09 3e 18 40 ab 3e 68 eb a9 bd
       -0.22779515 0.13437487 0.33447337 -0.08296853
000340 2e 33 a2 bd 7c 62 bf 3c 3f a8 06 be e3 24 76 3e
       -0.07919918 0.02336239 -0.13150118 0.24037509
000350 13 18 ec bd 32 8b 2e bc b8 a6 a2 3b e4 15 03 3e
       -0.11528029 -0.010653304 0.004963722 0.1280132
000360 86 34 3d be 3c d2 f7 3d c9 9b 54 3e 8e a6 12 be
       -0.18477067 0.12100646 0.20762552 -0.14321348
000370 23 54 fb bc 0c 22 95 3e 68 13 2e 3e 9c da e0 bd
       -0.030679768 0.29127538 0.1699959 -0.109791964
000380 2d 1a 76 3e d0 2c bc bd 9e da 92 3c 7b 7c 45 3c
       0.24033423 -0.09188235 0.01792651 0.012053604
000390 b7 ad fe be 03 70 4f bc 02 7d 31 3e f8 6e 44 3d
       -0.4974191 -0.012660983 0.17332843 0.04795739
0003a0 79 65 28 be 32 77 f1 be fe ef d7 3d 7a 44 62 be
       -0.16444959 -0.4716125 0.10543822 -0.22096434
0003b0 c2 a8 85 3d d2 11 dc 3e 64 fe 0f be 43 96 3b 3e
       0.065263286 0.42982346 -0.14061886 0.18319039
0003c0 c8 8d 59 bd db 7f 41 be d8 61 16 3d 30 60 5b be
       -0.05311373 -0.18896429 0.036714405 -0.21423411
0003d0 ce 8a 29 3e 22 18 3e be b0 56 c5 bd 1f 52 c0 3a
       0.16556856 -0.18563893 -0.09635675 0.0014672911
0003e0 c3 15 58 be ab 24 4a bc 60 92 d1 3d 89 ef 46 bd
       -0.21102051 -0.012337844 0.10232997 -0.048568282
0003f0 1e 10 7a 3c 53 d7 f5 3d 9b c5 6e be 44 7e ac 3d
       0.015262632 0.120039605 -0.23317568 0.08422521

layers.2.bias f4 [32]
000000 3f 0e b4 3d 1d 29 c9 bd 68 c9 f3 bd 45 a0 4a be
       0.0879178 -0.09822295 -0.119036496 -0.197877
000010 85 f6 66 3e 57 24 03 3e d7 a0 38 3e 78 8f 8d 3d
       0.22554977 0.12806831 0.18030106 0.0691213
000020 3c ad 2c bd 70 74 8a bd 15 38 10 3e 96 50 72 3d
       -0.042157397 -0.0676049 0.14083894 0.059158884
000030 db 91 3e be 53 98 16 3c fb 91 b4 3c d0 7c 81 be
       -0.18610327 0.00919159 0.022042265 -0.25290537
000040 79 61 07 be 7f f0 8d be a5 38 a2 bc 86 4b 9f be
       -0.13220777 -0.27722546 -0.0198024 -0.31112307
000050 fe 96 80 be e8 81 ae bd 73 fa ef 3d f4 c7 9a 3e
       -0.25115198 -0.085208714 0.11717691 0.30230677
000060 09 c3 1d be da fc ff 3d 6e 32 d3 bd 10 77 56 bd
       -0.15406431 0.124993995 -0.10312353 -0.05235964
000070 8f 95 dd 3d a3 b4 57 bd 4e 18 42 be ca e4 30 3e
       0.10819542 -0.052662503 -0.18954584 0.17274776

layers.4.weight f4 [20, 32]
000000 50 d5 1e 3e 15 a6 1a 3e ba 0a e0 be 48 e6 83 bd
       0.1551106 0.15102418 -0.43758184 -0.06440407
000010 25 d6 0c bf 27 c6 06 3e 39 01 54 bb 1d c6 a3 bd
       -0.5501426 0.13161527 -0.0032349362 -0.079967715
000020 35 9e 88 be ed 03 3b be e6 4f 02 be 66 e1 19 be
       -0.26683202 -0.18263216 -0.12725791 -0.15027389
000030 c2 13 b3 3e 3b 3e 46 3d 5e ba 67 be 3b 78 50 be
       0.34976012 0.04839919 -0.22629687 -0.20358364
000040 67 82 59 3e fb 0f e7 bd 16 25 aa 3e 05 c9 c8 3e
       0.21241151 -0.11282345 0.3323142 0.39215866
000050 e3 1e 81 3c 43 7b 65 3e 67 05 a5 bd 5a 37 e5 bd
       0.015761798 0.22410302 -0.08057671 -0.11192198
000060 61 15 1b be ff 31 4b 3c d4 40 b3 3e 3c f6 8a be
       -0.15144874 0.012402057 0.35010397 -0.27140987
000070 a4 6c 2e be c4 c8 8c 3e aa d4 41 be 72 34 d5 bd
       -0.1703363 0.27496922 -0.18928781 -0.10410394
000080 bb 9c 43 bd 41 28 05 3e c3 2d b9 be ca b0 f0 bc
       -0.04775689 0.13003637 -0.36167726 -0.029381175
000090 c1 28 a6 be 48 13 94 3e 28 2c 3f be ed 00 45 bc
       -0.32452968 0.2892096 -0.18669188 -0.0120241465
0000a0 4e 97 a9 bd 5e 7a 72 3d 20 b6 9c bc a8 9b 93 be
       -0.08280812 0.05919873 -0.019129813 -0.28829694
0000b0 7d 47 34 3f 58 12 bc bd e1 ab b8 bd d2 c9 2b be
       0.7042158 -0.09183186 -0.09017158 -0.16776207
0000c0 46 20 85 3e b2 e4 0c be 0a 73 a3 3d 98 ce 00 3e
       0.26001185 -0.13759115 0.07980926 0.1257881
0000d0 49 b9 d8 bc 05 42 bc 3e 3a 7f 75 3e 11 86 18 be
       -0.026455538 0.3676912 0.23974314 -0.14894892
0000e0 28 40 28 3e b9 c2 36 bd f4 ca 51 3e 99 f7 11 be
       0.16430724 -0.044619296 0.20487577 -0.14254607
0000f0 8c 7d a4 be 96 05 4e 3c fe 8e de be 89 dd 0c 3e
       -0.32127035 0.012574574 -0.4346847 0.13756384
000100 27 b3 e1 bc 8b 1d 34 3e c2 c2 7c be c6 ef 1c 3d
       -0.027551247 0.17589395 -0.24683669 0.038314603
000110 20 68 be be b5 be a0 3e 73 34 fb be 8c d5 a8 3a
       -0.37188816 0.31395498 -0.49063453 0.0012881025
000120 73 7d 10 be 31 39 55 3e 58 8f 03 3e 56 5c 49 be
       -0.14110355 0.20822598 0.1284765 -0.1966413
000130 04 0b 80 3e 99 8e de bd b7 ef a5 be 5e a2 25 be
       0.25008404 -0.10867042 -0.3240945 -0.1617522
000140 3a b4 cf 3c 98 ca 45 be df 11 18 be f9 df 37 3e
       0.025354493 -0.19315565 -0.14850567 0.17956533
000150 4a 35 58 bd 26 81 a9 3e 40 b4 dd 3c ac cf 48 3d
       -0.052785195 0.33106345 0.027063489 0.049026176
000160 e1 f0 c3 3e 9b 24 54 be 64 7b aa 3e 93 33 e9 bd
       0.38269714 -0.20717089 0.33297265 -0.1138679
000170 7d d2 14 be 54 b9 27 bc 57 45 17 be 88 33 3e 3d
       -0.1453342 -0.010237057 -0.14772545 0.046435863
000180 90 ee c1 ba b2 64 ed 3d 45 34 44 be da e5 1a be
       -0.0014795829 0.11591472 -0.19160564 -0.15126744
000190 eb d4 67 bc ef de e9 3c 5d 7e ad bd 22 ed 5a 3c
       -0.014149885 0.028548686 -0.084713675 0.013362201
0001a0 cc db 7e be bf ca 17 bf 39 38 1f 3d ec ee a6 3d
       -0.24888533 -0.5929374 0.038871977 0.081510395
0001b0 d5 00 bc 3e c2 14 8e bd e0 23 4c 3d 95 78 09 be
       0.36719385 -0.06937553 0.0498389 -0.13424905
0001c0 06 5d 0b 3e 64 75 06 3e 78 a9 d8 3d 86 b8 a0 3e
       0.13609704 0.13130718 0.105791986 0.3139078
0001d0 8c 15 7d 3e b4 f6 95 3d 6f 00 5d 3d f1 4c 9b bc
       0.2471525 0.073224455 0.05395549 -0.018957587
0001e0 66 e5 8d bd 23 3e 91 bd 4e a3 5b 3e 16 d3 08 be
       -0.0692852 -0.0709193 0.21449015 -0.13361773
0001f0 7d d5 98 3e c3 4b 1e 3e 7b 68 9c 3d c0 dd 73 bb
       0.2985038 0.15458588 0.076371156 -0.003721103
000200 5a 5a 0b bc 89 fa 2b 3e 68 39 57 be 15 b9 0c 3d
       -0.008505428 0.1679479 -0.21017992 0.034356195
000210 93 f6 45 be 56 c9 fe bb 59 2c a5 be 0b 5a 1b 3e
       -0.19332342 -0.007775466 -0.32260397 0.15171067
000220 97 a0 40 be a1 e4 b2 3e 30 21 b3 bc fc be d6 bd
       -0.1881126 0.34940055 -0.021866411 -0.10485646
000230 58 6f 87 3e 5a c2 47 3d 37 0c 23 be 1c 1c df bd
       0.26452136 0.048769332 -0.15922628 -0.10894033
000240 7f 63 09 bd 6c fc 6b be d7 a9 7f bc 32 39 20 3e
       -0.033542152 -0.2304551 -0.015604458 0.15646818
000250 ce 87 9f bd e5 6e 55 bd 4f de 84 3d 62 d8 1e be
       -0.077895746 -0.05210771 0.064877145 -0.15512231
000260 f8 1a 9c 3e f1 02 45 bd 35 34 cd bd 32 e7 59 be
       0.30489326 -0.04809851 -0.10019723 -0.212796
000270 2f c8 61 bd 7b fc 01 bf bb 94 82 3c 83 a6 33 be
       -0.05512255 -0.5077588 0.01594006 -0.17543988
000280 2c 30 1e 3e 59 39 1a 3e 29 6d 06 be 8b 2b 83 bd
       0.15448064 0.15060939 -0.13127579 -0.064047895
000290 70 98 13 be ac bf c4 3d 2c ea 15 be 39 95 ba bd
       -0.14413619 0.09606871 -0.1464011 -0.09110493
0002a0 e2 e7 0d bd ea 18 86 3e 74 6b 7a 3d ad 14 e0 bd
       -0.03464497 0.26190883 0.06113763 -0.109414436
0002b0 ab 9f 13 3d 48 5b 1f 3e 87 58 bb 3d ed 92 47 3c
       0.036040943 0.15562165 0.091477446 0.012181026
0002c0 5e 61 e3 3c 6b 0d 6e be cd 99 b7 3d 7e d2 c0 3d
       0.02775639 -0.23247306 0.08964882 0.09415148
0002d0 7d 6a 29 be a9 41 0d 3e 29 57 85 bd 2c 85 21 3d
       -0.16544528 0.13794579 -0.06510765 0.039433643
0002e0 ce 02 b8 be 3b ca b1 3d 0a f5 9c 3b 1b 78 0e be
       -0.3593964 0.086811505 0.004789953 -0.13913004
0002f0 a2 94 68 bd 06 4a 10 3e 40 a9 b9 bb f2 b9 de 3d
       -0.056782372 0.14090738 -0.005665928 0.1087531
000300 6b 51 ab 3d 75 e5 d0 3d a5 26 97 bd d7 97 0e be
       0.083651386 0.102000155 -0.07380418 -0.1392511
000310 70 95 ba 3d f8 ad e6 bc 1a 0e 94 be 79 8d e2 3d
       0.09110534 -0.028159127 -0.2891701 0.1106214
000320 f8 3f 8e bd 3a 18 05 3e 44 34 dd 3d da ed f4 3d
       -0.06945795 0.12997523 0.108009845 0.11959429
000330 6d 64 7b 3d 68 87 72 3d 87 c9 ca bc d7 c1 fc 3d
       0.06137507 0.059211165 -0.024754299 0.123416595
000340 d5 f0 cd bd 6f b7 3a be cf bc 85 be 74 14 92 bb
       -0.10055701 -0.18234037 -0.26120612 -0.0044580046
000350 c1 18 83 bd 38 df c2 be e5 15 a5 bd b9 71 38 3d
       -0.06401206 -0.38060927 -0.08060817 0.04503033
000360 fe 9b a8 bd 63 4d 28 3d 5b 64 0b 3e 3c 4d 54 be
       -0.08232878 0.041089427 0.13612501 -0.20732588
000370 b3 4b 66 3d b4 99 1a 3e 82 99 d9 3d 18 de 18 3d
       0.056224536 0.15097696 0.106249824 0.03732118
000380 4b 30 35 3c 2c 90 cc 3c b1 e8 c4 3c 1a 57 0c 3e
       0.011058877 0.02497109 0.024036737 0.13705102
000390 40 3c b5 bc 73 34 ae 3d 6d f4 e2 be 62 69 e4 bd
       -0.022123456 0.08506098 -0.44327107 -0.11152913
0003a0 29 8e a1 3d 00 17 a0 be 3f 60 90 bc cb 1d 9d bd
       0.07888443 -0.31267548 -0.017624019 -0.07671698
0003b0 08 01 db 3d 4a 9c 8a be 9f 6e 03 3e 23 93 02 be
       0.10693556 -0.27072364 0.12835167 -0.1275144
0003c0 c5 e4 de bd e6 6a be 3d a5 cc ba bd 2a 52 a8 3e
       -0.10883478 0.09297733 -0.09121064 0.32875186
0003d0 e6 10 bc 3d d8 dc 45 bd 2f de 48 3e 4c f0 77 bd
       0.091829106 -0.048306316 0.19616006 -0.0605319
0003e0 df a5 8b be e4 c3 57 bd 21 ec f6 3d 3e 70 a3 3c
       -0.27274987 -0.05267705 0.12056757 0.019950982
0003f0 15 e3 90 3b e1 93 9a be 37 78 32 be 05 7c 1b be
       0.0044216015 -0.30190948 -0.17428671 -0.15184028

layers.4.bias f4 [20]
000000 75 cb 7b 3d fb b7 46 3d 28 16 df 3d 86 a3 b6 bd
       0.06147333 0.0485153 0.10892898 -0.08917908
000010 ca 43 fb 3d 00 94 63 bd 8c 7c c5 3b e5 04 9b 3d
       0.12268789 -0.055561066 0.00602681 0.07569293
000020 dd b8 60 3d 02 3e 81 bd a3 78 da 3c 52 1f 09 3c
       0.0548638 -0.06310655 0.026668852 0.008369284
000030 9e b5 ec bc e9 a5 81 bc c4 62 86 bb 26 95 85 3d
       -0.028895196 -0.015826182 -0.0041011292 0.065225884
000040 3e 94 7e bd 6f af 2a 3d 3d f1 bb 3c 7b 86 13 bd
       -0.062153094 0.041671213 0.02294218 -0.036016922
