data/models/test_dc9_only_20_bins_low_init_lr_slow/checkpoints/epoch_560.pt (torch, 8301 bytes, 6 tensors)

layers.0.weight f4 [16, 4]
00000000: 3373 0a3e 43fc 0fbf 14e8 2fbf a264 533d
00000010: 8c68 0ebf 05fc 88be e3a2 8c3e aee4 8cbe
00000020: 770e 62bd acab 87be 15ba ac3d 628b a7be
00000030: a31c f23d d3a2 69bd 0156 c6be f92f b3be
00000040: 910d 863e 26cf f63d 3de3 06bd 8103 27be
00000050: e7f9 39be 4d3a 05bf 251e 9c3d cc24 8a3d
00000060: 0b0a d23e f150 19be cab5 983e 7b9a a7be
00000070: ed83 68be d8c3 2a3e 1d78 efbd 4f08 ea3d
00000080: 57e1 df3e 1a10 2bbe 2787 c9be 4b2a ce3d
00000090: 0e73 113e 042d fa3d 75fe 28bf 7c45 993e
000000a0: 5265 e0be d05d a33e 2c45 32be ec21 75bd
000000b0: a809 5fbe cc78 f2be 1944 e2bd e77e 013f
000000c0: f319 7bbe 67f6 e63e 87bb 0e3c d0e8 913e
000000d0: 3f20 e13d db03 8dbe 292f 373f 06bd a93e
000000e0: 1f86 923e 4263 debc b46c 34bd f7fb 7a3e
000000f0: bee6 efbe a2ae 2d3e c7ab a7be e1fb 913d
0.13520508 -0.56244296 -0.687135 0.051609643 -0.55628276 -0.26754776 0.27468023 -0.2751822
-0.055189576 -0.26498163 0.0843393 -0.32723528 0.11821868 -0.057040047 -0.3873749 -0.34997538
0.26182225 0.12051229 -0.032931555 -0.1630993 -0.18161736 -0.52042085 0.07622937 0.067453
0.41023287 -0.14972283 0.29826194 -0.32735047 -0.22706576 0.16676271 -0.11692832 0.11427366
0.43726608 -0.16705361 -0.39360926 0.100666605 0.14204046 0.12215617 -0.6601327 0.29935825
-0.438273 0.3190751 -0.174092 -0.059846804 -0.21781027 -0.47357786 -0.11048145 0.5058426
-0.24521618 0.45109865 0.008711702 0.28497934 0.109924786 -0.27542004 0.71556336 0.33152026
0.2861795 -0.02714694 -0.04404898 0.2451018 -0.4685573 0.16961148 -0.32748243 0.0712812

layers.0.bias f4 [16]
00000000: a403 a13e b9bc 6dba 1d46 843e 1efe 9abe
00000010: cf59 f1be f6b8 7ebd b29e dbbd 3bc8 003f
00000020: cb1a 4a3d de0e 9f3e f174 c1be 42a2 f33e
00000030: 8778 c5be fabd ecbd 8214 6bbe fe8b 9e3e
0.3144809 -0.00090689544 0.25834742 -0.30272 -0.4713883 -0.06218811 -0.10723628 0.5030553
0.049341958 0.3106603 -0.37784532 0.4758473 -0.38568518 -0.11559673 -0.22957042 0.3096618

layers.2.weight f4 [32, 16]
00000000: cd15 c2bd 415e 743e e0ec 3d3d 7d81 7b3e
00000010: 4c84 99be c7fd 4c3c 0623 3fbe 7b75 3c3d
00000020: 7e33 0e3e 54c7 71bc 286d 633e ce3e 1bbe
00000030: 44ba 1ebe bd20 a2be 2403 3f3d eb17 58be
00000040: 811f 313e e728 01be 0f27 63bd a631 a6bd
00000050: 641c ba3c a891 34bd c0b8 9e3d e168 1d3e
00000060: fc1e 013d 5f21 d23d 803e c23a 46be f8bd
00000070: e8b5 223e de8f 95bd 749d 8e3d 5bbb 093e
00000080: 34c1 80bd 2cbc 13be aaab 58be 5ed7 15be
00000090: 4081 67bc f8af 2c3e 421e 0fbe fe8e 47be
000000a0: 487e 16bd 20c5 18bd 60f4 0bbe 7283 2abe
000000b0: 781f ce3d ece2 4dbe e0ef 1c3c 345f d43d
000000c0: 97e1 dbbc b8a0 893d 5480 443e cfb1 22bc
000000d0: 5f63 8cbd 3357 99bd 781f 37bd 0309 043e
000000e0: 862a 2b3e ea61 dcbc 009e b2bc 143c 0bbe
000000f0: 5f10 d33d 925a 0f3c 6f25 ad3b 7416 11be
00000100: ceae 35be 3aed 21be 264f 023e 34ae 04be
00000110: 4850 0b3d bc21 fcbd 50c0 17be 30b5 84bd
00000120: e00c 2c3e 74c3 36be b81d 20be 709a 063d
00000130: 304b fbbc b68f 20be e04a 7f3e 2c4f 5abe
00000140: 0e50 8dbe 425a 473d 2505 e33c 6b1a 4f3d
00000150: 5e8e 3fbe abbf bf3c f734 0b3e f78b 313e
00000160: e4b8 4bbd 9bd0 d8bd 9bc2 8abe 27ba e6bb
00000170: 78ec c7bd 5d9c 9e3e f1f2 dbbc 219f 8cbd
00000180: d17b 953c a313 65be dbb3 0fbe 6429 05be
00000190: c21a 99bd aad6 49bd deda 383e 139c 133d
000001a0: 562d f13d de33 933d 07ca c03d 8645 c93c
000001b0: 4b99 18bd c4e6 08be 21b4 ba3d 6890 3b3d
000001c0: cf97 de3d 2fc5 64bd 9fc4 d93d d8f6 22be
000001d0: 3145 76be 5e81 793e 93fd 253e e4e0 16bd
000001e0: e81c f6bc d394 2bbc 1869 3c3e c6ad 643e
000001f0: df91 393e 5ee9 8bbe aaf6 a4bd 4cf7 ca3d
00000200: d007 833e c3f4 10bd 6ae9 96bc 448f 35be
00000210: 6387 7b3c fdd8 aabc 2b48 94bc d32f 5cbe
00000220: 23f2 1dbd 6677 9bbe 04cf 06be 68f6 b43d
00000230: 3366 3f3c 5019 a7bd bcf8 9bbd c8e5 8abe
00000240: 8491 01be 3eb2 f4bd 4639 493e 7fc4 f6bd
00000250: 25eb 83be 182f 113c 9f21 e03d 48d6 273e
00000260: a199 49be a6b1 603e a370 23bd 6df2 303e
00000270: a933 d3bb 160e 193e e50b 49be 8cfd 1bbe
00000280: 081d e33c 8c4a 02be 3a89 21be 1c13 23ba
00000290: 1656 153e bfb9 22bd 61b2 2d3c c235 7f3e
000002a0: a2d6 da3d 1a9b 233e 78b0 f43d 7028 6dbe
000002b0: 5576 223d d4b9 763e 0ebc 0f3d 71a7 19be
000002c0: a891 dbbd 9eeb 453e f68a 323e 2818 373e
000002d0: 6aad dbbd 385f 2bbe b6d3 d73d 4e2f 463e
000002e0: 6175 573e 4137 493d 2a2b 27be 0506 573e
000002f0: b2ef b4bc 36a6 533e fe9e a53e 39ca debc
00000300: 704e 373c c783 a13c 7ada 823e 475a e3bd
00000310: a115 75be bdbc a5be c7b3 1a3c b40d 693c
00000320: 10f8 7bbe 3b85 013d d8ec 83be 8282 9bbe
00000330: f334 663d 091d 5ebe 521d 7ebd bce0 0ebe
00000340: 09f5 1cbe ac28 e43d 842b 9e3d 941f a1be
00000350: e68e c6bc b6b5 c23d 28cb 003e b910 4b3e
00000360: 7463 febd 7020 febd 0642 9c3d 7e49 143e
00000370: 313b 513e 1a62 02be 6b00 933e 9585 1c3e
00000380: a297 183e 623f 8e3d 2ba7 59bd b540 063e
00000390: 8b3a a8bc d83c 53be 92b1 e7bd 8660 a6bd
000003a0: 6923 85be a584 113d 28a5 7fbe 7ec6 77be
000003b0: 26df a63e eba2 1bbe 0932 3cbe 067d 0c3d
000003c0: fdb1 603e 0357 28be 9cf7 8c3c e2da 2d3d
000003d0: 741e a9bc 6855 37be 23a6 7ebe a4ca 72bc
000003e0: f0df 3ebe f1c8 383e 5020 e9bd 4364 103e
000003f0: c6bd 603d 8bac 34bd 9238 f03d 2c66 33bc
-0.094768144 0.2386408 0.04636848 0.24561115 -0.29983747 0.012511677 -0.18665704 0.046010476
0.1388683 -0.014756996 0.22209609 -0.15160677 -0.15500742 -0.31665602 0.046633855 -0.21102874
0.17297174 -0.1261326 -0.05545717 -0.081149384 0.022718616 -0.04408422 0.07750082 0.1537204
0.03152369 0.10260271 0.0014819652 -0.12145667 0.15889704 -0.07302831 0.069636256 0.13450377
-0.062868506 -0.1442725 -0.21159235 -0.14632937 -0.014129937 0.16864002 -0.13976386 -0.19488141
-0.036741525 -0.037297368 -0.1366744 -0.16651705 0.10064596 -0.20106095 0.009578675 0.10369721
-0.026840968 0.06720108 0.19189578 -0.009930088 -0.06854891 -0.07487335 -0.044707745 0.12894063
0.1671544 -0.026902158 -0.021803856 -0.13597137 0.10305857 0.008749621 0.0052840034 -0.14168721
-0.17742464 -0.15813151 0.12725505 -0.12957078 0.03401211 -0.12311122 -0.14819455 -0.06479871
0.16801786 -0.17847997 -0.15636337 0.032862127 -0.0306755 -0.15679821 0.24930906 -0.21319264
-0.2760014 0.04867006 0.027712414 0.050562304 -0.18706653 0.023406824 0.13594423 0.17338549
-0.049736872 -0.10586663 -0.27101597 -0.007041234 -0.097619 0.3097867 -0.026849242 -0.06866289
0.018247517 -0.22370772 -0.14033453 -0.1300407 -0.07475807 -0.049276985 0.18052241 0.036037516
0.11776225 0.07187627 0.09413534 0.024569284 -0.037255567 -0.1336928 0.09116388 0.045792013
0.10868799 -0.05585211 0.106332056 -0.15914476 -0.24049832 0.24365756 0.16210012 -0.036835566
-0.03004308 -0.010472494 0.18399465 0.22331914 0.18122052 -0.27326483 -0.0805486 0.099104494
0.25591898 -0.035389673 -0.018421847 -0.17730433 0.015352103 -0.020855421 -0.018100819 -0.21502618
-0.038560998 -0.3036453 -0.13164908 0.08836061 0.011682081 -0.08159125 -0.07615802 -0.27128434
-0.12653166 -0.119480595 0.19650754 -0.120491974 -0.2576534 0.008861326 0.10943913 0.16390336
-0.19687511 0.21942768 -0.03990234 0.17279978 -0.0064453674 0.1494678 -0.19633444 -0.15233439
0.027723804 -0.1272375 -0.15775004 -0.0006220804 0.1458362 -0.039727923 0.010601611 0.2492285
0.10685469 0.15977135 0.11947721 -0.23159957 0.03966363 0.24094325 0.035091452 -0.1500528
-0.10721141 0.19328162 0.17435822 0.17880309 -0.107264355 -0.16735542 0.105384275 0.19353983
0.2104087 0.04912496 -0.1632506 0.2099839 -0.022086952 0.20668873 0.32347864 -0.027196037
0.011188135 0.019716157 0.2555731 -0.111012034 -0.23934032 -0.32370558 0.009442276 0.0142244585
-0.24606347 0.0316212 -0.25766635 -0.30373007 0.05620284 -0.21690764 -0.06203968 -0.13952917
-0.15327848 0.1114057 0.07723144 -0.31469405 -0.024238061 0.09507315 0.12577498 0.19830598
-0.12421313 -0.12408531 0.076297805 0.1448116 0.20432736 -0.12732735 0.28711256 0.15285333
0.14901593 0.06945683 -0.05313794 0.13110621 -0.020535728 -0.20628679 -0.11313166 -0.08123879
-0.26003578 0.03552689 -0.24965346 -0.24196813 0.32592124 -0.15198867 -0.18378462 0.03429892
0.21942897 -0.16439442 0.017207913 0.04244507 -0.020644404 -0.17903674 -0.24868064 -0.014818821
-0.18640113 0.18045403 -0.11383116 0.14100747 0.054868482 -0.044109862 0.1172954 -0.010949653

layers.2.bias f4 [32]
00000000: 12ec 923d 17a9 393d f23f 3dbe e643 193e
00000010: 1e84 2cbe dc99 b43d a769 ba3d de9a 9fbd
00000020: 735a 183e c8b5 d7bc 8c38 d2bd 49ef 3fbe
00000030: ae51 ab3d 68d9 febd 7d22 2f3e f65e 903d
00000040: 08bc 39be 4cf4 643e c436 3bbe 34eb 97bc
00000050: 75e3 74be 679a 2dbe a0c0 cf3c 920b 933e
00000060: defa 7fbd 4480 29be c79e ad3d 8a6a 5dbe
00000070: ab43 173d 030b 5bbe 86bb 243e 2c00 71be
0.07173933 0.045327272 -0.18481424 0.14967307 -0.16847274 0.08818409 0.09102183 -0.077932104
0.14878254 -0.026331797 -0.10264692 -0.18743624 0.083651885 -0.12443811 0.17103 0.07049362
-0.18138134 0.22358817 -0.1828261 -0.01854477 -0.23914893 -0.16953431 0.025360405 0.28719765
-0.062495105 -0.16552836 0.0847755 -0.21622673 0.036929768 -0.2139092 0.1608716 -0.23535222

layers.4.weight f4 [20, 32]
00000000: fc9c aa3e 5430 4f3c df8a 05be 3ef5 5abd
00000010: b748 003e f96c 86be 930b f1bd 490e 493e
00000020: f629 9b3e bdb3 debb 3f20 8abc 5792 023e
00000030: 6600 c0bd 8d76 493d 1e6e 14be 9afb ecbd
00000040: 538c 613e d730 bdbc ee08 00bd 1b8a e5bc
00000050: c0c8 6abe 4a2f 22be d536 2d3e 165c 65be
00000060: d790 383d a11f 0a3e 079e cebd 058a 8e3e
00000070: ec81 063e 86cc 63bd 62ca 483e 7013 21bd
00000080: 4b21 383d a706 00bd 5e6d b53d 0b48 973c
00000090: b9ec 19be 4117 f53c 1097 c6bb cdfb 633e
000000a0: 7849 8e3e f622 7cbd 1b9f 233d 86f9 73bc
000000b0: f9ef 19be 1f9a b23d df7b efbd 9431 0d3e
000000c0: eca2 913e 6079 0e3e 218c 33bd 2f87 85bd
000000d0: aa08 24be c2d8 94be 7865 213e 1c70 673d
000000e0: e861 9b3c 6f86 00be 54b4 9fbd fe70 22bc
000000f0: 60c3 613e bf1d dabd 01ec 9a3d 00be f6ba
00000100: 8944 3dbc 0b83 9cbd 064a ae3d 2ad4 d6bb
00000110: 7c7e 4fbd 49e8 9c3d 44d2 b33d b273 493d
00000120: 7005 f03d 20ee 59bd d69a 373e f963 34bd
00000130: 5345 093e 69af 293e c4af c4bd 393a 3a3d
00000140: 05ad 6b3d d029 803d 2dc1 acbd 4794 dbbb
00000150: 1425 37be 0f4c a7bd f2fe a7bd db20 913d
00000160: 2ae4 1abe 0025 0e3e 9e3f 363d ba18 f5bc
00000170: 0bdc 753e 2f25 463e f47e 053d ed7e ccbd
00000180: 18a7 233e f1b0 58be d926 213e fd1f 2bbd
00000190: 9ef7 ef3d 5de9 ebbd f8c9 f23d 6122 8cbd
000001a0: 7ed3 413e ae99 a3bd 62e1 a33d 86bf acbd
000001b0: 8c28 4ebe 7038 0f3e 8bc6 c53b a94e 503d
000001c0: 7752 5e3e 5217 81bd a56c d6bc 5d98 1c3e
000001d0: 54c3 07bd 707c 00be cf01 0fbd 49b9 a23d
000001e0: f977 483e e278 973e 79fa cebd 6fc4 13bd
000001f0: 4cf9 803e 05da 8e3d 30d2 34bd 007e 5bbc
00000200: 7cc8 163e a320 673d 1e6a babd a3a0 ebbd
00000210: 4441 5dbd 1cb7 64be 9c4d adbd 4a93 2b3d
00000220: a1ce 08bd d308 263e eca9 693d 8f9c 01be
00000230: ad6b 523d b930 123e 21ca 24be bb5c e6bd
00000240: 5035 9b3e 1113 433c d184 31bd eac1 043d
00000250: fa83 35bd a1e5 143d 9157 b7bc 0ed5 1ebe
00000260: a3ec 853d 970e 953d e846 2cbe 5d71 72bd
00000270: 7adf 023d bf51 0abe 96a2 a43d 6308 063e
00000280: 4959 9e3d 76ac ddbd 13d8 83bd 19cf 14be
00000290: d213 c33d 5411 78bd 0159 183e 487b 3abd
000002a0: 514f 4a3e 752f cbbd e183 76be 271d 1e3e
000002b0: e4c4 cbbd b0d1 5abc 001d d1bd 627d 3c3d
000002c0: 9f5f 283e 9780 3bbe 0ad9 4d3e 213e 13bd
000002d0: 2c42 febd 8e76 cf3d 31e2 f1bd a5b7 b8bc
000002e0: c929 103e ae87 cf3d a5c3 723d a68e 753d
000002f0: 698f 10bd 1db6 a23c 3d97 9ebd 85b3 103e
00000300: 4f3a c1bd 36dc dc3d 1c8f 4dbd a296 80bd
00000310: b8ba df3c 4c15 c5bd 162b b33d 3fd6 333c
00000320: fa06 3f3e d4f8 9cbd b701 a5bd f444 c43d
00000330: 809d 98bd feb8 463e b02f 533d 287b 0cbe
00000340: 371a 06bd 8a5a a3bd affc 603e 7aba 133e
00000350: 00b6 0abc 4a65 5dbd ba42 1dbd 6b04 eb3d
00000360: bdd7 65be db4c 883c 6a9b d13d f96c c9bc
00000370: 51e4 c63d 9b46 00be 70d3 abbd a080 4ebc
00000380: 06e8 c03d 1054 e9bd c124 0b3e 1510 23be
00000390: c258 d23d d545 14be af12 c7ba c82a 133d
000003a0: 20b4 29bd 458a b8bd fd4b f03c 3cdc e73d
000003b0: f8b0 95bc 0065 66bd 500b 12be b41f 4dbe
000003c0: bd13 95bd 767a 9d3d ebdf 78be d062 b93c
000003d0: 929e fd3d e09d 483d d798 9ebd ae0e f83b
000003e0: b09b d53d d87b 073d 53c8 1d3e 7988 ed3d
000003f0: a996 aabc d632 c0bd 5f85 8fbd 4447 27be
0.33322895 0.0126458 -0.13041256 -0.053456537 0.12527739 -0.26255015 -0.11769786 0.19634356
0.3030545 -0.006796329 -0.01686108 0.12751137 -0.09375076 0.049185324 -0.14495131 -0.11571427
0.22026186 -0.023094578 -0.031258516 -0.028019955 -0.22928143 -0.15838352 0.16915448 -0.22398409
0.045060005 0.13488628 -0.10088735 0.27839676 0.13135499 -0.05561497 0.19608453 -0.039325178
0.044953626 -0.031256344 0.08858751 0.01846697 -0.15031709 0.029918315 -0.0060604885 0.22264023
0.27790427 -0.06155678 0.039946657 -0.014891034 -0.15032949 0.087208025 -0.116935484 0.13788444
0.28444612 0.13913488 -0.04383481 -0.06519925 -0.1601893 -0.29071623 0.15761364 0.0565034
0.018967584 -0.12551282 -0.07798067 -0.009914635 0.22047186 -0.10650205 0.075645454 -0.0018824935
-0.011551985 -0.07642182 0.085102126 -0.0065560536 -0.050657734 0.076614924 0.08780339 0.0491826
0.11719787 -0.05320561 0.17930159 -0.044040654 0.13405351 0.1657082 -0.09603837 0.04546568
0.05753805 0.06257975 -0.08435283 -0.0067010256 -0.17885238 -0.08168804 -0.08202924 0.07086345
-0.151261 0.13881302 0.044494264 -0.029919017 0.24009721 0.19350122 0.032591775 -0.09985147
0.1598171 -0.21161248 0.15737475 -0.041778553 0.11717151 -0.1151912 0.11854929 -0.06842495
0.18928334 -0.079882964 0.08001973 -0.08434968 -0.20132655 0.13986373 0.006035631 0.050856266
0.21711145 -0.06303276 -0.026174853 0.15292497 -0.033145264 -0.12547469 -0.034913834 0.079454966
0.19577016 0.29584414 -0.101063676 -0.036076006 0.25190198 0.06975178 -0.044145763 -0.01339674
0.14724916 0.05642761 -0.091022715 -0.115052484 -0.05401732 -0.22335476 -0.084620684 0.041888513
-0.03340018 0.16214304 0.057046816 -0.12657379 0.05137222 0.14276399 -0.16092731 -0.11248156
0.30314112 0.011906401 -0.043339554 0.032411493 -0.044315316 0.036351804 -0.022380622 -0.15510961
0.065392755 0.072781734 -0.16823924 -0.059190143 0.031951405 -0.13507746 0.08038823 0.13089137
0.077318735 -0.1082391 -0.06437697 -0.14532126 0.09525265 -0.0605634 0.14877702 -0.045527726
0.1975682 -0.09921161 -0.24073745 0.15440808 -0.09949663 -0.013355657 -0.102106094 0.046018012
0.16442727 -0.18310772 0.20102325 -0.035947923 -0.12414965 0.101300344 -0.11810721 -0.022548506
0.1407844 0.10133301 0.059268612 0.059950493 -0.035293017 0.019862229 -0.0774369 0.14130981
-0.094349496 0.107841894 -0.050185308 -0.06278731 0.027310714 -0.09623203 0.08748452 0.010976373
0.18655005 -0.07664648 -0.08056968 0.09583464 -0.07451916 0.19406506 0.05155915 -0.13718855
-0.032739844 -0.07976253 0.21971391 0.14426604 -0.008466244 -0.054051675 -0.038393714 0.11475452
-0.22445579 0.01663821 0.10234721 -0.024588095 0.09711517 -0.12526934 -0.08389938 -0.012603909
0.09419255 -0.11392987 0.13588239 -0.15924104 0.102708355 -0.14479764 -0.0015188063 0.03592947
-0.041431546 -0.09010748 0.029333109 0.11321303 -0.018272862 -0.056248665 -0.14262128 -0.20031625
-0.072791554 0.07689373 -0.24304168 0.022630125 0.123837605 0.048978686 -0.07743996 0.0075701093
0.10430086 0.03307709 0.15408449 0.11598296 -0.020823793 -0.09384696 -0.070078604 -0.1633578

layers.4.bias f4 [20]
00000000: 8be3 723c 4c0a f0bd 8a1e d2bd b29e b33c
00000010: 8ae4 e43d 2360 eb3d 1adf bd3b fa54 ce3d
00000020: 04c0 cc3d b9f7 db3d 70b7 eb3d 5b8a 093d
00000030: c431 0b3e 2cf6 7c3d 1bee 5a3d 24e8 503c
00000040: e2dc 333d 8f08 20bd ee1f a0bd d466 b7bd
0.014824758 -0.11720714 -0.10259731 0.021926258 0.11176403 0.11492946 0.005794418 0.10074802
0.099975616 0.10740609 0.11509597 0.03357921 0.13593203 0.061758205 0.05344973 0.012750659
0.043911822 -0.039070662 -0.0781859 -0.0895516
