data/models/test_dc9_only_20_bins_low_init_lr_slow/checkpoints/epoch_0.pt (torch, 7957 bytes, 6 tensors)

layers.0.weight f4 [16, 4]
0.31296924 -0.4270404 -0.479633 0.1219553 -0.45627463 -0.18678002 0.31040806 -0.4008104
-0.007006355 -0.12162193 0.17761031 -0.38273966 0.235846 0.05589437 -0.2252511 -0.2448381
0.17036399 0.09020784 -0.12118587 -0.15470245 -0.08034248 -0.39148444 0.0201631 0.23621212
0.33695847 -0.14687862 0.37959835 -0.3132834 -0.23942444 0.14673996 -0.12062901 0.2005939
0.48369512 -0.22267425 -0.31587493 0.08296668 0.13014852 0.26264516 -0.42027295 0.29245543
-0.41224998 0.2928058 -0.13349609 0.063356176 -0.200461 -0.4554528 -0.009823187 0.40546718
-0.19257872 0.42452443 0.2213152 0.25082234 0.11787199 -0.32008532 0.46877733 0.3356562
0.2624675 -0.0015448856 -0.048728503 0.15184666 -0.4550076 0.34413758 -0.18983404 0.09428186
00000000: 813d a03e 0aa5 dabe 7592 f5be b3c3 f93d
00000010: d49c e9be 4343 3fbe ceed 9e3e 0537 cdbe
00000020: 9195 e5bb eb14 f9bd 7adf 353e 74f6 c3be
00000030: 9d81 713e 7ff1 643d 39a8 66be d7b6 7abe
00000040: e673 2e3e e3be b83d 4c30 f8bd 526a 1ebe
00000050: 998a a4bd a670 c8be 162d a53c 97e1 713e
00000060: d285 ac3e 5967 16be b75a c23e af66 a0be
00000070: ae2b 75be 0043 163e 580c f7bd 7d68 4d3e
00000080: e3a6 f73e b804 64be 5cba a1be 6fea a93d
00000090: a745 053e 6d79 863e 042e d7be b8bc 953e
000000a0: 6e12 d3be a4ea 953e 33b3 08be e2c0 813d
000000b0: a645 4dbe 1c31 e9be 6ff1 20bc 6599 cf3e
000000c0: 5b33 45be 445b d93e 74a0 623e c96b 803e
000000d0: df66 f13d 39e2 a3be 9503 f03e 21db ab3e
000000e0: 2462 863e c27d caba 8a97 47bd b17d 1b3e
000000f0: c2f6 e8be cd32 b03e db63 42be d916 c13d

layers.0.bias f4 [16]
0.29535523 0.04613673 0.28630012 -0.31736875 -0.4921116 -0.14396109 -0.1677777 0.3980909
-0.028079769 0.3928394 -0.31129822 0.47176614 -0.32405564 -0.18761854 -0.22981556 0.33092844
00000000: cd38 973e def9 3c3d ee95 923e 287e a2be
00000010: 0df6 fbbe 896a 13be ebcd 2bbe 92d2 cb3e
00000020: 8b07 e6bc 3f22 c93e 7b62 9fbe 558b f13e
00000030: 9fea a5be 131f 40be c554 6bbe 746f a93e

layers.2.weight f4 [32, 16]
-0.10860211 0.16971304 0.012932997 0.23709525 -0.24442796 -0.08778101 -0.16771145 0.031777088
0.11274239 -0.013294672 0.24949913 -0.2017434 -0.19375978 -0.19025388 0.125119 -0.24841595
0.10499972 -0.13062334 -0.14828156 -0.10836509 0.16176356 -0.03315988 0.04061083 0.07146439
0.07359317 0.06124539 0.13616842 -0.18239693 0.0035523442 -0.031686526 0.17219457 0.10384587
-0.062868506 -0.1442725 -0.21159235 -0.14632937 -0.014129937 0.16864002 -0.13976386 -0.19488141
-0.036741525 -0.037297368 -0.1366744 -0.16651705 0.10064596 -0.20106095 0.009578675 0.10369721
-0.043572363 0.12909228 0.18039736 0.044386216 0.17192449 -0.037843384 -0.049106855 0.053822562
0.14626443 -0.10562261 -0.0019425084 -0.16339812 0.03906732 -0.056278653 0.022495536 -0.15998931
-0.17742464 -0.15813151 0.12725505 -0.12957078 0.03401211 -0.12311122 -0.14819455 -0.06479871
0.16801786 -0.17847997 -0.15636337 0.032862127 -0.0306755 -0.15679821 0.24930906 -0.21319264
-0.1598253 0.07683113 -0.006751887 0.15299375 -0.088186584 0.1203049 0.08676958 0.12775777
-0.08758958 -0.18765981 -0.22017108 0.030534867 -0.14995576 0.23330902 0.021404816 -0.10164182
0.017950106 -0.1658078 -0.23188186 -0.12816021 -0.10993248 -0.074862935 0.12292674 0.06227785
0.13851124 0.11605035 0.1590644 0.025593555 -0.08717926 -0.08690467 0.13047406 0.042446986
-0.016225748 -0.10094952 0.1051666 -0.03248055 -0.24186137 0.1292132 0.20321646 -0.077830136
-0.09593882 0.04809325 0.03237973 0.14443132 0.14105448 -0.09586669 -0.1510721 0.017674936
0.20497632 -0.19151607 -0.08290275 -0.050470997 0.12614895 -0.15852067 -0.022549162 -0.13995196
-0.0121602835 -0.16933692 0.01758343 0.00024346379 0.08622867 -0.0496257 -0.14500822 -0.18378255
-0.00587606 -0.18742014 0.19495456 0.0018061142 -0.13422954 0.098463394 0.1512253 0.09237493
-0.19073288 0.15882656 -0.12040263 0.20861614 -0.18224417 0.07199739 -0.20065953 -0.23217902
0.030190334 0.014635477 -0.06743687 0.099548854 0.21589616 -0.08897325 0.054739233 0.21286911
0.06092207 0.094412066 0.13090639 -0.21820433 0.079681925 0.19764931 -0.03218618 -0.18179154
-0.1612046 0.2057105 0.22636782 0.20397596 0.0035925515 -0.18040791 0.14922051 0.19576265
0.20752479 0.09575502 -0.13002017 0.18589662 -0.0037762367 0.24164116 0.23337126 -0.02447994
-0.076191895 -0.040588465 0.154547 -0.020607376 -0.09081961 -0.2362003 -0.04790492 -0.050528742
-0.2265543 0.063594416 0.10141865 -0.1934677 0.13448435 -0.12068668 0.15508151 -0.17394689
-0.2045382 0.14302604 0.096754685 -0.11506917 0.10030572 0.08148574 0.21243118 0.17068312
-0.1507731 -0.16233228 -0.092729986 0.10252069 0.09200672 -0.061369162 0.037883528 0.09902416
0.15360041 0.06812022 -0.10956717 0.117740534 -0.07278901 -0.1858361 -0.1502307 -0.04563467
-0.223442 0.1440263 -0.23915058 -0.17008762 0.20325881 -0.12055957 -0.13154571 0.06623541
0.17726196 -0.19003098 -0.0012979634 0.0772001 0.104490675 -0.1980827 -0.23846833 -0.10250975
-0.20715342 0.14014746 -0.21539299 0.1406181 0.013040436 -0.12197672 0.02435721 -0.114617795
00000000: c86a debd 41c9 2d3e ece4 533c 19c9 723e
00000010: 534b 7abe 88c6 b3bd 8dbc 2bbe b128 023d
00000020: 7be5 e63d e5d1 59bc b37c 7f3e d295 4ebe
00000030: f768 46be ead1 42be 321f 003e c060 7ebe
00000040: 180a d73d 20c2 05be 1fd7 17be 84ee ddbd
00000050: 59a5 253e a8d2 07bd 8b57 263d ec5b 923d
00000060: 04b8 963d 72dc 7a3d bc6f 0b3e 43c6 3abe
00000070: 72ce 683b bbc9 01bd c653 303e 25ad d43d
00000080: 34c1 80bd 2cbc 13be aaab 58be 5ed7 15be
00000090: 4081 67bc f8af 2c3e 421e 0fbe fe8e 47be
000000a0: 487e 16bd 20c5 18bd 60f4 0bbe 7283 2abe
000000b0: 781f ce3d ece2 4dbe e0ef 1c3c 345f d43d
000000c0: ef78 32bd c430 043e 16ba 383e 52ce 353d
000000d0: f90c 303e aa01 1bbd 4524 49bd 0c75 5c3d
000000e0: 58c6 153e ab50 d8bd c49b feba d651 27be
000000f0: 0e05 203d 7284 66bd 8f48 b83c 3dd4 23be
00000100: ceae 35be 3aed 21be 264f 023e 34ae 04be
00000110: 4850 0b3d bc21 fcbd 50c0 17be 30b5 84bd
00000120: e00c 2c3e 74c3 36be b81d 20be 709a 063d
00000130: 304b fbbc b68f 20be e04a 7f3e 2c4f 5abe
00000140: 3ea9 23be a459 9d3d ef3e ddbb 65aa 1c3e
00000150: 2b9b b4bd 6a62 f63d 40b4 b13d efd2 023e
00000160: 2a62 b3bd e529 40be 8774 61be 4224 fa3c
00000170: 018e 19be 8fe8 6e3e 2759 af3c 9629 d0bd
00000180: 1a0c 933c 85c9 29be 7072 6dbe 6e3c 03be
00000190: 4824 e1bd bd51 99bd 04c1 fb3d 0f17 7f3d
000001a0: e4d5 0d3e ceab ed3d c7e1 223e 93a9 d13c
000001b0: 0a8b b2bd 13fb b1bd fe9a 053e e4dc 2d3d
000001c0: dceb 84bc 9fbe cebd 9661 d73d 530a 05bd
000001d0: 82aa 77be 7750 043e fa17 503e 6865 9fbd
000001e0: 927b c4bd 6dfd 443d 9ca0 043d cee5 133e
000001f0: 9670 103e c155 c4bd a5b2 1abe 07cb 903c
00000200: 50e5 513e ca1c 44be ebc8 a9bd adba 4ebd
00000210: 312d 013e 3e53 22be 05b9 b8bc 914f 0fbe
00000220: ed3b 47bc a866 2dbe 200b 903c 504a 7f39
00000230: a898 b03d 5144 4bbd 097d 14be 7e31 3cbe
00000240: f78b c0bb 11eb 3fbe 2ba2 473e 23bb ec3a
00000250: 7873 09be 2da7 c93d ceda 1a3e 112f bd3d
00000260: 7b4f 43be 6ea3 223e a795 f6bd 789f 553e
00000270: 379e 3abe 5e73 933d b179 4dbe 56c0 6dbe
00000280: b851 f73c a4c9 6f3c 571c 8abd 45e0 cb3d
00000290: e213 5d3e 9b37 b6bd 3f36 603d 5cfa 593e
000002a0: 6c89 793d 1d5b c13d 530c 063e f570 5fbe
000002b0: 4730 a33d 9564 4a3e a8d5 03bd 9027 3abe
000002c0: d212 25be c6a5 523e f7cc 673e 13df 503e
000002d0: 0371 6b3b dabc 38be 43cd 183e 0176 483e
000002e0: 6181 543e 351b c43d 0224 05be af5b 3e3e
000002f0: bd7a 77bb c870 773e e0f8 6e3e 288a c8bc
00000300: 7f0a 9cbd 1740 26bd 9241 1e3e cdd0 a8bc
00000310: a2ff b9bd 7ede 71be f337 44bd 3af7 4ebd
00000320: dafd 67be ca3d 823d 95b4 cf3d 661c 46be
00000330: 44b6 093e 942a f7bd b0cd 1e3e 221f 32be
00000340: 7672 51be 6b75 123e 5227 c63d 63a9 ebbd
00000350: 166d cd3d ffe1 a63d 8f87 593e 8ec7 2e3e
00000360: 4364 1abe 6f3a 26be 38e9 bdbd 5ef6 d13d
00000370: 056e bc3d 3b5e 7bbd c22b 1b3d 2ecd ca3d
00000380: 6d49 1d3e 9d82 8b3d c164 e0bd f321 f13d
00000390: 6812 95bd d24b 3ebe 14d6 19be 6beb 3abd
000003a0: fbcd 64be a17b 133e e4e3 74be 732b 2ebe
000003b0: 1423 503e f0e7 f6bd ebb3 06be 6ea6 873d
000003c0: 2984 353e 7b97 42be 6d20 aaba 161b 9e3d
000003d0: 35ff d53d 31d6 4abe 0b31 74be a2f0 d1bd
000003e0: 0720 54be d182 0f3e fb8f 5cbe 31fe 0f3e
000003f0: 8ea7 553c eece f9bd c688 c73c bcbc eabd

layers.2.bias f4 [32]
0.055812765 -0.034804337 -0.18481424 0.09471646 -0.16847274 0.02338068 0.06782073 -0.09761087
0.12123539 -0.047445767 -0.13850449 -0.17634052 0.0070488257 -0.1211753 0.19827862 -0.014043235
-0.20228395 0.17386858 -0.19381678 -0.052603975 -0.22449556 -0.100274734 0.011197136 0.19364378
-0.031714763 -0.14246665 0.056065004 -0.17706995 0.018269267 -0.20527263 0.1915656 -0.23535222
00000000: ed9b 643d fe8e 0ebd f23f 3dbe b4fa c13d
00000010: 1e84 2cbe d788 bf3c 98e5 8a3d 35e8 c7bd
00000020: 434a f83d 7e56 42bd 1fd4 0dbe 9c92 34be
00000030: d6f9 e63b c12a f8bd 8d09 4b3e 9915 66bc
00000040: 8623 4fbe 9b0a 323e e877 46be 4477 57bd
00000050: 2ae2 65be d75c cdbd 3174 373c 8e4a 463e
00000060: 57e7 01bd c7e2 11be 6ba4 653d d351 35be
00000070: 6ea9 953c fd32 52be c629 443e 2c00 71be

layers.4.weight f4 [20, 32]
0.14785142 0.12538195 -0.13041256 0.07624313 0.12527739 -0.11486191 -0.049827613 0.08023691
0.034739573 0.14228007 -0.06701368 0.15763867 0.029901046 0.009865256 0.02572813 -0.16723332
-0.03133814 -0.109426536 -0.05308442 -0.008123504 -0.020252528 -0.17898865 -0.07024821 -0.090373114
-0.060324293 -0.044080194 -0.0106640775 0.123743035 0.01894022 -0.12000069 0.095626794 -0.039325178
-0.00013482568 0.004970583 0.08858751 0.12343229 -0.15031709 0.14291754 0.033999205 0.07361422
0.02218433 -0.0803369 -0.06893287 0.035747677 -0.12546737 0.10744168 -0.090087555 0.11314212
0.15827546 0.097641155 0.05832942 -0.16980273 -0.04985119 -0.1531832 0.111487105 0.07278087
-0.040465187 -0.15182094 -0.044535298 -0.07917511 0.10378182 -0.15805201 0.023093326 -0.0018824935
0.07277156 -0.079600245 0.085102126 0.08742097 -0.050657734 0.17562808 0.031549495 -0.06296679
-0.08438261 -0.13555828 0.1417286 0.022980854 0.025209228 0.17060581 -0.02711012 -0.020084873
-0.15830235 -0.02299662 0.11677553 -0.06464639 -0.14915459 0.14652176 -0.031509638 0.05494503
-0.14966054 0.08216908 0.055183325 -0.09605592 0.14899619 0.17399846 -0.067718476 -0.09985147
0.088123366 -0.17909893 0.15737475 -0.089135416 0.11717151 -0.09953277 0.1243074 -0.14032452
0.15633655 0.065605566 0.02318312 -0.15512067 0.086030625 -0.013579883 0.12627792 0.14473403
0.06756375 -0.09990089 -0.006848082 0.03435373 0.048672978 -0.092745304 -0.08742646 0.14073537
0.036669664 0.16288786 -0.016041303 -0.14400375 0.16715026 0.03365081 -0.044609036 -0.01339674
0.1466396 0.062130157 -0.091022715 -0.051056854 -0.05401732 -0.12499416 -0.07097768 -0.0058271238
-0.07729649 0.16265778 0.017237887 -0.0937712 0.12875295 0.11593043 -0.09909301 -0.09525446
0.16439338 0.043745864 -0.1129438 -0.04652736 -0.06492133 0.10697329 0.11388925 -0.122013494
0.077226 -0.0028629547 -0.11978099 -0.03981669 0.07907879 -0.051719673 0.10108193 0.13089137
0.05036881 -0.043407116 -0.06437697 -0.0572797 0.09525265 -0.022174707 0.14352985 -0.16238575
0.07791681 -0.14613238 -0.13002534 0.16410814 -0.066732295 -0.005439074 -0.05705066 0.0670863
0.041760687 -0.14505148 -0.0017187744 -0.1283358 -0.07133741 0.085402526 -0.08264535 0.14747766
0.14971153 -0.05811408 0.09417955 0.025532195 -0.13446923 0.081667475 -0.07904793 0.14130981
-0.15186505 0.12847778 -0.050185308 -0.13324548 0.027310714 -0.111340195 0.117470905 0.03522521
0.17505515 -0.10335009 -0.11026114 0.121527575 -0.048192516 0.13165717 0.03203547 -0.08552254
-0.15957381 -0.15555613 0.1625808 0.112257935 -0.0014304698 -0.025660211 0.021176143 0.0747923
-0.14757034 -0.036526304 0.13687868 -0.08434629 0.13458098 -0.078124486 -0.060710102 -0.012603909
-0.055662304 -0.058567826 0.13588239 -0.1717109 0.102708355 -0.15364195 0.076653875 0.053582102
-0.047821354 -0.012223472 0.120607756 0.088286 -0.11879684 -0.08807203 -0.16667277 -0.090563275
-0.009855592 0.09322268 -0.12785643 0.05140696 0.13363306 0.10611496 0.094529554 -0.07419345
0.072578914 0.12988907 0.15867978 0.037811954 -0.02392733 -0.10038425 -0.024843017 -0.1633578
00000000: 5d66 173e 2064 003e df8a 05be 5c25 9c3d
00000010: b748 003e b93c ebbd 0a18 4cbd 4053 a43d
00000020: 154b 0e3d deb1 113e 783e 89bd 086c 213e
00000030: 0af3 f43c e2a1 213c cdc3 d23c 363f 2bbe
00000040: 6c5c 00bd 051b e0bd 0c6f 59bd 7218 05bc
00000050: a1e8 a5bc cd48 37be 4bde 8fbd 8a15 b9bd
00000060: 9b16 77bd 6f8d 34bd 62b8 2ebc fd6c fd3d
00000070: 8528 9b3c ecc2 f5bd fbd7 c33d 7013 21bd
00000080: fe5f 0db9 46e0 a23b 5e6d b53d 12ca fc3d
00000090: b9ec 19be fa58 123e c042 0b3d 0dc3 963d
000000a0: e9bb b53c ac87 a4bd ad2c 8dbd 286c 123d
000000b0: 857a 00be 620a dc3d d37f b8bd 0eb7 e73d
000000c0: f612 223e 16f8 c73d d4ea 6e3d c4e0 2dbe
000000d0: c330 4cbd 0fdc 1cbe 5a53 e43d 230e 953d
000000e0: d3be 25bd f376 1bbe a56a 36bd 8f26 a2bd
000000f0: 908b d43d 63d8 21be 372e bd3c 00be f6ba
00000100: 4109 953d 7405 a3bd 064a ae3d c409 b33d
00000110: 7c7e 4fbd d9d7 333e 0b3a 013d bbf4 80bd
00000120: cad0 acbd cacf 0abe 4d21 113e 5842 bc3c
00000130: 9583 ce3c 4ab3 2e3e 0b16 debc 0889 a4bc
00000140: 031a 22be 6863 bcbc 0228 ef3d 5465 84bd
00000150: fbbb 18be cd09 163e 4010 01bd 0a0e 613d
00000160: 9d40 19be 4348 a83d e907 623d f7b8 c4bd
00000170: 7592 183e a72c 323e fcaf 8abd ed7e ccbd
00000180: 067a b43d b665 37be d926 213e a18c b6bd
00000190: 9ef7 ef3d d6d7 cbbd e194 fe3d 3bb1 0fbe
000001a0: b016 203e 365c 863d 87ea bd3c f4d7 1ebe
000001b0: d330 b03d 287e 5ebc 004f 013e 2835 143e
000001c0: dd5e 8a3d d698 ccbd e065 e0bb 7fb6 0c3d
000001d0: 515d 473d 40f1 bdbd a50c b3bd ef1c 103e
000001e0: ee32 163d 13cc 263e 0d69 83bc b875 13be
000001f0: 7029 2b3e 6fd5 093d f7b7 36bd 007e 5bbc
00000200: b128 163e 317c 7e3d 1e6a babd fe20 51bd
00000210: 4441 5dbd f0fc ffbd bf5c 91bd 75f1 bebb
00000220: 9f4d 9ebd c38f 263e 7836 8d3c 1d0b c0bd
00000230: d0d7 033e ef6c ed3d 47f1 cabd c514 c3bd
00000240: bd56 283e dd2e 333d 144f e7bd 7993 3ebd
00000250: 79f5 84bd d014 db3d c43e e93d 36e2 f9bd
00000260: aa28 9e3d 69a0 3bbb bc4f f5bd d316 23bd
00000270: 10f4 a13d 02d8 53bd 0b04 cf3d 6308 063e
00000280: 864f 4e3d a9cb 31bd 13d8 83bd 1e9e 6abd
00000290: d213 c33d bba7 b5bc 7df9 123e 7348 26be
000002a0: d992 9f3d baa3 15be 5d25 05be f70b 283e
000002b0: f1aa 88bd 423a b2bb f4ad 69bd 8b64 893d
000002c0: 410d 2b3d 6088 14be 8048 e1ba 766a 03be
000002d0: 5919 92bd 85e7 ae3d f741 a9bd 6204 173e
000002e0: fb4d 193e 0809 6ebd 35e1 c03d e528 d13c
000002f0: 4db2 09be 4741 a73d e2e3 a1bd 85b3 103e
00000300: 8382 1bbe ae8f 033e 1c8f 4dbd 8171 08be
00000310: b8ba df3c 5406 e4bd 9694 f03d 4f48 103d
00000320: a841 333e 36a9 d3bd 98d0 e1bd 73e3 f83d
00000330: 8465 45bd 23d1 063e a037 033d 7126 afbd
00000340: 5167 23be 1b4a 1fbe 957b 263e 7de7 e53d
00000350: 9a7e bbba 5d35 d2bc 9779 ad3c b52c 993d
00000360: ae1c 17be 9b9c 15bd ed29 0c3e bfbd acbd
00000370: 99cf 093e bbff 9fbd 28ab 78bd a080 4ebc
00000380: 28fe 63bd d1e4 6fbd c124 0b3e fbd4 2fbe
00000390: c258 d23d 5154 1dbe b5fc 9c3d e878 5b3d
000003a0: 53e0 43bd f544 48bc 3301 f73d 4acf b43d
000003b0: c24b f3bd 1c5f b4bd 44ac 2abe 3d79 b9bd
000003c0: 5979 21bc 88eb be3d ccec 02be 1b90 523d
000003d0: 1bd7 083e cd52 d93d b698 c13d bcf2 97bd
000003e0: 41a4 943d a401 053e f47c 223e b5e0 1a3d
000003f0: 3f03 c4bc 4296 cdbd 9583 cbbc 4447 27be

layers.4.bias f4 [20]
0.06628125 -0.12992854 -0.17015497 0.03574295 0.1536803 0.16521572 -0.050799042 0.111866415
0.16571826 0.07826334 0.16474135 0.041849717 0.13627896 0.04843406 0.08300191 -0.023650005
0.056441806 -0.07348183 -0.12550528 -0.122754805
00000000: 77be 873d fd0b 05be 1b3d 2ebe 3367 123d
00000010: 5e5e 1d3e 4f2e 293e a812 50bd 381a e53d
00000020: 0cb2 293e 8848 a03d f5b1 283e 9c6a 2b3d
00000030: b68c 0b3e cb62 463d e8fc a93d a8bd c1bc
00000040: 862f 673d a47d 96bd 7584 00be df66 fbbd
