data/models/test_dc9_only_20_bins_low_init_lr_slow/checkpoints/epoch_50.pt (torch, 8289 bytes, 6 tensors)

layers.0.weight f4 [16, 4]
0.20582357 -0.51784724 -0.52560323 0.054225266 -0.4748316 -0.24434613 0.2511091 -0.31450117
-0.07961053 -0.21226422 0.07905281 -0.293144 0.18627407 0.055853188 -0.27590275 -0.31063464
0.20030072 0.099289946 -0.10291726 -0.14077044 -0.18142746 -0.50102973 -0.0014761222 0.1397931
0.36881983 -0.120982505 0.28689656 -0.3099751 -0.17888312 0.19416393 -0.08985656 0.16049848
0.4617187 -0.22865938 -0.3263543 0.102161065 0.1403156 0.18552661 -0.45953047 0.29919684
-0.4099212 0.31449652 -0.16652846 0.020067757 -0.23204014 -0.4692534 -0.07830019 0.43170348
-0.1795149 0.44014674 0.11360993 0.21116894 0.1771851 -0.2686785 0.54557157 0.35650206
0.23515081 -0.02201188 -0.07455403 0.17504275 -0.45624512 0.24512063 -0.25254843 0.05178389
00000000: 6ac3 523e a391 04bf ef8d 06bf 501b 5e3d
00000010: 211d f3be df35 7abe 5f91 803e 4c06 a1be
00000020: d80a a3bd cb5b 59be 71e6 a13d f816 96be
00000030: a1be 3e3e 50c6 643d 2043 8dbe 810b 9fbe
00000040: a21b 4d3e 8758 cb3d 49c6 d2bd 2026 10be
00000050: 1fc8 39be 7c43 00bf 717a c1ba ec25 0f3e
00000060: f4d5 bc3e adc5 f7bd 1be4 923e 0eb5 9ebe
00000070: 232d 37be e9d2 463e b706 b8bd b759 243e
00000080: 6566 ec3e af25 6abe e917 a7be d239 d13d
00000090: e5ae 0f3e b0fa 3d3e 9447 ebbe 5430 993e
000000a0: 31e1 d1be b005 a13e 7086 2abe 2365 a43c
000000b0: ee9b 6dbe fb41 f0be da5b a0bd 3d08 dd3e
000000c0: c1d2 37be ea5a e13e 53ac e83d ac3c 583e
000000d0: 0370 353e 3a90 89be 94aa 0b3f 7087 b63e
000000e0: 60cb 703e 4252 b4bc c9af 98bd 683e 333e
000000f0: f698 e9be e700 7b3e 074e 81be 581b 543d

layers.0.bias f4 [16]
0.2957686 0.03645303 0.24414046 -0.25710487 -0.48072642 -0.096293606 -0.17350294 0.4850425
0.022596266 0.36472678 -0.32806525 0.4718395 -0.37414315 -0.1629747 -0.22722211 0.3000823
00000000: fb6e 973e c64f 153d f5ff 793e 40a3 83be
00000010: c621 f6be 9535 c5bd c1aa 31be 7e57 f83e
00000020: ce1b b93c 78bd ba3e 2bf8 a7be f294 f13e
00000030: b18f bfbe d7e2 26be eaac 68be 63a4 993e

layers.2.weight f4 [32, 16]
-0.080575556 0.20511973 0.025672749 0.23694743 -0.28382796 -0.021767562 -0.20749848 0.052573584
0.12063698 -0.015357087 0.24571052 -0.13542548 -0.17644854 -0.2597584 0.0974983 -0.20801473
0.14915088 -0.102975935 -0.058542214 -0.09628111 0.12351564 -0.0097411405 0.065262586 0.1471998
0.046834685 0.10495481 0.060217366 -0.12018345 0.08772756 -0.051593672 0.103903495 0.14952044
-0.062868506 -0.1442725 -0.21159235 -0.14632937 -0.014129937 0.16864002 -0.13976386 -0.19488141
-0.036741525 -0.037297368 -0.1366744 -0.16651705 0.10064596 -0.20106095 0.009578675 0.10369721
-0.036457416 0.077747636 0.15126427 -0.0035049347 0.054743744 -0.06419499 -0.044279348 0.12843864
0.16336001 -0.03280159 -0.017881602 -0.12633115 0.09927056 -0.0074578887 0.039254755 -0.14183182
-0.17742464 -0.15813151 0.12725505 -0.12957078 0.03401211 -0.12311122 -0.14819455 -0.06479871
0.16801786 -0.17847997 -0.15636337 0.032862127 -0.0306755 -0.15679821 0.24930906 -0.21319264
-0.14820604 0.025255028 0.0042971 0.12213604 -0.17615224 0.055384967 0.14205064 0.1745114
-0.04626949 -0.113479376 -0.22949193 0.027426261 -0.103571214 0.284703 0.04700221 -0.076831445
0.012454359 -0.18217416 -0.15805078 -0.12276143 -0.11358246 -0.056798104 0.16393861 0.03566456
0.11420789 0.077224396 0.13126479 0.016043363 -0.09343946 -0.09272115 0.08289681 0.039110083
0.08563967 -0.059584837 0.102170505 -0.04142948 -0.2620171 0.25697035 0.12820089 -0.04950073
-0.052119948 0.025966616 0.14303663 0.21972549 0.15235193 -0.15931223 -0.108564936 0.08797947
0.22890855 -0.13907062 -0.047909677 -0.04642865 0.057731874 -0.09404772 -0.0039104493 -0.18937972
-0.002389597 -0.20716012 0.01758343 0.029056383 0.05044652 -0.05580277 -0.13761534 -0.22410452
-0.06239595 -0.16989176 0.1972029 -0.024415335 -0.16762364 0.017375953 0.15901287 0.12825376
-0.20164686 0.19027086 -0.041003346 0.18176489 -0.0885424 0.12258921 -0.19669542 -0.18599844
0.025714261 -0.03213776 -0.073786214 0.065061465 0.1897327 -0.11744275 0.058519438 0.25419036
0.070671484 0.13690594 0.111439936 -0.23079382 0.08240249 0.2309168 -0.008073044 -0.15262105
-0.11759791 0.18565504 0.20956583 0.19182764 -0.053729817 -0.14649434 0.111898705 0.17905441
0.21123302 0.056294214 -0.1481582 0.20019925 -0.01520973 0.22589427 0.23736113 -0.03388947
-0.06688746 0.015680779 0.20890002 -0.07476564 -0.10710976 -0.26668808 -0.017219855 -0.018092468
-0.23959303 0.020606492 -0.062140975 -0.2272105 0.08486096 -0.18090881 0.13054338 -0.1457764
-0.15550387 0.1526323 0.08643717 -0.17671001 0.08057805 0.12732556 0.14424707 0.21069407
-0.14827248 -0.11520145 0.009290367 0.14425108 0.15320572 -0.09880698 0.108133845 0.15224473
0.14018968 0.05472648 -0.08921548 0.10651939 -0.07561464 -0.19772898 -0.116557814 -0.07813518
-0.24611275 0.09677157 -0.24655093 -0.20108789 0.21119675 -0.1196889 -0.16851969 0.038665
0.20850594 -0.14787735 0.025769232 0.041878656 0.025161078 -0.17316432 -0.2705542 -0.043925595
-0.19407786 0.17076914 -0.15217707 0.166536 0.062854365 -0.06825404 0.07193804 -0.042359777
00000000: cc04 a5bd e80a 523e a84f d23c 59a2 723e
00000010: e651 91be e351 b2bc 7b7a 54be 6657 573d
00000020: 8510 f73d 4b9c 7bbc 8a9b 7b3e faac 0abe
00000030: edae 34be 0eff 84be 30ad c73d d001 55be
00000040: 02bb 183e 0ce5 d2bd f6c9 6fbd 082f c5bd
00000050: c5f5 fc3d 4e99 1fbc 64a8 853d 8bbb 163e
00000060: bad5 3f3d 8cf2 d63d 7ca6 763d be22 f6bd
00000070: 82aa b33d e353 53bd 5bcb d43d e31b 193e
00000080: 34c1 80bd 2cbc 13be aaab 58be 5ed7 15be
00000090: 4081 67bc f8af 2c3e 421e 0fbe fe8e 47be
000000a0: 487e 16bd 20c5 18bd 60f4 0bbe 7283 2abe
000000b0: 781f ce3d ece2 4dbe e0ef 1c3c 345f d43d
000000c0: 5f54 15bd 273a 9f3d 05e5 1a3e 0cb3 65bb
000000d0: fa3a 603d aa78 83bd 435e 35bd 6b85 033e
000000e0: d947 273e f65a 06bd 707c 92bc f45c 01be
000000f0: 5d4e cb3d 4e61 f4bb 98c9 203d 5c3c 11be
00000100: ceae 35be 3aed 21be 264f 023e 34ae 04be
00000110: 4850 0b3d bc21 fcbd 50c0 17be 30b5 84bd
00000120: e00c 2c3e 74c3 36be b81d 20be 709a 063d
00000130: 304b fbbc b68f 20be e04a 7f3e 2c4f 5abe
00000140: 53c3 17be a2e3 ce3c b0ce 8c3b 7622 fa3d
00000150: 4161 34be 59db 623d b975 113e 1eb3 323e
00000160: 1485 3dbd e067 e8bd efff 6abe 0aad e03c
00000170: 251d d4bd 97c4 913e 6485 403d ce59 9dbd
00000180: 5e0d 4c3c dd8b 3abe 10d8 21be 586a fbbd
00000190: ec9d e8bd 21a5 68bd 86df 273e 0015 123d
000001a0: d4e5 e93d d327 9e3d 476a 063e 5f6d 833c
000001b0: 305d bfbd 96e4 bdbd cdc5 a93d e531 203d
000001c0: da63 af3d 3b0f 74bd c53e d13d f5b1 29bd
000001d0: 1b27 86be 9e91 833e 1847 033e 47c1 4abd
000001e0: ba7b 55bd f1b7 d43c 3278 123e b8ff 603e
000001f0: 2502 1c3e bf22 23be 4b57 debd 952e b43d
00000200: 0167 6a3e 8768 0ebe f03c 44bd f82b 3ebd
00000210: 4278 6c3d 179c c0bd 3a23 80bb c2ec 41be
00000220: c99a 1cbb c821 54be 200b 903c a707 ee3c
00000230: 03a1 4e3d 7291 64bd 09eb 0cbe a87b 65be
00000240: e592 7fbd 1bf8 2dbe 8fef 493e ab02 c8bc
00000250: 88a5 2bbe 0458 8e3c 45d4 223e f454 033e
00000260: 847c 4ebe 5dd6 423e 20f3 27bd 9320 3a3e
00000270: b855 b5bd 0d10 fb3d 866a 49be 6076 3ebe
00000280: b7a6 d23c e2a2 03bd 3a1d 97bd f23e 853d
00000290: 4a49 423e d385 f0bd 14b2 6f3d 3d25 823e
000002a0: 36bc 903d 1231 0c3e 9f3a e43d 3755 6cbe
000002b0: a3c2 a83d 7475 6c3e cd44 04bc b148 1cbe
000002c0: 2cd7 f0bd 5b1c 3e3e 6d98 563e 776e 443e
000002d0: cc13 5cbd 9d02 16be 262b e53d 0a5a 373e
000002e0: 784d 583e c394 663d c8b6 17be 0801 4d3e
000002f0: 3b32 79bc d450 673e cc0e 733e afcf 0abd
00000300: 4bfc 88bd fa74 803c e3e9 553e ba1e 99bd
00000310: 5d5c dbbd 578b 88be a710 8dbc a836 94bc
00000320: e057 75be f2ce a83c 8987 7ebd dfa9 68be
00000330: 95cb ad3d 2940 39be 2aad 053e 6946 15be
00000340: 683c 1fbe a44b 1c3e f905 b13d 78f3 34be
00000350: 1b06 a53d a261 023e 81b5 133e 30c0 573e
00000360: bed4 17be bdee ebbd a036 183c 8eb6 133e
00000370: f6e1 1c3e 505b cabd 4775 dd3d 0be6 1b3e
00000380: e28d 0f3e e028 603d 9bb6 b6bd d726 da3d
00000390: d9db 9abd 7779 4abe ddb5 eebd 5605 a0bd
000003a0: fb04 7cbe 2c30 c63d d977 7cbe fce9 4dbe
000003b0: f643 583e 741f f5bd 6d90 2cbe 315f 1e3d
000003c0: 9582 553e 296d 17be ff19 d33c f488 2b3d
000003d0: 9b1e ce3c fd51 31be 1586 8abe 53eb 33bd
000003e0: 59bc 46be 1bde 2e3e 4ed4 1bbe 6a88 2a3e
000003f0: cab9 803d c6c8 8bbd 4054 933d 7281 2dbd

layers.2.bias f4 [32]
0.06469841 0.049389135 -0.18481424 0.13701874 -0.16847274 0.0762537 0.07106068 -0.09347284
0.12612058 -0.030632567 -0.09526608 -0.18892449 0.0472088 -0.11020962 0.17801961 0.035630524
-0.17334592 0.221309 -0.2016105 -0.038517114 -0.21281815 -0.121826224 0.05940242 0.2855247
-0.05406658 -0.15646987 0.089884214 -0.2126379 0.022056539 -0.20087472 0.14664328 -0.23535222
00000000: 9a80 843d 434c 4a3d f23f 3dbe a44e 0c3e
00000010: 1e84 2cbe e62a 9c3d 4388 913d b06e bfbd
00000020: c125 013e 26f1 fabc dd1a c3bd 6c75 41be
00000030: 045e 413d 95b5 e1bd c64a 363e 50f1 113d
00000040: 9881 31be d49e 623e fc72 4ebe 1fc4 1dbd
00000050: 00ed 59be 0780 f9bd f44f 733d 4b30 923e
00000060: eb74 5dbd a339 20be 3715 b83d c0bd 59be
00000070: eaaf b43c 1ab2 4dbe a829 163e 2c00 71be

layers.4.weight f4 [20, 32]
0.23223487 0.051686183 -0.13041256 0.0053248554 0.12527739 -0.17814559 -0.10383425 0.17807274
0.1641264 0.058046814 -0.10205537 0.1520438 -0.08872465 0.064530656 -0.05772712 -0.14110686
0.11719837 -0.05724339 -0.053328034 -0.026202204 -0.106397554 -0.1444263 0.012791676 -0.2050147
-0.032976385 -0.00044823572 -0.054887462 0.17536458 0.1277309 -0.06482259 0.118514694 -0.039325178
0.0014884886 0.0022147654 0.08858751 0.060473606 -0.15031709 0.11530353 0.03382669 0.19097513
0.0997669 -0.059008483 -0.044774704 0.023980627 -0.17225726 0.12186522 -0.104388066 0.14524125
0.2456141 0.12538798 0.05810448 -0.16588607 -0.041808207 -0.17667471 0.12980014 0.0633623
-0.01628806 -0.12071243 -0.040162247 -0.035253122 0.1842411 -0.1042391 0.04365122 -0.0018824935
0.0397473 -0.05324941 0.085102126 0.046795443 -0.050657734 0.16433679 0.06736845 0.040438853
-0.02946825 -0.090177834 0.12608558 0.001401631 0.052513108 0.18505864 -0.023945812 0.033193972
-0.039952826 0.034883395 0.11652709 -0.058436792 -0.09368302 0.10182475 -0.05944599 0.094895184
-0.15474126 0.11496988 0.081023954 -0.05014755 0.21551417 0.2044456 -0.028713195 -0.09985147
0.15068406 -0.2139035 0.15737475 -0.053479828 0.11717151 -0.070443906 0.09561265 -0.06645963
0.15297906 0.0032652908 0.034885693 -0.08144798 -0.062254187 0.104491405 0.04410224 0.070029855
0.1674068 -0.07750817 -0.0045629176 0.10593197 0.0018772244 -0.0999442 -0.11011916 0.08759979
0.09461156 0.20275083 -0.075072296 -0.07908775 0.24389994 0.052363075 -0.0732854 -0.01339674
0.1265574 0.05438545 -0.091022715 -0.09882928 -0.05401732 -0.18587759 -0.08727934 0.01719844
-0.09291773 0.118899494 0.027133828 -0.1247292 0.0776388 0.1373504 -0.121266425 -0.12758061
0.25878 0.0028868383 -0.11317831 -0.006525719 -0.020418761 0.079461135 0.00924092 -0.12570971
0.05664514 0.016840508 -0.15415326 -0.029491454 0.037640404 -0.084739655 0.06762619 0.13089137
0.024299975 -0.10582559 -0.06437697 -0.12520094 0.09525265 -0.03450081 0.11710886 -0.041057132
0.15475738 -0.12859443 -0.23894742 0.16858533 -0.13841228 -0.0022785228 -0.1177506 0.055949613
0.094216205 -0.17390832 -0.0011363445 -0.11265553 -0.109294675 0.0996449 -0.11483337 0.000112581525
0.13187861 -0.015568404 0.054863997 -0.0036511489 -0.025265284 0.050686184 -0.0871833 0.14130981
-0.10395776 0.11516054 -0.050185308 -0.08602766 0.027310714 -0.09515906 0.101981774 0.010772121
0.17447403 -0.09335408 -0.101677224 0.1182941 -0.042333394 0.15789413 0.056329962 -0.12379536
-0.09099747 -0.11241606 0.16233861 0.12271094 -0.014264224 -0.036098972 -0.017273609 0.12504281
-0.17061768 -0.011328084 0.1252457 -0.049099606 0.11265551 -0.10651702 -0.06803152 -0.012603909
0.04522747 -0.09928868 0.13588239 -0.13595971 0.102708355 -0.15171736 0.02282699 0.028097393
-0.07208891 -0.0619955 0.06968412 0.099610224 -0.09440195 -0.05194991 -0.14909367 -0.15348157
-0.05363913 0.0805635 -0.1281022 0.02561463 0.0843875 0.07685313 -0.015982224 -0.046604082
0.07411215 0.08619529 0.14133097 0.031703413 -0.031774327 -0.1170472 -0.053054117 -0.1633578
00000000: face 6d3e e4b4 533d df8a 05be 207c ae3b
00000010: b748 003e cc6b 36be 0da7 d4bd b358 363e
00000020: c010 283e 7fc2 6d3d 6802 d1bd 5fb1 1b3e
00000030: 45b5 b5bd a628 843d 4673 6cbd 517e 10be
00000040: b305 f03d 0b78 6abd 7f6e 5abd 01a6 d6bc
00000050: f6e6 d9bd 7de4 13be 2e94 513c 60ef 51be
00000060: 3f12 07bd 2e01 ebb9 add1 60bd c692 333e
00000070: e4cb 023e b5c1 84bd d5b7 f23d 7013 21bd
00000080: 6419 c33a 9925 113b 5e6d b53d 2cb3 773d
00000090: b9ec 19be 4224 ec3d db8d 0a3d fc8e 433e
000000a0: 9752 cc3d e1b2 71bd ae65 37bd 0573 c43c
000000b0: 3564 30be 7994 f93d 69c9 d5bd 1fba 143e
000000c0: 4382 7b3e b565 003e f7fe 6d3d 0ade 29be
000000d0: 153f 2bbd 37ea 34be 54ea 043e 18c4 813d
000000e0: 8a6e 85bc 1438 f7bd 2b81 24bd 9465 10bd
000000f0: b3a9 3c3e 4f7b d5bd 9fcb 323d 00be f6ba
00000100: 11ce 223d 0e1c 5abd 064a ae3d 94ac 3f3d
00000110: 7c7e 4fbd e747 283e 78f8 893d 36a3 253d
00000120: 6667 f1bc 28af b8bd 941c 013e efb6 b73a
00000130: fc17 573d 0380 3d3e 022a c4bc 67f6 073d
00000140: 93a5 23bd e4e1 0e3d c1a5 ee3d 6b5b 6fbd
00000150: e2dc bfbd 7f89 d03d a37d 73bd 6858 c23d
00000160: 7e74 1ebe 5475 eb3d e3ef a53d 8467 4dbd
00000170: bfaf 5c3e 305a 513e ef37 ebbc ed7e ccbd
00000180: ec4c 1a3e 8509 5bbe d926 213e aa0d 5bbd
00000190: 9ef7 ef3d e544 90bd 91d0 c33d fd1b 88bd
000001a0: 8ba6 1c3e 7dfe 553b 4de4 0e3d 33ce a6bd
000001b0: 3ffe 7ebd 97ff d53d 8da4 343d d06b 8f3d
000001c0: b06c 2b3e 9abc 9ebd 8784 95bb dcf2 d83d
000001d0: 330d f63a 8baf ccbd 2786 e1bd 8567 b33d
000001e0: b5c3 c13d ea9d 4f3e 81bf 99bd c2f8 a1bd
000001f0: e8c0 793e aa7a 563d a816 96bd 007e 5bbc
00000200: 4398 013e 47c3 5e3d 1e6a babd 0167 cabd
00000210: 4441 5dbd b256 3ebe 83bf b2bd bee3 8c3c
00000220: a74b bebd 9481 f33d c347 de3c 0672 ffbd
00000230: 1701 9f3d 95a5 0c3e 885a f8bd 7ea4 02be
00000240: d07e 843e 1c31 3d3b 08ca e7bd b3d5 d5bb
00000250: 3f45 a7bc 85bc a23d 3a67 173c 0cba 00be
00000260: bc04 683d 1bf5 893c 5ada 1dbe 1098 f1bc
00000270: d32c 1a3d fc8b adbd 9a7f 8a3d 6308 063e
00000280: be10 c73c 16bb d8bd 13d8 83bd ad34 00be
00000290: d213 c33d b950 0dbd c5d6 ef3d 862b 28bd
000002a0: b878 1e3e 42ae 03be a2ae 74be a2a1 2c3e
000002b0: f3bb 0dbe 4553 15bb 3a27 f1bd 6c2b 653d
000002c0: 6df4 c03d 0615 32be 65f1 94ba f1b7 e6bd
000002d0: e3d5 dfbd a012 cc3d c22d ebbd bf19 ec38
000002e0: 300b 073e 9f12 7fbc 12b9 603d 1d48 6fbb
000002f0: 24f9 cebc 519c 4f3d 288d b2bd 85b3 103e
00000300: cee7 d4bd 4ad9 eb3d 1c8f 4dbd 452f b0bd
00000310: b8ba df3c c1e2 c2bd d2db d03d 8d7d 303c
00000320: 52a9 323e 6d30 bfbd 263c d0bd 2d44 f23d
00000330: c865 2dbd 00af 213e 3fba 663d 6c88 fdbd
00000340: e25c babd 643a e6bd 183c 263e e04f fb3d
00000350: 7eb4 69bc 84dc 13bd 6281 8dbc 390b 003e
00000360: 67b6 2ebe 6e99 39bc 6940 003e ab1c 49bd
00000370: efb7 e63d 9825 dabd 1c54 8bbd a080 4ebc
00000380: 7140 393d dd57 cbbd c124 0b3e 0639 0bbe
00000390: c258 d23d cc5b 1bbe abff ba3c 812c e63c
000003a0: 5aa3 93bd feee 7dbd 8cb6 8e3d 7200 cc3d
000003b0: cf55 c1bd 6ec9 54bd 03ac 18be 462a 1dbe
000003c0: b4b4 5bbd 7afe a43d 392d 03be c6d5 d13c
000003d0: 5bd3 ac3d 2c65 9d3d 27ed 82bc ece3 3ebd
000003e0: 1cc8 973d 2887 b03d 11b9 103e 70db 013d
000003f0: cc25 02bd 71b6 efbd 464f 59bd 4447 27be

layers.4.bias f4 [20]
0.0161038 -0.123067066 -0.1300113 0.02404965 0.110089615 0.12000134 -0.01763762 0.09950503
0.11107544 0.09679285 0.12549832 0.043603677 0.13669094 0.06528521 0.06537363 0.01854175
0.048554063 -0.03430384 -0.06937426 -0.09007744
00000000: 1eec 833c 960a fcbd af21 05be c603 c53c
00000010: aa76 e13d 43c3 f53d c57c 90bc 4bc9 cb3d
00000020: 857b e33d 543b c63d a282 003e c599 323d
00000030: b6f8 0b3e 41b4 853d 9ce2 853d dee4 973c
00000040: a0e0 463d 2f82 0cbd 1814 8ebd 857a b8bd
