data/models/test_dc9_only_20_bins_low_init_lr_slow/checkpoints/epoch_90.pt (torch, 8289 bytes, 6 tensors)

layers.0.weight f4 [16, 4]
0.17302996 -0.5435538 -0.5717596 0.057811655 -0.5031147 -0.26517755 0.26144916 -0.29717565
-0.07175404 -0.22277847 0.073296286 -0.29930356 0.13831002 0.0023415047 -0.3210726 -0.33748147
0.21560816 0.09538383 -0.08494179 -0.14642273 -0.18608077 -0.51520056 0.021559421 0.10652564
0.38276905 -0.118246526 0.29507047 -0.3160467 -0.20104788 0.17835198 -0.09630455 0.14141496
0.459639 -0.20997785 -0.35030428 0.09914217 0.14229524 0.15874386 -0.52554893 0.30557472
-0.42284638 0.31812474 -0.16719136 -0.0056932867 -0.22116926 -0.47078866 -0.08785463 0.4624785
-0.20976411 0.44643378 0.06634413 0.21108435 0.15912472 -0.26775837 0.6200146 0.33373615
0.25422487 -0.019951578 -0.07159487 0.19885579 -0.46848533 0.2080536 -0.28779677 0.04985535
00000000: c42e 313e 5826 0bbf d65e 12bf eacb 6c3d
00000010: 20cc 00bf 5ac5 87be aadc 853e 6827 98be
00000020: c8f3 92bd 0a20 64be 5d1c 963d 513e 99be
00000030: 24a1 0d3e ee73 193b a163 a4be 5fca acbe
00000040: 63c8 5c3e 9958 c33d f6f5 adbd d7ef 15be
00000050: f58b 3ebe 2fe4 03bf 629d b03c 1d2a da3d
00000060: 4efa c33e 3c2b f2bd 7a13 973e e0d0 a1be
00000070: 7fdf 4dbe e7a1 363e 523b c5bd 15cf 103e
00000080: ce55 eb3e 6f04 57be 155b b3be 0d0b cb3d
00000090: d8b5 113e c08d 223e 608a 06bf 4a74 9c3e
000000a0: 527f d8be 3fe1 a23e 3634 2bbe c08e babb
000000b0: 327a 62be 360b f1be 21ed b3bd fbc9 ec3e
000000c0: 67cc 56be f892 e43e 6edf 873d 7f26 583e
000000d0: 97f1 223e a017 89be 47b9 1e3f 77df aa3e
000000e0: c329 823e 7e71 a3bc 55a0 92bd daa0 4b3e
000000f0: 4fdd efbe 010c 553e 195a 93be 2035 4c3d

layers.0.bias f4 [16]
0.31247774 0.025939543 0.2504107 -0.25180292 -0.47970283 -0.095076434 -0.14399686 0.49106538
0.04369147 0.35716218 -0.3500719 0.4615379 -0.3894493 -0.14534247 -0.2194325 0.30035302
00000000: 15fd 9f3e 2a7f d43c d535 803e 50ec 80be
00000010: 9c9b f5be 6fb7 c2bd ea73 13be ec6c fb3e
00000020: d4f5 323d f6dd b63e a03c b3be b24e ec3e
00000030: e665 c7be a8d4 14be eab2 60be dfc7 993e

layers.2.weight f4 [32, 16]
-0.085329466 0.22249559 0.032882728 0.24156201 -0.292083 -0.004943397 -0.2061498 0.051771984
0.1191194 -0.022244323 0.23770891 -0.13476196 -0.16407764 -0.3002108 0.07334157 -0.20110057
0.16111584 -0.116528854 -0.057479475 -0.09515757 0.09283681 -0.024010273 0.05704345 0.15085202
0.029734356 0.10158187 0.02692974 -0.11752475 0.10894357 -0.07287885 0.07652999 0.1475755
-0.062868506 -0.1442725 -0.21159235 -0.14632937 -0.014129937 0.16864002 -0.13976386 -0.19488141
-0.036741525 -0.037297368 -0.1366744 -0.16651705 0.10064596 -0.20106095 0.009578675 0.10369721
-0.03494059 0.07447423 0.16479497 -0.009259683 0.0039461134 -0.07404981 -0.041311856 0.13146955
0.15826209 -0.033637356 -0.022548685 -0.12901987 0.098911405 -0.000109287445 0.015555912 -0.13998841
-0.17742464 -0.15813151 0.12725505 -0.12957078 0.03401211 -0.12311122 -0.14819455 -0.06479871
0.16801786 -0.17847997 -0.15636337 0.032862127 -0.0306755 -0.15679821 0.24930906 -0.21319264
-0.18862472 0.026816271 0.009852343 0.0976987 -0.19636765 0.029600294 0.14532901 0.17650685
-0.063672796 -0.119799055 -0.23582923 0.014682439 -0.09894691 0.30095524 0.009099075 -0.072287835
0.01685219 -0.1906377 -0.14843635 -0.12123804 -0.10439346 -0.0501732 0.16474612 0.038925756
0.10924629 0.07562043 0.12971875 0.019642206 -0.076442346 -0.11215858 0.07788603 0.05206702
0.09467767 -0.057723846 0.10599085 -0.08582661 -0.2653627 0.2622049 0.13868344 -0.048000284
-0.043188397 0.0059698815 0.17203583 0.21825372 0.17127542 -0.20444894 -0.09108483 0.09367949
0.23813953 -0.07126011 -0.030784123 -0.08090018 0.007199119 -0.042263098 -0.013103568 -0.20262681
-0.010533406 -0.23878837 0.02281514 0.06384613 0.006324165 -0.047337357 -0.12296099 -0.24322496
-0.088275716 -0.14887193 0.19610783 -0.054460894 -0.20083342 0.00914804 0.1391013 0.14371325
-0.20729482 0.19746514 -0.02559532 0.18066347 -0.058099937 0.13745362 -0.20652473 -0.16705276
0.026277816 -0.04994254 -0.09459597 0.039028585 0.1763144 -0.096178636 0.048681386 0.25061136
0.08190613 0.14385004 0.115573294 -0.23459256 0.068410896 0.23473659 0.0016221574 -0.15038519
-0.11146528 0.18902723 0.20124564 0.18889846 -0.0756166 -0.15095472 0.10387628 0.18229418
0.21031533 0.0521964 -0.15260816 0.20231271 -0.016858853 0.21831346 0.26796988 -0.031235525
-0.046135258 0.018106215 0.22462933 -0.09933927 -0.14176567 -0.29315907 -0.010090101 -0.005839901
-0.25133038 0.010286466 -0.14043312 -0.25633454 0.07349259 -0.20386839 0.08892279 -0.15136266
-0.15867631 0.13882884 0.08052728 -0.2229394 0.07934399 0.11847733 0.13632074 0.20257837
-0.14891088 -0.12612258 0.03840014 0.14144707 0.17269154 -0.11342461 0.16992423 0.15033257
0.14722401 0.052839488 -0.07721073 0.11682925 -0.06426557 -0.20868379 -0.122600235 -0.08431882
-0.2526552 0.074713305 -0.24226186 -0.21363232 0.24396253 -0.1368762 -0.19341873 0.04021907
0.21222126 -0.15553099 0.026466437 0.045877114 0.002965617 -0.18122843 -0.26987153 -0.028732233
-0.19440071 0.17508513 -0.1324643 0.15332589 0.069847584 -0.05926814 0.08456306 -0.025064176
00000000: 37c1 aebd e2d5 633e 0ab0 063d 085c 773e
00000010: e78b 95be 38fc a1bb ef18 53be dc0e 543d
00000020: dff4 f33d ba39 b6bc f769 733e 0aff 09be
00000030: f803 28be 3bb5 99be 1b34 963d 4fed 4dbe
00000040: 8dfb 243e aea6 eebd 996f 6bbd f9e1 c2bd
00000050: 3a21 be3d 31b1 c4bc 65a6 693d f478 1a3e
00000060: 7795 f33c 280a d03d c29b dc3c d1b0 f0bd
00000070: ce1d df3d 8241 95bd c1bb 9c3d 081e 173e
00000080: 34c1 80bd 2cbc 13be aaab 58be 5ed7 15be
00000090: 4081 67bc f8af 2c3e 421e 0fbe fe8e 47be
000000a0: 487e 16bd 20c5 18bd 60f4 0bbe 7283 2abe
000000b0: 781f ce3d ece2 4dbe e0ef 1c3c 345f d43d
000000c0: dd1d 0fbd f285 983d 03c0 283e edb5 17bc
000000d0: 664e 813b 6da7 97bd 9f36 29bd f49f 063e
000000e0: 750f 223e 53c7 09bd 05b8 b8bc c91d 04be
000000f0: 1092 ca3d 4031 e5b8 39de 7e3c 1f59 0fbe
00000100: ceae 35be 3aed 21be 264f 023e 34ae 04be
00000110: 4850 0b3d bc21 fcbd 50c0 17be 30b5 84bd
00000120: e00c 2c3e 74c3 36be b81d 20be 709a 063d
00000130: 304b fbbc b68f 20be e04a 7f3e 2c4f 5abe
00000140: d726 41be ccad db3c b96b 213c 4216 c83d
00000150: 9a14 49be 517c f23c 21d1 143e 36be 343e
00000160: e266 82bd 3559 f5bd 387d 71be 9d8e 703c
00000170: ada4 cabd ce16 9a3e 4914 153c a50b 94bd
00000180: 9b0d 8a3c 8736 43be b3ff 17be a64b f8bd
00000190: 3dcc d5bd 6a82 4dbd 35b3 283e 9d70 1f3d
000001a0: 85bc df3d e2de 9a3d fed4 043e b1e8 a03c
000001b0: ce8d 9cbd 66b3 e5bd b682 9f3d 3a44 553d
000001c0: 5ee6 c13d d76f 6cbd bb11 d93d ddc5 afbd
000001d0: 9fdd 87be b83f 863e 0803 0e3e f29b 44bd
000001e0: 51e6 30bd ff9e c33b 292a 303e e77d 5f3e
000001f0: d362 2f3e 105b 51be af8a babd 08db bf3d
00000200: d9da 733e d2f0 91bd fc2e fcbc feae a5bd
00000210: 96e6 eb3b 121c 2dbd 59b0 56bc 677d 4fbe
00000220: 4f94 2cbc f084 74be d1e6 ba3c c3c1 823d
00000230: f13a cf3b d1e4 41bd f9d2 fbbd f70f 79be
00000240: e6c9 b4bd e271 18be 7ed0 483e 6312 5fbd
00000250: 47a7 4dbe a9e1 153c 9270 0e3e 9129 133e
00000260: 1845 54be 4d34 4a3e 47ad d1bc d8ff 383e
00000270: 33fa 6dbd a4c0 0c3e 387b 53be e10f 2bbe
00000280: 9344 d73c 8c90 4cbd 88bb c1bd 70dc 1f3d
00000290: c38b 343e 4ef9 c4bd 2266 473d 2250 803e
000002a0: 67be a73d 6d4d 133e b1b1 ec3d 0839 70be
000002b0: 031b 8c3d ca5e 703e 929e d43a 93fe 19be
000002c0: e947 e4bd 5b90 413e 5613 4e3e 996e 413e
000002d0: e0dc 9abd e093 1abe 16bd d43d 53ab 3a3e
000002e0: e75c 573e e4cb 553d 5045 1cbe 102b 4f3e
000002f0: 941b 8abc 908d 5f3e 5933 893e a5e1 ffbc
00000300: 53f8 3cbd 7c53 943c 3b05 663e 6372 cbbd
00000310: 052b 11be f218 96be f350 25bc a45c bfbb
00000320: 60ae 80be 9188 283c b3cd 0fbe 483e 83be
00000330: 4883 963d e0c2 50be 271d b63d d0fe 1abe
00000340: 0b7c 22be 2629 0e3e 7deb a43d 3a4a 64be
00000350: 1a7f a23d 3ea4 f23d aa97 0b3e b470 4f3e
00000360: 187c 18be 4726 01be 7749 1d3d 80d7 103e
00000370: 0dd6 303e 294b e8bd 9e00 2e3e c8f0 193e
00000380: e4c1 163e 386e 583d a920 9ebd 2c44 ef3d
00000390: ab9d 83bd 34b1 55be d515 fbbd 58af acbd
000003a0: 065c 81be 4a03 993d 7e13 78be 6ec2 5abe
000003b0: 50d1 793e 4629 0cbe 8f0f 46be c0bc 243d
000003c0: 8850 593e 8443 1fbe 24d0 d83c a4e9 3b3d
000003d0: cc5a 423b f293 39be 9a2c 8abe dc5f ebbc
000003e0: fb10 47be 8449 333e b9a4 07be 7601 1d3e
000003f0: 400c 8f3d 26c3 72bd 662f ad3d 6353 cdbc

layers.2.bias f4 [32]
0.06564956 0.04571786 -0.18481424 0.14461358 -0.16847274 0.08196774 0.07606968 -0.090372294
0.13309087 -0.02920522 -0.101588234 -0.18972188 0.061162114 -0.11986414 0.17018206 0.050056573
-0.17629509 0.22342345 -0.1872616 -0.027091911 -0.2177182 -0.13421108 0.039576057 0.28553542
-0.053411704 -0.1597348 0.08442123 -0.20466922 0.024754746 -0.20799142 0.14873853 -0.23535222
00000000: 4773 863d a742 3b3d f23f 3dbe 9515 143e
00000010: 1e84 2cbe b4de a73d 6cca 9b3d 1c15 b9bd
00000020: f948 083e c93f efbc 7e0d d0bd 7446 42be
00000030: 2085 7a3d 557b f5bd 3544 2e3e 1f08 4d3d
00000040: b386 34be 1ec9 643e 81c1 3fbe dbef ddbc
00000050: 85f1 5ebe a16e 09be 811a 223d b331 923e
00000060: 3bc6 5abd 8591 23be 0ae5 ac3d cf94 51be
00000070: 77ca ca3c b4fb 54be ea4e 183e 2c00 71be

layers.4.weight f4 [20, 32]
0.28033122 0.035009157 -0.13041256 -0.016212352 0.12527739 -0.21728791 -0.110657975 0.18702693
0.21523468 0.023164522 -0.065637596 0.14168221 -0.10573031 0.062308677 -0.08273616 -0.13999473
0.1707358 -0.046144575 -0.05721293 -0.02493073 -0.16250719 -0.14831749 0.07569171 -0.20511776
0.01187051 0.057697896 -0.0745914 0.2232424 0.13438459 -0.05853201 0.14511164 -0.039325178
0.014443919 -0.010794941 0.08858751 0.04506651 -0.15031709 0.08422615 0.022794103 0.20578368
0.15243818 -0.05566606 -0.01236351 0.009880311 -0.17431512 0.10507338 -0.1056357 0.13944522
0.25504047 0.128079 0.027161535 -0.13623714 -0.08388065 -0.21190543 0.13970193 0.06566623
-0.006134298 -0.12548348 -0.05512552 -0.02271253 0.20073748 -0.10110613 0.05370148 -0.0018824935
0.014610402 -0.05785147 0.085102126 0.02698207 -0.050657734 0.1381557 0.07754377 0.04828623
0.0068801492 -0.0727182 0.13648537 -0.017689323 0.07962786 0.17577767 -0.04144743 0.036744606
-0.0033169412 0.047159765 0.08750415 -0.04159727 -0.109736934 0.04569731 -0.0756197 0.096443206
-0.16030197 0.124083705 0.07161951 -0.035636596 0.22663885 0.20229034 -0.010463368 -0.09985147
0.16936648 -0.21364072 0.15737475 -0.050044857 0.11717151 -0.095356025 0.10745617 -0.06454612
0.1571314 -0.035108145 0.05657705 -0.08149083 -0.11872006 0.11968578 0.029964292 0.057229135
0.19820678 -0.074596964 0.0051649255 0.13123012 -0.018175486 -0.10931244 -0.088673756 0.08769332
0.14145164 0.25363302 -0.08797392 -0.049947638 0.24801414 0.062136 -0.06272415 -0.01339674
0.12616086 0.052488137 -0.091022715 -0.10580712 -0.05401732 -0.19992734 -0.08464113 0.023573263
-0.07306254 0.12964132 0.041926764 -0.12876795 0.06972155 0.13863255 -0.13066217 -0.124646045
0.28081155 0.0032606502 -0.14347884 0.015387028 -0.024752736 0.06507459 -0.005496909 -0.12998042
0.05050834 0.04243549 -0.16113509 -0.047841568 0.033429086 -0.1038326 0.070760004 0.13089137
0.042709686 -0.10985765 -0.06437697 -0.13314526 0.09525265 -0.05378303 0.12530643 -0.039815016
0.16772163 -0.12617628 -0.23348346 0.16300738 -0.13976818 -0.002311483 -0.11634212 0.0474499
0.13065265 -0.17852135 0.052938685 -0.080866404 -0.11767182 0.10468701 -0.11391129 -0.0076384027
0.13766931 0.039409872 0.05123166 0.014710334 -0.024559546 0.03614132 -0.08543787 0.14130981
-0.10145838 0.11462699 -0.050185308 -0.076857485 0.027310714 -0.091410026 0.10117524 0.010979269
0.17117088 -0.0857507 -0.09588783 0.11299523 -0.054516166 0.1712892 0.05533089 -0.12989916
-0.06439129 -0.098989256 0.16453645 0.13145405 -0.011566729 -0.045473576 -0.019739436 0.13080657
-0.19475146 -0.0032347597 0.117308766 -0.038155854 0.10800868 -0.1146767 -0.07639111 -0.012603909
0.06998129 -0.104351625 0.13588239 -0.14349502 0.102708355 -0.15575826 0.010221381 0.03427432
-0.06598047 -0.0762046 0.051229913 0.10089968 -0.07241142 -0.048361126 -0.14112918 -0.17112443
-0.054856338 0.07955883 -0.1869847 0.016869511 0.09111799 0.06410962 -0.04721597 -0.028482772
0.09192548 0.06918224 0.14465986 0.06421116 -0.02712147 -0.10786342 -0.059295416 -0.1633578
00000000: 9387 8f3e c365 0f3d df8a 05be c4cf 84bc
00000010: b748 003e b980 5ebe a6a0 e2bd fd83 3f3e
00000020: 7b66 5c3e 86c3 bd3c 016d 86bd 2415 113e
00000030: 2289 d8bd 6237 7f3d 9371 a9bd c75a 0fbe
00000040: 5ed5 2e3e 1802 3dbd 1b58 6abd 883b ccbc
00000050: 4968 26be 8ae0 17be 4104 9b3d 640a 52be
00000060: 877c 423c a154 6c3d 60c3 98bd a899 643e
00000070: 1d9c 093e 43bf 6fbd 2598 143e 7013 21bd
00000080: 30a6 6c3c 44dd 30bc 5e6d b53d a997 383d
00000090: b9ec 19be c27e ac3d b3ba ba3c f5b8 523e
000000a0: c118 1c3e 1802 64bd 5290 4abc 07e1 213c
000000b0: aa7f 32be b630 d73d 8857 d8bd baca 0e3e
000000c0: aa94 823e 2427 033e de81 de3c c081 0bbe
000000d0: 9ec9 abbd bdfd 58be 060e 0f3e 047c 863d
000000e0: 3902 c9bb be7e 00be 4ccb 61bd a10f babc
000000f0: 208e 4d3e bb10 cfbd 15f6 5b3d 00be f6ba
00000100: 7860 6f3c aaf5 6cbd 064a ae3d 8109 dd3c
00000110: 7c7e 4fbd b078 0d3e 45cf 9e3d c8c7 453d
00000120: e072 e13b 48ed 94bd d2c2 0b3e 33e9 90bc
00000130: ee13 a33d 10ff 333e c8c4 29bd 8381 163d
00000140: 0a61 59bb 992a 413d 6035 b33d e661 2abd
00000150: c2bd e0bd 1a2d 3b3d 80de 9abd 0484 c53d
00000160: 3326 24be 991f fe3d 40ad 923d aef7 11bd
00000170: 0414 683e 3325 4f3e 8c6e 2bbc ed7e ccbd
00000180: 686e 2d3e a2c4 5abe d926 213e d6fb 4cbd
00000190: 9ef7 ef3d 054a c3bd fb11 dc3d c230 84bd
000001a0: 0ee7 203e 8fcd 0fbd 56bd 673d aae4 a6bd
000001b0: 8123 f3bd d11d f53d ad77 f53c 1969 6a3d
000001c0: b8f6 4a3e 4bc6 98bd 893e a93b 3061 063e
000001d0: c2e4 94bc 33df dfbd 969a b5bd 8e98 b33d
000001e0: b3d8 103e 30dc 813e ac2b b4bd e595 4cbd
000001f0: 6bf7 7d3e 5182 7e3d 8575 80bd 007e 5bbc
00000200: 5030 013e cdfd 563d 1e6a babd 67b1 d8bd
00000210: 4441 5dbd c1b9 4cbe 5458 adbd b71c c13c
00000220: d0a1 95bd b2c0 043e 66bb 2b3d bfdb 03be
00000230: 2cca 8e3d b1f5 0d3e 4ecc 05be 6d46 ffbd
00000240: 88c6 8f3e a2b0 553b 1eec 12be e019 7c3c
00000250: 40c6 cabc d445 853d 6a1f b4bb 9619 05be
00000260: d5e1 4e3d d6d0 2d3d 9900 25be 85f5 43bd
00000270: f0ec 083d 30a6 d4bd 9fea 903d 6308 063e
00000280: 5af0 2e3d 0cfd e0bd 13d8 83bd 3b57 08be
00000290: d213 c33d 984b 5cbd 5450 003e 1215 23bd
000002a0: 38bf 2b3e 5b34 01be 4a16 6fbe 68eb 263e
000002b0: 641f 0fbe 407c 17bb c744 eebd d45a 423d
000002c0: cfc9 053e 4dce 36be 3cd6 583d 499d a5bd
000002d0: ecfd f0bd 2566 d63d 534a e9bd 914b fabb
000002e0: 2ff9 0c3e 3f6c 213d 4ad8 513d 9d03 713c
000002f0: 1a31 c9bc ec08 143d 0dfa aebd 85b3 103e
00000300: 69c9 cfbd 8ec1 ea3d 1c8f 4dbd 7567 9dbd
00000310: b8ba df3c 2e35 bbbd f734 cf3d 64e2 333c
00000320: 6b47 2f3e 109e afbd d760 c4bd 0b6a e73d
00000330: 584c 5fbd 7066 2f3e a5a2 623d 4904 05be
00000340: 95df 83bd e1ba cabd 3e7c 283e e49b 063e
00000350: 6182 3dbc 8042 3abd 99b4 a1bc 28f2 053e
00000360: ed6c 47be 43fe 53bb 943f f03d 5049 1cbd
00000370: a833 dd3d 9edb eabd f172 9cbd a080 4ebc
00000380: 5a52 8f3d 4eb6 d5bd c124 0b3e 5cf0 12be
00000390: c258 d23d 187f 1fbe 9477 273c 3b63 0c3d
000003a0: c520 87bd 2811 9cbd 75d6 513d 7ea4 ce3d
000003b0: 704c 94bd 5116 46bd 2b84 10be 3e3b 2fbe
000003c0: 0ab1 60bd bdef a23d eb78 3fbe ee31 8a3c
000003d0: 129c ba3d e84b 833d 8865 41bd b454 e9bc
000003e0: 6d43 bc3d 6baf 8d3d b721 143e 2481 833d
000003f0: d82d debc 7fe7 dcbd c0df 72bd 4447 27be

layers.4.bias f4 [20]
0.010276392 -0.12369177 -0.11980909 0.019410137 0.10802519 0.11568289 -0.0064708362 0.098556116
0.10628772 0.10147307 0.121008866 0.03965451 0.13707739 0.06613572 0.06226865 0.020704709
0.04708543 -0.036725815 -0.068251096 -0.08791684
00000000: 505e 283c 1c52 fdbd 785e f5bd 0202 9f3c
00000010: 503c dd3d 27eb ec3d 4f09 d4bb cad7 c93d
00000020: 60ad d93d 1dd1 cf3d 7fd3 f73d c46c 223d
00000030: 045e 0c3e 2a72 873d 690d 7f3d ec9c a93c
00000040: a7dc 403d cf6d 16bd 3bc7 8bbd bf0d b4bd
