data/models/test_dc9_only_20_bins_low_init_lr/checkpoints/epoch_200.pt (torch, 8301 bytes, 6 tensors)

layers.0.weight f4 [16, 4]
00000000: 2f97 d33e bb92 8b3e 1788 70bd a564 2d3e
00000010: 8f5b f1bd 7c99 b93e 6f36 d1be 683a 9fbe
00000020: 1961 783e 50fc ccbe f481 a8be ef97 4a3e
00000030: 6ad1 063e f036 373e 1a70 07bf f3b2 f73d
00000040: e110 a6be aded 993e 6ff9 4d3d aab7 c9be
00000050: 1be6 ce3e 3629 13bf 4e67 e9be a859 d0bd
00000060: c891 e2bd 2ce2 a83e efad a13e d4cf f6be
00000070: b586 88be 7dd3 6ebe 0e9e a4be f322 a13d
00000080: def6 a1bd a8cc a23e 118f 8d3e a816 cc3e
00000090: ed39 47be 0991 c7be 7323 d63e 2173 e8be
000000a0: 78f1 8abe 7acd 9ebe 411c 873e 231f a43e
000000b0: 88b2 a03e 3f60 ef3e 1758 7b3b 7d3f d9bd
000000c0: 920a a13e 9b5a cfbe 7c73 eebd 79b9 853d
000000d0: cb94 8c3c 9198 90be 55b1 d93e 3c14 103e
000000e0: e3d5 c23e 4d7b bcbe d840 c4be 0e4c d43e
000000f0: b8b5 d13e bd98 9c3d 5924 a03e 6acd 0cbd
0.4132628 0.27260384 -0.058723535 0.16932924 -0.117850415 0.36249912 -0.40861842 -0.31099248
0.2425579 -0.4003625 -0.32911646 0.1978452 0.13165823 0.1789205 -0.5290543 0.12094679
-0.32434753 0.30064145 0.050286707 -0.39397937 0.40409932 -0.5748476 -0.45586628 -0.101733506
-0.11062962 0.32985055 0.31578013 -0.48205435 -0.26665273 -0.23322864 -0.32151836 0.07867994
-0.07908414 0.31796765 0.27648214 0.39861035 -0.1945569 -0.3897784 0.4182392 -0.45400336
-0.2713735 -0.3101614 0.26388744 0.32055005 0.3138621 0.46753117 0.0038352066 -0.106078126
0.31453377 -0.40498814 -0.11643121 0.06529517 0.017160794 -0.282414 0.42518106 0.14070219
0.38053808 -0.3681282 -0.38330722 0.41464275 0.40958953 0.0764632 0.3127773 -0.034375586

layers.0.bias f4 [16]
00000000: de29 c83e 6545 37be 36bc d73e e05f 5abc
00000010: ca30 c9be 9c22 14be 6f85 4b3c f7d3 9f3e
00000020: 5eda 013d d04a babe a354 bfbe a700 80be
00000030: 6fe9 fe3c 3e6a f13e ba26 04be 72cb 0abd
0.39094442 -0.17897566 0.4213578 -0.013328522 -0.39295036 -0.14466327 0.01242195 0.31216404
0.03170239 -0.36385202 -0.3736926 -0.25000498 0.03111717 0.4715137 -0.12905398 -0.033885427

layers.2.weight f4 [32, 16]
00000000: 930a d7bd 14e0 f0bd 92a9 1ebe 422d 77bd
00000010: 609d 1e3e 7e13 05bd 324a 28be 564d 83bd
00000020: 21bd 133c 238c b33d 120c e3bd daf1 f5bc
00000030: b7fd bebd b0a4 4d3e bef1 14be 14a9 3ebd
00000040: eb38 14bd 20a5 65be 7636 35be d93b d9bd
00000050: ef40 dabd 2409 1c3d ca5b bcbc d73b 013e
00000060: 3ead d73c 9a35 3d3e 6e38 44be e8a6 e4bd
00000070: b8a6 2b3e 8b77 26bd d6c3 e73d fcb4 55be
00000080: 4b4e 15be d6b6 073e 4be5 f43d 357a 9f3d
00000090: 7a89 093d 122e 50bd 7fdc b93d 76d2 93bd
000000a0: 3ae9 d6bd 0076 593e 2830 5d3e d8ff 313e
000000b0: 70c9 d1bb 0715 d7bc d28f 52be 446d 2b3e
000000c0: a43d 66be f794 74be 0186 08be 93e1 0abe
000000d0: 5b1b 0cbe bb08 1d3d ad6c d8bc 8597 a23d
000000e0: 8fb7 363e de83 57be f8fa 163e ca98 bf3d
000000f0: 6c30 283d 5420 3d3e 22d4 dabd 7b89 8d3d
00000100: 77b6 bbbb a961 ed3d 745f fd3d 6a35 4ebe
00000110: dae8 d0bd 2fcc 8abe 9474 80bc 291f 1bbe
00000120: a952 ea3d 70ce 4c3e 39c9 6fbe d500 71be
00000130: b882 eabb a6cc 78bd 3554 4b3e 9e7f 6b3e
00000140: 75f0 c93d b551 db3d 22ff 1b3e 616e d53c
00000150: 761e 443e ca67 85be 7b84 1fbd d002 67bd
00000160: 140f 0fbe d1db e53d b38e dfbd 40c5 963d
00000170: 1ce1 223e 0bb3 193d 0b43 2abd 731e a83d
00000180: ed11 c0bd 4f6d 8bbe 215c 423e fc96 7e3c
00000190: 9cc1 f2bd b255 f8bc e816 ccbd b31b 8d3d
000001a0: 711c 84be c207 15be 503c 333e c27e 8bbc
000001b0: df06 393e db28 d4bd efc6 163e 584c b73d
000001c0: d42b 453c a8e2 70be fe1e 323e 7ec8 5c3e
000001d0: 8c1f 22be 077a 4fbe dc60 3a3e f176 66bd
000001e0: b96e 7f3d c6db a9bc c10b 73be 2e7a 2fbd
000001f0: 6807 bb3d 10d5 babd 48f9 49be 7b6e 123e
00000200: b2fa e8bd 8990 da3d 5a19 ec3d 4cc3 6e3e
00000210: 22ac 463d f986 00be c7d3 c23d ccd1 0a3e
00000220: 3f06 923d c6e1 6c3e 3d3a 8cbd e216 993d
00000230: 593d 3fbe f7ee 433c a386 14bd c650 903d
00000240: bf68 02bd e4f7 423b 7c7b 4a3d 19a2 013e
00000250: be10 50be bedf c4bd 2361 00be 3a64 353e
00000260: ccb1 f6bd 9848 67be 244a 413e eb6d 57be
00000270: 37fd 913d 45f0 b83d 1b90 283d fd7c 2d3e
00000280: 3d1c 1e3d 4c5d 413e 5e70 903c 579d 243e
00000290: 1fd5 e73b 9afc e9bb 58e5 f6bd 033c 0a3e
000002a0: 16bc d33d 5f23 a93d 29ce b4ba 4200 803d
000002b0: 6014 763d 084b cf3d 61ed 37be 7ab2 813e
000002c0: f1ab 4d3e 935e 81bd 907f ef3d 388c 1b3e
000002d0: 44f9 c1bd 5c31 0dbe e3c3 bf3d 8446 09be
000002e0: a29e a9bb 5505 59be 70e5 2a3c 9c91 56be
000002f0: 035f 3f3e d42f e13d adad 48be cc61 d9bc
00000300: af47 31bd 4aed 5cbe e004 5a3e e876 d8bc
00000310: e76e 5d3e 2def 553e 554a 543d 4647 543d
00000320: 3d95 5d3e 2da5 bd3c 3e29 3dbd 5b44 72be
00000330: 84c6 0b3e a7be a2bd 6441 ed3d 9ebd 49bd
00000340: 5e72 14be ae68 0e3e dc3d 293d e977 f43d
00000350: efd9 80be fd9e 87be fd1f 0a3e 2266 46be
00000360: 14d7 7dbe b84d 02be 57b2 65be e77a 313e
00000370: cb3b e53d 018d eb3d 1469 423e 60b1 263e
00000380: 49db 9bbd a05f 343e 1637 623c 0688 e33d
00000390: 69c4 f3bd 772a 703e 928b 0d3e 633f 64bd
000003a0: c13d 87bd 912a acbd 83d7 85bd 720d 033e
000003b0: f707 39be 7d12 323e 3a09 893d f12d 723e
000003c0: 336f 4a3e 289c 9d3d 9505 433e 6387 92bd
000003d0: aa7f 473e 3950 2f3e 362e efbd 68ff 22be
000003e0: 95da 8d3c 6fdf 11bc 7bd4 4b3d e79b 263e
000003f0: 3a47 c7bd 9ee6 76be c8e4 d8bc 207a 3dbe
-0.10500064 -0.117614895 -0.15494373 -0.060345896 0.15489721 -0.032489292 -0.16434553 -0.06411235
0.00901726 0.08766963 -0.110862866 -0.03002255 -0.09325736 0.20082355 -0.14545342 -0.046547964
-0.036187094 -0.22426271 -0.17696556 -0.10607118 -0.10656916 0.038094655 -0.022992987 0.12620483
0.026327725 0.18477479 -0.19162151 -0.11164647 0.16762817 -0.04064135 0.113166496 -0.20869821
-0.14580648 0.1325334 0.11957797 0.07786981 0.033578373 -0.050825186 0.090752594 -0.072178766
-0.10493703 0.2123642 0.21600401 0.17382753 -0.006402187 -0.026255144 -0.20562676 0.167409
-0.22484452 -0.2388495 -0.13332368 -0.13562612 -0.1368231 0.038338404 -0.026419008 0.07939056
0.1784346 -0.21046397 0.14744174 0.09355314 0.041061804 0.18469363 -0.106849924 0.06910988
-0.0057285386 0.11590893 0.12371722 -0.20137563 -0.10200663 -0.27108905 -0.015680589 -0.15148605
0.114415474 0.20000625 -0.23416604 -0.23535474 -0.007156696 -0.060742043 0.19856341 0.22997901
0.09860317 0.10708944 0.15234044 0.02605361 0.19152245 -0.26055747 -0.038944703 -0.056399167
-0.13970596 0.11223567 -0.109158896 0.07361841 0.15906185 0.037524264 -0.041567843 0.08208933
-0.09378419 -0.27231833 0.18980457 0.015538927 -0.11853334 -0.0303143 -0.099653065 0.06890049
-0.2580295 -0.1455374 0.17503476 -0.017028216 0.18069027 -0.10359355 0.14724325 0.08950108
0.012034375 -0.23523962 0.17394635 0.21560857 -0.15832347 -0.20261393 0.18201011 -0.056265775
0.062361453 -0.020734679 -0.23734953 -0.04284113 0.09132272 -0.0912267 -0.19724 0.14299957
-0.11375941 0.10672099 0.11528273 0.23316687 0.048504002 -0.12551488 0.095130496 0.13556594
0.071300976 0.23133 -0.068470456 0.07475068 -0.18675746 0.011958829 -0.036261212 0.07046656
-0.031838175 0.0029749805 0.04943417 0.12659492 -0.20318887 -0.09612988 -0.12537055 0.17714015
-0.12045631 -0.22586286 0.18875939 -0.21038024 0.07128375 0.09030203 0.041153055 0.1694221
0.03860115 0.18883246 0.017631706 0.16075645 0.0070749666 -0.007140708 -0.120554626 0.13499455
0.10338609 0.082586996 -0.0013794351 0.06250049 0.060078025 0.10121733 -0.17961647 0.2533148
0.20085122 -0.06316867 0.116942525 0.15190208 -0.09471372 -0.1378836 0.09363534 -0.13405806
-0.005176381 -0.2119344 0.010430679 -0.20953983 0.18688588 0.109954506 -0.19597502 -0.026535891
-0.043281253 -0.21574894 0.21290922 -0.026423886 0.21624337 0.2089202 0.0518287 0.051825784
0.21638961 0.023150051 -0.04618191 -0.23658888 0.13649946 -0.0794652 0.11584738 -0.0492531
-0.14496753 0.1390712 0.04131876 0.119369335 -0.2516627 -0.26488486 0.13488765 -0.19374898
-0.24789077 -0.1272496 -0.22431313 0.1733204 0.11193045 0.11501504 0.18985397 0.162786
-0.07610185 0.17614603 0.013807079 0.11109929 -0.11902697 0.23453699 0.13822773 -0.055724513
-0.066035755 -0.084065564 -0.06535246 0.12798098 -0.18069445 0.17389865 0.06691213 0.23650338
0.19768982 0.076958 0.19045098 -0.07154729 0.19482294 0.17120446 -0.11678736 -0.15917742
0.017316142 -0.008903368 0.049763184 0.1627041 -0.09730382 -0.24111411 -0.026476279 -0.18503618

layers.2.bias f4 [32]
00000000: 355b 723d b0fc e63c e690 1f3d da66 63be
00000010: 0870 f6bc 8ac7 a5bc caa7 fe3d 1dab 0cbe
00000020: 8030 013e 0d5e 613c e6cd 003e 1e45 573e
00000030: 4160 0dbe ab69 1f3e e151 85bc cea1 4abe
00000040: 8414 2a3d 34cf d23d fa5c 87bc 6ee8 1fbe
00000050: 6d65 0bbe dfdb 983d c9c3 08bd 76dd c0bd
00000060: a70f 893d d793 423e 5600 273e 37c7 09be
00000070: b607 c0bc 966e 4e3d d0f6 26bd 90a1 113e
0.059169013 0.028196663 0.038956545 -0.22207204 -0.030082718 -0.02023675 0.12434347 -0.1373715
0.12616158 0.013755334 0.12578544 0.2102246 -0.13806249 0.15567653 -0.016274394 -0.19788286
0.04152347 0.10293427 -0.016523827 -0.15616009 -0.1361291 0.07463812 -0.03338984 -0.0941724
0.066924386 0.19001709 0.16308722 -0.134549 -0.023441177 0.05039843 -0.040762722 0.14221787

layers.4.weight f4 [20, 32]
00000000: 1904 e2bd 442b 34bb 9213 0e3d 347b 8a3d
00000010: 5cb5 cd3d cd50 e43d 3a8c 553e cda6 933d
00000020: 1305 70bd a66e 3fbd e3fc 0bbd 9e2a 483d
00000030: f519 e13d 06d1 21be 5176 d43d c3bb 263c
00000040: 7b6d 33bd d0dd bebc 8385 283e 5946 513e
00000050: 7c8f 39be 1489 6cbe aa75 40bd 58f0 4a3e
00000060: 6513 37be b8b1 bc3b 7040 08be d424 0cbc
00000070: 01f8 133d 7f88 21be 828d 733b 31a9 21be
00000080: 8ea5 91bd 4966 353e 3708 163e 240e a33d
00000090: b21e 41be f807 423d 941b c1bd 72a0 0dbd
000000a0: 292e 333d 9ed5 803e 2ec0 61bd c2fc 03be
000000b0: 5664 423e efef 0bbe 84c6 e5bd c9f0 69be
000000c0: 41cc a7bd f9d3 0e3e da9f 7a3e b4eb cabd
000000d0: 499d 4e3c 0deb c5bb 3cad a83d f751 e43b
000000e0: e7ac e4bd d09d 263e 831a 5ebe dac0 59be
000000f0: 27d7 2bbe facf 0d3e 1320 253d 7006 7c3d
00000100: 7489 c03c 5789 d4bd 53a2 fdbd 2730 52bd
00000110: 3f96 843c 99a7 0b3e a672 1f3e 9469 003d
00000120: 54df 103d 5b4e 86bc 12b6 84bb 4686 cbbd
00000130: a210 9dbd cd23 93bd d4a6 99bd 37f4 4ebe
00000140: 1f6d e83d 62c1 ef3d 534f f9b9 6dcd ba3d
00000150: bb23 24bc 17d8 a53d d506 f13b ea39 693e
00000160: ebd9 a73c 799d cf3d d9c0 0cbe d988 5cbe
00000170: fef1 1ebe 35b9 eb3d 5490 0bbe 9d4d ccbc
00000180: 817c 07be 708c 863e 135e d93d 2652 d63d
00000190: e8db 643d c64b 29be bf93 ce3d 1ea1 febc
000001a0: e531 b1bc 926b 483c fb7c 1dbe ea09 bb3b
000001b0: 9106 a8bd 5b7f 303d c207 15be 799d 4fbd
000001c0: 6b03 ecbd 1c7f 08be 905c 0f3e 19e5 803b
000001d0: d108 bd3b 7208 4fbe a485 173e df02 0b3e
000001e0: fa52 cfbc f03b f43d 428b f5bd a91a 393d
000001f0: 89f5 b7bd 2a4b 03bd 83f0 d1bd c577 20be
00000200: 7f5c 8e3a 2ba5 fd3d b6d7 443d 0bdd 0b3e
00000210: 5169 a1bd 1444 37be 1b58 04bd 0d87 943a
00000220: 3a39 e63d 9ce5 d63b 8c03 dfbd eece 1dbe
00000230: fc98 7cbd ec6a b23d 1ac8 19be 9321 0d3e
00000240: e087 483d fe68 053e c54e d8bc 4d7a c0bd
00000250: 798d 133b b359 f93d 54ab 2f3e b34f 93bd
00000260: 6d05 8bbc 7066 003e 33cc fbba 2611 4cbe
00000270: 41b6 93bd a02f 7c3d b12c c13c 2f67 6a3d
00000280: ac5e 8e3c 6310 f3bd 43e6 f43d 6e7f dabd
00000290: fc10 9d3d 10cc c03c bab0 98bd 4f98 06be
000002a0: 125c 40be 05d5 833d df4c 85bc 4529 3abe
000002b0: 322e 8b3d 8bb7 0bbd ba7a d8bd b83f 153e
000002c0: bd92 103e 661b 963d e0d5 bf3d 9766 bc3d
000002d0: c5ad c0bd 455c 37bd ce90 bbbc 40ad d63c
000002e0: e754 8cbd 013c 1bbe a119 413d f397 90bd
000002f0: b396 4ebe 9267 0d3c 6802 6d3a 2c82 c73d
00000300: 54ad 42bd be70 a5bd 6cc6 c63d 18b1 893d
00000310: c3c4 dcbd 02e9 893d 3c72 b83d e4e0 2abe
00000320: 0cae 2ebd 80d8 163c addc 94bd 6e8a ad3d
00000330: 18cf cebd e5c5 2abe e25a a5bd 4250 1fbe
00000340: 1697 e0bd c629 55bd 35a6 4a3e 45d3 afbd
00000350: b207 20be 4728 783d 53bb 36be 40b6 bf3d
00000360: b0ed 223d 4c12 53bd c2c5 5cbd e56e 263d
00000370: a167 de3c 365a 24bd 1a9c 1e3d 7615 b23d
00000380: 6412 613d fa7f b23d 8597 1abe c9a7 1b3e
00000390: ae4e 8abc e7b9 09be 5b7a 05bd ae13 4fbb
000003a0: 5793 ec3d cb3a 8bbd 3127 863d 3399 f7bd
000003b0: b26b d63d 8d8b cf3d b11a 073e 554e 533d
000003c0: 81d6 603d 2016 c43d e621 44bc ff02 6e3d
000003d0: 3d1f 91bd 4743 fdbd 81b0 1abe d8af 9c3d
000003e0: 8a0a 213c b8c4 453d 35c5 0f3e d96f b43d
000003f0: 9e31 90b9 54ab 5dbd 7d67 bd3d e968 fcbd
-0.11035938 -0.0027491609 0.034686632 0.067617804 0.10044357 0.11148224 0.20854273 0.07209549
-0.05859859 -0.046736382 -0.03417672 0.048868768 0.10991279 -0.15802392 0.103741296 0.010176602
-0.04380558 -0.023299128 0.1645718 0.20436992 -0.18121141 -0.23099166 -0.046987213 0.19818246
-0.17878492 0.0057584904 -0.13305831 -0.008553702 0.036125187 -0.15774725 0.0037163203 -0.15787198
-0.07111655 0.177148 0.14651571 0.079616815 -0.18859366 0.04737088 -0.09429088 -0.03457684
0.043745194 0.25162977 -0.055114917 -0.12889388 0.18983588 -0.13665746 -0.112195045 -0.22845758
-0.08193255 0.13948049 0.24475041 -0.09908238 0.012610742 -0.006039983 0.08236167 0.006967779
-0.11165791 0.16271138 -0.21689801 -0.21264973 -0.16781293 0.13848868 0.04031379 0.061529577
0.023503043 -0.10377758 -0.123844765 -0.051315453 0.016184924 0.13638152 0.15571079 0.031350687
0.035369232 -0.016394785 -0.004050025 -0.0993772 -0.07669188 -0.07184563 -0.07502523 -0.20210348
0.11348938 0.11706807 -0.00047552082 0.09121213 -0.010018284 0.080978565 0.007355551 0.22775999
0.020489654 0.101374574 -0.1374544 -0.21536578 -0.15522 0.11509935 -0.13629276 -0.024939353
-0.13231088 0.2627902 0.10613646 0.10464887 0.05587378 -0.16532812 0.10086774 -0.031082686
-0.021630237 0.012232678 -0.15379708 0.005707969 -0.082043774 0.043090206 -0.1455374 -0.050687287
-0.115240894 -0.13329738 0.14000154 0.0039335606 0.0057688733 -0.20218065 0.14797074 0.13575314
-0.025308121 0.11925495 -0.11989452 0.04519144 -0.08982379 -0.032054104 -0.10250952 -0.15670688
0.0010861306 0.12385019 0.04805728 0.1365854 -0.07881416 -0.17897063 -0.032310586 0.0011331752
0.11241384 0.0065581333 -0.108893484 -0.15410969 -0.061669335 0.087118 -0.15017739 0.13782339
0.048957705 0.13028333 -0.026404748 -0.09398327 0.0022514744 0.12175312 0.171552 -0.07192936
-0.01697036 0.12539077 -0.0019210636 -0.19928417 -0.072124965 0.061568856 0.02358088 0.05722731
0.017379127 -0.1186836 0.119579814 -0.106688365 0.07669255 0.023534805 -0.07455583 -0.13144039
-0.18785122 0.064371146 -0.016272007 -0.18179806 0.067959204 -0.034110587 -0.10570283 0.14575088
0.14118476 0.073294446 0.09366965 0.09199255 -0.09408144 -0.04476573 -0.022896197 0.026205659
-0.06852131 -0.15159608 0.047143582 -0.07060232 -0.20174675 0.00863065 0.0009041191 0.09741625
-0.04752858 -0.080781445 0.09705815 0.06723231 -0.10779717 0.06733896 0.090061635 -0.16687351
-0.042646453 0.009206891 -0.07268653 0.08473669 -0.10098094 -0.16677053 -0.08073975 -0.1555796
-0.10966317 -0.05204179 0.19789965 -0.08585218 -0.15627936 0.060585286 -0.17844896 0.09360933
0.039777458 -0.05153112 -0.053899534 0.0406331 0.027149023 -0.040125094 0.03872309 0.086954996
0.05494918 0.08715816 -0.15096863 0.15200724 -0.01688322 -0.13449822 -0.03258739 -0.0031597423
0.1155154 -0.06798323 0.06550444 -0.12089767 0.1046976 0.10134039 0.13193776 0.051588375
0.054892067 0.095745325 -0.011970973 0.058108326 -0.07086036 -0.12366348 -0.15106393 0.07650727
0.009829173 0.04828331 0.14040072 0.08810396 -0.00027502788 -0.05411847 0.092482544 -0.123246975

layers.4.bias f4 [20]
00000000: 0dfa b63d 367f 13bb 51b7 54bd 100d a53d
00000010: 1a87 b73b df13 cc3d 1655 463d ca6e 0bbc
00000020: 3571 733d 5849 933c 44c9 babd 149d f23d
00000030: 54a5 6cbd b44b 133d 0e90 e73d ba6d 51bd
00000040: 956f 7a3d 25df 33bd b0a6 543d 767e 3dbd
0.08934412 -0.0022506244 -0.051932637 0.08059132 0.005600822 0.099647276 0.048420988 -0.008510301
0.059434135 0.017979309 -0.091204196 0.118463665 -0.057774857 0.035960868 0.11306773 -0.051130034
0.06114157 -0.04391398 0.051916778 -0.04626318
