data/models/test_dc9_only_20_bins_low_init_lr/checkpoints/epoch_190.pt (torch, 8301 bytes, 6 tensors)

layers.0.weight f4 [16, 4]
0.41327283 0.27264297 -0.05872818 0.1693271 -0.11791247 0.36257195 -0.40853682 -0.3109577
0.24257848 -0.40035513 -0.3290949 0.19783218 0.131671 0.17901635 -0.5289545 0.12092443
-0.32428476 0.30060858 0.05031304 -0.393982 0.4041575 -0.57478386 -0.45583925 -0.101710446
-0.11062891 0.32989186 0.31577668 -0.48202708 -0.26654133 -0.23325269 -0.32144064 0.078635626
-0.079020694 0.31802186 0.27646548 0.3985916 -0.19444856 -0.389686 0.4182887 -0.45403573
-0.2713202 -0.31015304 0.26392683 0.32053223 0.31384364 0.46753523 0.0038591188 -0.10609112
0.31455728 -0.40497518 -0.11643907 0.065284334 0.01717338 -0.282354 0.4251074 0.14070976
0.3806207 -0.36810085 -0.3832709 0.41458422 0.40963808 0.07646815 0.3127021 -0.034381077
00000000: 7f98 d33e dc97 8b3e f68c 70bd 1564 2d3e
00000010: 187c f1bd 08a3 b93e bd2b d1be d935 9fbe
00000020: 7e66 783e 59fb ccbe 207f a8be 8594 4a3e
00000030: c3d4 063e 1050 373e 9069 07bf 3aa7 f73d
00000040: a708 a6be 5ee9 993e 0c15 4e3d 02b8 c9be
00000050: bbed ce3e 0925 13bf c363 e9be 914d d0bd
00000060: 6991 e2bd 96e7 a83e 7bad a13e 41cc f6be
00000070: 1b78 88be cbd9 6ebe de93 a4be b70b a13d
00000080: 9ad5 a1bd c3d3 a23e e28c 8d3e 3314 cc3e
00000090: 861d 47be ec84 c7be f029 d63e 5f77 e8be
000000a0: 7bea 8abe 61cc 9ebe 6b21 873e cd1c a43e
000000b0: 1db0 a03e c760 ef3e 45e9 7c3b 4d46 d9bd
000000c0: a70d a13e e858 cfbe 9b77 eebd cbb3 853d
000000d0: 30af 8c3c b490 90be ada7 d93e 3816 103e
000000e0: b7e0 c23e b777 bcbe 153c c4be 6244 d43e
000000f0: 15bc d13e 559b 9c3d 7d1a a03e 2cd3 0cbd

layers.0.bias f4 [16]
0.39093095 -0.17897893 0.4213696 -0.013408895 -0.39296353 -0.14470303 0.012353987 0.31218925
0.031679388 -0.36388475 -0.3737015 -0.2499924 0.031122198 0.47151193 -0.12908904 -0.033919092
00000000: 1a28 c83e 4146 37be c2bd d73e fbb0 5bbc
00000010: 8432 c9be 082d 14be 6168 4a3c 45d7 9f3e
00000020: 3fc2 013d 1a4f babe ce55 bfbe 02fe 7fbe
00000030: fbf3 fe3c 036a f13e eb2f 04be bfee 0abd

layers.2.weight f4 [32, 16]
-0.10500302 -0.11758722 -0.1549687 -0.06040292 0.15493579 -0.032513503 -0.16432485 -0.06404958
0.009018 0.08764217 -0.110924914 -0.029965794 -0.09333883 0.20077325 -0.14548314 -0.04657134
-0.036158133 -0.2241576 -0.17698541 -0.105984844 -0.10662134 0.03809508 -0.022953682 0.12612842
0.02635517 0.18474908 -0.19162385 -0.11160503 0.1676178 -0.04063919 0.1131963 -0.20869243
-0.14583294 0.13254581 0.11958416 0.07786859 0.03358034 -0.050792713 0.09074767 -0.07220904
-0.104961194 0.21236086 0.21600844 0.17377202 -0.0063826046 -0.026256183 -0.20561172 0.16738784
-0.22484876 -0.23885566 -0.13334559 -0.13564879 -0.13683955 0.038389225 -0.026375141 0.079307266
0.17836775 -0.21037355 0.14739539 0.0935714 0.04110853 0.18468311 -0.10685514 0.06914424
-0.0057182787 0.11592986 0.12371595 -0.20135936 -0.10202949 -0.27105838 -0.015701393 -0.1514796
0.11441728 0.19998191 -0.23417418 -0.23532866 -0.007166053 -0.060778815 0.19854492 0.2299799
0.09860979 0.10709944 0.15233763 0.026050817 0.19154568 -0.26055884 -0.038945615 -0.056402892
-0.13969839 0.11224673 -0.10918887 0.07362707 0.159053 0.03751865 -0.04158688 0.082074456
-0.0937891 -0.2722786 0.1898104 0.01561241 -0.11856842 -0.03031807 -0.09965858 0.06889972
-0.25801742 -0.14553568 0.17500876 -0.017059067 0.18068078 -0.103596054 0.14726768 0.0895132
0.01201208 -0.23524746 0.17397419 0.2156062 -0.15830944 -0.20260242 0.18195602 -0.05625182
0.062346485 -0.020718817 -0.23732427 -0.04289471 0.09137537 -0.09122481 -0.19722052 0.1429744
-0.113756396 0.10672033 0.11529282 0.23316357 0.04854397 -0.12551624 0.09514239 0.13557321
0.0713122 0.23131874 -0.06847428 0.07473185 -0.18674476 0.011963338 -0.036218178 0.0704899
-0.031854816 0.003010857 0.049424578 0.12661958 -0.20316021 -0.096113354 -0.12535495 0.17711842
-0.12045393 -0.22584312 0.1887658 -0.21039145 0.071284376 0.0902933 0.041152693 0.16939625
0.038605817 0.1888341 0.017633922 0.16073662 0.007054953 -0.007133094 -0.120570466 0.13503712
0.1033717 0.08262937 -0.0013320948 0.06254279 0.060078632 0.101216145 -0.17964697 0.25332594
0.20086087 -0.06317385 0.11694048 0.15187134 -0.094672576 -0.13789813 0.09362589 -0.13401262
-0.0051664407 -0.2119427 0.010461375 -0.20947365 0.18689115 0.10993839 -0.19598292 -0.026513068
-0.043287996 -0.21572587 0.21289907 -0.026452534 0.21624282 0.2089243 0.05183913 0.05183689
0.21639071 0.023166029 -0.0461552 -0.2365835 0.13649225 -0.07947913 0.11581838 -0.049220666
-0.14496727 0.13907471 0.041319195 0.11936237 -0.25166056 -0.2648761 0.13488875 -0.19374393
-0.24790375 -0.12727952 -0.22433826 0.17329444 0.111936636 0.11501079 0.18985571 0.1628272
-0.07609983 0.1761551 0.013796936 0.11110415 -0.11905067 0.23453945 0.13821636 -0.055730294
-0.066040635 -0.08406476 -0.065362185 0.12800379 -0.18070343 0.1738794 0.06689317 0.23648849
0.19768871 0.076968275 0.19045356 -0.071551405 0.19479363 0.17121245 -0.1167836 -0.15915458
0.017265182 -0.008869065 0.049822595 0.16271794 -0.09729653 -0.2411 -0.026483389 -0.18500088
00000000: d30b d7bd 92d1 f0bd 1db0 1ebe 0d69 77bd
00000010: 7da7 1e3e e12c 05bd c644 28be 6d2c 83bd
00000020: 3cc0 133c bd7d b33d 9a2c e3bd d37a f5bc
00000030: 6e28 bfbd 8197 4d3e 88f9 14be 97c1 3ebd
00000040: 8d1a 14bd 9289 65be aa3b 35be 950e d9bd
00000050: 4a5c dabd 9609 1c3d 5c09 bcbc cf27 013e
00000060: cce6 d73c dd2e 3d3e 0b39 44be 2e91 e4bd
00000070: 00a4 2b3e 4775 26bd 76d3 e73d 78b3 55be
00000080: 3b55 15be 17ba 073e 8ae8 f43d 9179 9f3d
00000090: 8a8b 093d 050c 50bd ead9 b93d 55e2 93bd
000000a0: e5f5 d6bd 2075 593e 5131 5d3e 4bf1 313e
000000b0: 2b25 d1bb 3517 d7bc e18b 52be b867 2b3e
000000c0: c13e 66be 9496 74be bf8b 08be 84e7 0abe
000000d0: ab1f 0cbe 053e 1d3d ae10 d8bc d96b a23d
000000e0: 09a6 363e 2a6c 57be d1ee 163e 5da2 bf3d
000000f0: 6b61 283d 921d 3d3e ded6 dabd 7f9b 8d3d
00000100: 6660 bbbb a26c ed3d ca5e fd3d 2631 4ebe
00000110: d6f4 d0bd 2ac8 8abe 35a0 80bc 781d 1bbe
00000120: 9b53 ea3d 0fc8 4c3e 5bcb 6fbe fff9 70be
00000130: 36d1 eabb 35f3 78bd 5c4f 4b3e da7f 6b3e
00000140: eef3 c93d f456 db3d 65fe 1b3e 8668 d53c
00000150: 8d24 443e f867 85be 7085 1fbd b806 67bd
00000160: 180d 0fbe 9de1 e53d 6a9e dfbd cac9 963d
00000170: cade 223e 28ad 193d 0157 2abd a716 a83d
00000180: 8014 c0bd 1a68 8bbe a85d 423e 32cb 7f3c
00000190: 00d4 f2bd 9a5d f8bc cc19 ccbd 4c1b 8d3d
000001a0: dc1a 84be 4e07 15be 7f35 333e 75bf 8bbc
000001b0: 6204 393e 2b2a d4bd 57cd 163e b252 b73d
000001c0: 51ce 443c b6e4 70be 4a26 323e dfc7 5c3e
000001d0: df1b 22be 0277 4fbe ae52 3a3e 4f68 66bd
000001e0: 075f 7f3d 82ba a9bc 2205 73be 5db2 2fbd
000001f0: 0323 bb3d 13d4 babd 2df4 49be e267 123e
00000200: 1df9 e8bd 3090 da3d a41e ec3d 6ec2 6e3e
00000210: 0bd6 463d 5487 00be 03da c23d b4d3 0a3e
00000220: 210c 923d d2de 6c3e 3e3c 8cbd 030d 993d
00000230: 053a 3fbe e001 443c 8359 14bd 025d 903d
00000240: 327a 02bd cc51 453b 6d71 4a3d 90a8 013e
00000250: 3b09 50be 14d7 c4bd 0c5d 00be 885e 353e
00000260: 8db0 f6bd 6b43 67be d24b 413e db70 57be
00000270: 8bfd 913d b2eb b83d ba8f 283d 3676 2d3e
00000280: 2221 1e3d ba5d 413e 0475 903c 2498 243e
00000290: 3c2d e73b bbbc e9bb a6ed f6bd 2c47 0a3e
000002a0: 8bb4 d33d 9639 a93d af99 aeba 6f16 803d
000002b0: 0315 763d 694a cf3d 60f5 37be f0b3 813e
000002c0: 79ae 4d3e 4b61 81bd 7e7e ef3d 2984 1b3e
000002d0: b2e3 c1bd 2b35 0dbe eebe bf3d 9b3a 09be
000002e0: 3f4b a9bb 8207 59be 3066 2b3c 4380 56be
000002f0: 6560 3f3e 6127 e13d bfaf 48be ef31 d9bc
00000300: c14e 31bd 3ee7 5cbe 3702 5a3e fcb2 d8bc
00000310: c26e 5d3e 40f0 553e 4555 543d eb52 543d
00000320: 8795 5d3e afc6 bd3c 3c0d 3dbd f242 72be
00000330: a0c4 0b3e f4c5 a2bd 3032 ed3d 9c9b 49bd
00000340: 4d72 14be 9a69 0e3e 513e 293d 4274 f43d
00000350: a7d9 80be d79d 87be 4720 0a3e cf64 46be
00000360: 7bda 7dbe 9055 02be eeb8 65be 1974 313e
00000370: 093f e53d c78a eb3d 8969 423e 2cbc 263e
00000380: 3ada 9bbd 0162 343e 8b0c 623c 938a e33d
00000390: d6d0 f3bd 1c2b 703e 9788 0d3e 7345 64bd
000003a0: 5040 87bd 252a acbd 9cdc 85bd 6d13 033e
000003b0: 520a 39be 710d 323e 49ff 883d 0a2a 723e
000003c0: e96e 4a3e 8ba1 9d3d 4206 433e 8b89 92bd
000003d0: fb77 473e 5152 2f3e 3d2c efbd 6bf9 22be
000003e0: b66f 8d3c 8e4f 11bc c712 4c3d 889f 263e
000003f0: 6743 c7bd ebe2 76be b1f3 d8bc df70 3dbe

layers.2.bias f4 [32]
0.059161592 0.028193397 0.03895288 -0.2221065 -0.030095736 -0.020222826 0.124351166 -0.13738985
0.12615593 0.013745627 0.1257877 0.21021539 -0.13805495 0.15566584 -0.016281126 -0.19787765
0.041517947 0.10294313 -0.016538909 -0.1561737 -0.13616227 0.074624255 -0.033384584 -0.094167285
0.066918135 0.1899944 0.1630432 -0.13455608 -0.023436232 0.050404776 -0.040758315 0.14220522
00000000: 6d53 723d d7f5 e63c 0e8d 1f3d e36f 63be
00000010: 558b f6bc 57aa a5bc d3ab fe3d edaf 0cbe
00000020: 052f 013e 5735 613c 7ece 003e b442 573e
00000030: 475e 0dbe de66 1f3e ff5f 85bc 70a0 4abe
00000040: b90e 2a3d d9d3 d23d 9b7c 87bc 00ec 1fbe
00000050: 1f6e 0bbe 9ad4 983d 46be 08bd c7da c0bd
00000060: 600c 893d e48d 423e ccf4 263e 12c9 09be
00000070: 57fd bfbc 3d75 4e3d 31f2 26bd 3f9e 113e

layers.4.weight f4 [20, 32]
-0.110275395 -0.0028349163 0.034668345 0.067519926 0.10043251 0.11147473 0.20853166 0.07202036
-0.058592524 -0.0467613 -0.034179214 0.048899308 0.10989881 -0.15799114 0.10374497 0.010165309
-0.04381084 -0.023355557 0.1644918 0.2043151 -0.18121162 -0.23087777 -0.046994876 0.19813977
-0.17878096 0.005676261 -0.13301234 -0.008508812 0.036223248 -0.157758 0.0037289616 -0.1578726
-0.071045704 0.17710017 0.14650749 0.07959526 -0.188588 0.04734882 -0.09432969 -0.034647875
0.04375507 0.25159824 -0.05511781 -0.12887561 0.18981789 -0.13670179 -0.11221767 -0.22843835
-0.081951424 0.13945031 0.24469085 -0.09911165 0.0125791235 -0.0059967744 0.08238157 0.006959985
-0.111666515 0.16264415 -0.21684802 -0.21262494 -0.16774414 0.13847795 0.040330112 0.061515357
0.0234778 -0.10381725 -0.12382408 -0.051387277 0.016208336 0.13639167 0.15572406 0.031329066
0.035371605 -0.016376873 -0.0040619853 -0.09939251 -0.076687574 -0.07185401 -0.075023495 -0.20211151
0.11350823 0.117055535 -0.000512934 0.09118451 -0.01000414 0.0810649 0.007354194 0.22777075
0.020492826 0.10136214 -0.13744073 -0.21534106 -0.15515244 0.115081295 -0.13626602 -0.024943653
-0.13227938 0.26272884 0.106137395 0.10463156 0.055883776 -0.16535665 0.10085018 -0.031122457
-0.021616805 0.012221705 -0.15379198 0.005734129 -0.08204713 0.04307101 -0.14553332 -0.050746404
-0.11525475 -0.13332148 0.13998234 0.003911107 0.00576383 -0.20212859 0.14797515 0.1357364
-0.025321497 0.11922091 -0.1198399 0.04517566 -0.08979013 -0.03208764 -0.102519564 -0.15670979
0.0011505003 0.12380592 0.048054572 0.13659531 -0.07879463 -0.17896976 -0.03230976 0.0011125534
0.11239109 0.0065640807 -0.10890723 -0.15409689 -0.061664388 0.087159805 -0.15014963 0.13779373
0.04892326 0.13027738 -0.02644677 -0.09402096 0.0022748644 0.12177196 0.17154479 -0.07194987
-0.016977454 0.12539092 -0.0018613007 -0.19927263 -0.07206532 0.06154455 0.023548692 0.05723798
0.017382873 -0.11869528 0.11957204 -0.10675662 0.07671078 0.023533208 -0.07455623 -0.13147129
-0.18785484 0.06434508 -0.016276903 -0.18179166 0.06795106 -0.034098163 -0.10568628 0.1457191
0.14116445 0.073286094 0.09368374 0.091984555 -0.09408039 -0.044752136 -0.022906525 0.026189942
-0.06851499 -0.15160178 0.047175355 -0.07061602 -0.2017449 0.008637983 0.0009124824 0.09741396
-0.047546357 -0.08079944 0.097053505 0.06720695 -0.10777442 0.06733836 0.09008444 -0.1668853
-0.042640895 0.009219488 -0.07271046 0.08473144 -0.10096512 -0.16674498 -0.08073686 -0.15556988
-0.10967149 -0.052068073 0.19786826 -0.08586776 -0.15627158 0.0606226 -0.1784729 0.09360575
0.039786804 -0.051563762 -0.053882334 0.040662028 0.027133955 -0.04013102 0.038708087 0.08696182
0.054960024 0.08717163 -0.1509581 0.15196459 -0.016894862 -0.1345146 -0.032592084 -0.0031437757
0.11552392 -0.067993574 0.06551318 -0.12089203 0.10469813 0.10132935 0.1319382 0.051585883
0.054901928 0.09575295 -0.011973538 0.058133624 -0.070860855 -0.123667814 -0.15105052 0.07651816
0.009830528 0.048273273 0.14039204 0.0880963 -0.00024096425 -0.054118354 0.09250848 -0.12324598
00000000: 11d8 e1bd 01ca 39bb 6500 0e3d e347 8a3d
00000010: 8faf cd3d dd4c e43d 5389 553e 697f 933d
00000020: b7fe 6fbd c788 3fbd 81ff 0bbd a44a 483d
00000030: a112 e13d 6ec8 21be 3e78 d43d 658c 263c
00000040: ff72 33bd 2754 bfbc 8a70 283e fa37 513e
00000050: 8a8f 39be 396b 6cbe b37d 40bd 27e5 4a3e
00000060: 5b12 37be eeff b93b 6334 08be 8b68 0bbc
00000070: d45e 143d 508b 21be 9861 743b 5ba9 21be
00000080: 6980 91bd bf59 353e 0f06 163e d702 a33d
00000090: 361d 41be d6f0 413d ed2f c1bd eeea 0dbd
000000a0: 8438 333d 7cd1 803e 36c3 61bd f8f7 03be
000000b0: 9f5f 423e 8efb 0bbe 61d2 e5bd beeb 69be
000000c0: 26d6 a7bd 10cc 0e3e 3d90 7a3e 0cfb cabd
000000d0: ab18 4e3c 9780 c4bb abb7 a83d 9610 e43b
000000e0: 6ab1 e4bd 308c 263e 680d 5ebe 5aba 59be
000000f0: 1fc5 2bbe 2acd 0d3e 3031 253d 87f7 7b3d
00000100: 8454 c03c 239e d4bd 7b97 fdbd 777b 52bd
00000110: 58c7 843c 42aa 0b3e 2176 1f3e e852 003d
00000120: d1e1 103d cb28 86bc 671a 85bb 4d8e cbbd
00000130: 600e 9dbd 3228 93bd eba5 99bd 52f6 4ebe
00000140: 0177 e83d d0ba ef3d 6b76 06ba f2be ba3d
00000150: 68e8 23bc 5b05 a63d 73fb f03b bc3c 693e
00000160: 92e0 a73c f496 cf3d 43bd 0cbe 5e82 5cbe
00000170: 48e0 1ebe beaf eb3d 5289 0bbe a256 ccbc
00000180: 3f74 07be 6584 863e 905e d93d 1249 d63d
00000190: 63e6 643d 4153 29be 8a8a ce3d 86f4 febc
000001a0: ba15 b1bc 8c3d 483c a57b 1dbe 5ce5 bb3b
000001b0: 5308 a8bd 3a6b 303d b006 15be 76db 4fbd
000001c0: af0a ecbd 6d85 08be 8857 0f3e be28 803b
000001d0: 83de bc3b ccfa 4ebe cc86 173e 7cfe 0a3e
000001e0: 076f cfbc 182a f43d 9f6e f5bd 1d0a 393d
000001f0: e3e3 b7bd 546e 03bd c7f5 d1bd 8878 20be
00000200: 62cc 963a f58d fd3d dfd4 443d a4df 0b3e
00000210: 145f a1bd d943 37be 3d57 04bd 19d3 913a
00000220: 4d2d e63d 8017 d73b c10a dfbd 93cb 1dbe
00000230: cc93 7cbd d780 b23d d3c0 19be cd19 0d3e
00000240: c263 483d 6f67 053e e6a6 d8bc 108e c0bd
00000250: e415 153b 9463 f93d 70a9 2f3e 745a 93bd
00000260: 4d14 8bbc 7a66 003e e3f6 f3ba 200e 4cbe
00000270: fc96 93bd 2316 7c3d 30e9 c03c 5f72 6a3d
00000280: 8766 8e3c 8316 f3bd 30e2 f43d 37a3 dabd
00000290: 8b1a 9d3d b7c8 c03c f0b0 98bd 69a0 06be
000002a0: 055d 40be 5ac7 833d 2457 85bc 9827 3abe
000002b0: ed29 8b3d 84aa 0bbd 0c72 d8bd 6337 153e
000002c0: 6a8d 103e 0517 963d 43dd bf3d 6662 bc3d
000002d0: 38ad c0bd 044e 37bd 77a6 bbbc 4a8c d63c
000002e0: 9651 8cbd 7f3d 1bbe f23a 413d 229f 90bd
000002f0: 3796 4ebe 5486 0d3c a833 6f3a f880 c73d
00000300: f8bf 42bd 2d7a a5bd fdc3 c63d cca3 893d
00000310: d6b8 dcbd b2e8 893d 317e b83d fbe3 2abe
00000320: 38a8 2ebd 560d 173c 39e9 94bd ad87 ad3d
00000330: cdc6 cebd 32bf 2abe 5e59 a5bd b64d 1fbe
00000340: 729b e0bd 5545 55bd fa9d 4a3e 70db afbd
00000350: a805 20be 674f 783d 9ac1 36be 5fb4 bf3d
00000360: 7df7 223d 8634 53bd b9b3 5cbd 3a8d 263d
00000370: 0748 de3c 6d60 24bd 5f8c 1e3d 0a19 b23d
00000380: c31d 613d 0a87 b23d c394 1abe 9b9c 1b3e
00000390: 1867 8abc 32be 09be 477f 05bd ce07 4ebb
000003a0: ce97 ec3d 3740 8bbd c62b 863d 3e96 f7bd
000003b0: f96b d63d c385 cf3d cf1a 073e b84b 533d
000003c0: d8e0 603d 1f1a c43d a92c 44bc 861d 6e3d
000003d0: 7f1f 91bd 8d45 fdbd fdac 1abe 8eb5 9c3d
000003e0: 3910 213c 32ba 453d eec2 0f3e d56b b43d
000003f0: 59ab 7cb9 35ab 5dbd 1675 bd3d 6368 fcbd

layers.4.bias f4 [20]
0.08935226 -0.0022436788 -0.051949285 0.0806062 0.00559212 0.09965215 0.04841446 -0.008503231
0.059447758 0.017971905 -0.09119311 0.118471526 -0.057786208 0.035958983 0.1130795 -0.051147252
0.061134797 -0.043920353 0.051925585 -0.04627462
00000000: 51fe b63d af0a 13bb c6c8 54bd dd14 a53d
00000010: 1a3e b73b 6d16 cc3d 3e4e 463d 2351 0bbc
00000020: 7e7f 733d d139 933c 74c3 babd 33a1 f23d
00000030: 3bb1 6cbd ba49 133d 3a96 e73d c87f 51bd
00000040: 7b68 7a3d d4e5 33bd ecaf 543d 758a 3dbd
