data/models/test_dc9_only_20_bins_low_init_lr/checkpoints/epoch_70.pt (torch, 8289 bytes, 6 tensors)

layers.0.weight f4 [16, 4]
000000 e2 78 d4 3e 04 8d 8e 3e bd ee 74 bd 79 1a 2c 3e
       0.41498476 0.2784196 -0.05979799 0.16806974
000010 ba ef 02 be 35 ea bd 3e 17 7a cc be 1e 84 9d be
       -0.12786761 0.37092748 -0.39936897 -0.3076486
000020 ac 32 7c 3e 8c 3e cc be c0 fa a6 be 1e aa 48 3e
       0.24628705 -0.3989147 -0.32613182 0.19596145
000030 f9 7e 09 3e 1b 88 47 3e 09 7a 03 bf d6 36 ef 3d
       0.13427342 0.19485514 -0.51358086 0.11680381
000040 cf 5d a1 be 47 07 97 3e f8 81 5d 3d 4d f3 c8 be
       -0.31516883 0.2949774 0.054079026 -0.39248124
000050 2d b3 d1 3e 40 fd 10 bf 30 97 e7 be 0d 02 c9 bd
       0.40957013 -0.5663643 -0.45232534 -0.09814844
000060 bd 67 e2 bd f2 e0 ac 3e 58 9c a1 3e 25 63 f4 be
       -0.11054943 0.3376537 0.31564593 -0.4773189
000070 8c b7 80 be 13 58 71 be da 4b 9f be 04 97 92 3d
       -0.25140035 -0.23568754 -0.31112558 0.0715771
000080 83 1a 8f bd 89 df a6 3e 95 53 8c 3e 6a 0b cb 3e
       -0.069874786 0.3259242 0.27407518 0.39657146
000090 07 6d 36 be eb ab c0 be e8 1b da 3e 66 c3 ea be
       -0.17815028 -0.37631163 0.42599416 -0.45852202
0000a0 9d 3f 87 be 91 1b 9e be 82 94 8a 3e ca e5 a2 3e
       -0.2641572 -0.30880406 0.27066427 0.3181594
0000b0 45 85 9f 3e de a2 ef 3e 0a 69 ff 3b eb b0 d9 bd
       0.31156364 0.46803945 0.007794504 -0.106294475
0000c0 55 28 a3 3e 2a 67 ce be 5a e3 f0 bd 8a b7 81 3d
       0.31866708 -0.40313083 -0.11762114 0.063338354
0000d0 6e 28 97 3c 9d 8e 8c be 7d f8 d3 3e 43 b4 11 3e
       0.018451896 -0.27452555 0.4140052 0.1422892
0000e0 9b 2c c8 3e 0c f1 b9 be 75 a9 c1 be c6 74 d1 3e
       0.3909653 -0.36316717 -0.37824598 0.40909404
0000f0 8f 67 d5 3e ac 50 9b 3d d4 54 9a 3e 67 df 0e bd
       0.4168057 0.07583746 0.30142844 -0.03488102

layers.0.bias f4 [16]
000000 a0 cd c6 3e a3 0e 37 be fe c9 d8 3e 2a e5 d2 bc
       0.38828754 -0.17876677 0.42341608 -0.02574404
000010 a3 ad ca be 22 4c 1a be 0c 92 dc 3a eb 5d a1 3e
       -0.395856 -0.15068105 0.0016828193 0.31516966
000020 61 c2 eb 3c 0b 55 bc be 9b 97 bf be 5c 53 7f be
       0.02877921 -0.36783633 -0.37420353 -0.24934143
000030 6b 64 03 3d c3 65 f1 3e 0e 4e 0a be 41 da 1e bd
       0.032078188 0.4714795 -0.13506338 -0.038782362

layers.2.weight f4 [32, 16]
000000 bb 5f d6 bd 38 b9 ec bd fc 48 20 be 49 40 90 bd
       -0.10467478 -0.11558765 -0.15652841 -0.070435114
000010 2f 42 23 3e 28 c3 08 bd ae 58 25 be de 08 63 bd
       0.15943216 -0.03338924 -0.1614711 -0.05542838
000020 3a 39 0f 3c a8 91 ad 3d 70 25 f4 bd b0 63 b7 bc
       0.008741671 0.08475047 -0.11921203 -0.022386402
000030 46 a7 d1 bd 8f 96 47 3e 4c ed 15 be b6 d4 44 bd
       -0.10236983 0.19491027 -0.14641303 -0.04805442
000040 33 5a 03 bd 6a a2 57 be 70 c6 39 be 5b 23 c1 bd
       -0.032068443 -0.2105805 -0.18142104 -0.09430572
000050 72 c4 e8 bd 8c ea 17 3d 4e e9 80 bc 41 f2 e6 3d
       -0.11365594 0.037088916 -0.015736248 0.11276675
000060 3e 06 02 3d 07 98 39 3e 2b 81 43 be c3 8c dd bd
       0.031744234 0.181244 -0.19092242 -0.10817864
000070 ce 71 29 3e 9b 87 20 bd 3d 79 ee 3d 62 b4 54 be
       0.1654732 -0.039191823 0.11644218 -0.20771936
000080 f1 96 19 be a0 82 09 3e 6d f7 f5 3d 2e 59 9d 3d
       -0.14998986 0.13428736 0.12010083 0.07683025
000090 1c 0a 0c 3d 00 4c 3d bd b7 f6 b9 3d c2 b3 9c bd
       0.03418933 -0.046215057 0.0908026 -0.076514736
0000a0 95 77 dd bd 5b ae 59 3e 78 d2 5d 3e 6a a6 29 3e
       -0.10813824 0.21257918 0.21662319 0.16567388
0000b0 5e ff 7e bb ed 16 d4 bc 8e 69 51 be 0e a2 28 3e
       -0.0038909535 -0.025889838 -0.20450422 0.16468069
0000c0 fa f2 65 be fb c8 6d be c7 7c 0a be 98 39 08 be
       -0.2245597 -0.23221199 -0.13524161 -0.1330322
0000d0 97 02 0d be f2 68 3c 3d 23 4f 9b bc 19 63 8c 3d
       -0.13770519 0.04599852 -0.018958634 0.06854839
0000e0 13 3c 2d 3e fa 93 47 be f8 da 10 3e 1c 72 cc 3d
       0.16917448 -0.19490042 0.1414603 0.09982702
0000f0 6e f7 42 3d 39 4c 3c 3e ae fa da bd 89 9b 9a 3d
       0.04759925 0.18388452 -0.106923446 0.07549197
000100 74 6d 84 bb 2c 5c f6 3d 31 57 fe 3d c4 db 4b be
       -0.004041368 0.12029299 0.12418974 -0.19908053
000110 c5 20 d4 bd 16 34 88 be 09 11 94 bc 17 2d 1a be
       -0.10357813 -0.26602238 -0.01807453 -0.15056263
000120 85 19 eb 3d ba f4 48 3e 93 29 70 be 9f 32 6d be
       0.11479477 0.19624606 -0.2345336 -0.23163842
000130 52 e7 f8 bb 4e cb 86 bd e0 94 49 3e 98 38 6c 3e
       -0.007595935 -0.06581746 0.19685698 0.23068464
000140 60 9a cc 3d 66 0d df 3d 9d 8b 1b 3e d0 00 d7 3c
       0.09990382 0.108912274 0.15189977 0.026245505
000150 c5 47 47 3e 3d 51 85 be 78 08 21 bd 65 41 69 bd
       0.19460972 -0.26038542 -0.039314717 -0.05694713
000160 5d aa 0d be 28 67 e9 3d 9d d4 e8 bd 7e 9b 99 3d
       -0.1383452 0.113966286 -0.11368678 0.07500361
000170 20 bd 21 3e 4b 4b 15 3d db 57 36 bd 76 63 a3 3d
       0.15794802 0.036448758 -0.04451738 0.07977955
000180 2a 9a c0 bd 64 9a 88 be 91 f3 42 3e c1 62 da 3c
       -0.094044045 -0.2668029 0.19038226 0.026658418
000190 d1 88 fc bd b2 80 ff bc 63 a8 cb bd 01 62 8b 3d
       -0.12330783 -0.031189296 -0.099442266 0.06805802
0001a0 8d 54 83 be ad aa 14 be f1 78 2e 3e 9f 3a aa bc
       -0.25650445 -0.14518233 0.17038323 -0.020779906
0001b0 6f 78 37 3e 18 9f d5 bd d2 7f 1a 3e d4 bd bb 3d
       0.17917036 -0.10430735 0.15087822 0.09167066
0001c0 b0 02 1a 3c 83 95 6f be 67 89 35 3e 29 43 5d 3e
       0.009400055 -0.23396878 0.17728196 0.21607651
0001d0 36 20 1c be 10 d2 4e be 28 37 33 3e 07 6b 5b bd
       -0.15246662 -0.2019732 0.17501509 -0.053568866
0001e0 72 c3 79 3d 7a 2e 94 bc 7a e3 71 be e4 7c 48 bd
       0.060977407 -0.018088568 -0.23621932 -0.04894723
0001f0 5f de c5 3d 3c f9 bb bd b6 be 46 be d5 f5 0e 3e
       0.096615545 -0.09178397 -0.19408688 0.13960965
000200 e9 93 e7 bd 5e f6 d9 3d 59 a6 ef 3d 28 bd 6d 3e
       -0.113075085 0.10642694 0.1170165 0.23216689
000210 a3 5b 62 3d c8 5b 00 be 4f 6a c7 3d 9e f0 0b 3e
       0.055263173 -0.12535012 0.09737074 0.13666007
000220 56 a5 95 3d 72 34 6b 3e f0 ab 8d bd 4c 76 93 3d
       0.07306926 0.22969225 -0.0691756 0.07200298
000230 f0 d5 3c be 31 9c 52 3c ad b6 f1 bc 27 d3 97 3d
       -0.18440986 0.012854622 -0.029506052 0.07413321
000240 da d0 07 bd f5 70 1d 3c f6 77 46 3d 6f dd 06 3e
       -0.03315816 0.009609451 0.048454247 0.13170408
000250 a7 fe 4a be 35 db be bd 40 2f f5 bd ec bd 32 3e
       -0.19823705 -0.09319154 -0.11971903 0.17455262
000260 6c 73 f4 bd b3 ce 63 be b8 c7 42 3e 41 a4 57 be
       -0.119360775 -0.22246818 0.19021499 -0.21058752
000270 61 c6 92 3d c5 bc b7 3d 01 cc 29 3d 3f f9 29 3e
       0.07166744 0.08971552 0.04145432 0.16598986
000280 40 74 1e 3d 5b 85 41 3e 55 eb 8f 3c 05 23 21 3e
       0.038685083 0.18898527 0.01756827 0.15736015
000290 e8 cc 7a 3b 73 13 d0 bb 96 8c fc bd d7 18 10 3e
       0.0038269106 -0.006349975 -0.12331502 0.14071976
0002a0 e9 b3 ce 3d ef d7 b5 3d a4 4b ab 3b a8 b4 8b 3d
       0.10092909 0.08879077 0.005227523 0.06821567
0002b0 2b de 74 3d 0e b8 ce 3d 45 54 3d be da 81 82 3e
       0.05978219 0.100936994 -0.18489178 0.25489694
0002c0 81 8d 4f 3e 5d d1 83 bd 50 3c ef 3d 7e 1f 17 3e
       0.20268823 -0.06436417 0.116814256 0.14758107
0002d0 4e 5f b7 bd 84 62 0f be e6 17 bc 3d 58 d3 02 be
       -0.08953725 -0.14002424 0.09184246 -0.12775934
0002e0 bf 9c 71 bb 30 dc 5a be 3a 0f 7a 3c 8b da 4b be
       -0.003686711 -0.21373057 0.015262419 -0.19907586
0002f0 05 6a 40 3e 67 73 dc 3d c2 a5 49 be 09 2e bb bc
       0.18790443 0.10764199 -0.19692138 -0.0228491
000300 d2 65 36 bd f6 2d 59 be 41 f2 58 3e 4a 96 ff bc
       -0.044530697 -0.21208939 0.21186163 -0.031199593
000310 97 43 5d 3e 11 df 56 3e 5a 95 5b 3d ae a9 5c 3d
       0.21607815 0.2098353 0.05360923 0.053872757
000320 6e f3 5c 3e d7 ad d8 3c 46 f3 2b bd ea ea 71 be
       0.21577236 0.02645008 -0.04198005 -0.23624769
000330 2b 53 0b 3e ad ab a4 bd d1 f1 e4 3d 1f 62 34 bd
       0.13605945 -0.08040557 0.11178935 -0.044038888
000340 fb 15 15 be 00 37 0f 3e 18 d9 28 3d b5 1b f1 3d
       -0.14559166 0.13985825 0.04122266 0.11772863
000350 a5 3f 80 be 8a 1d 87 be 99 80 0a 3e 52 59 45 be
       -0.25048557 -0.26389724 0.13525619 -0.19272354
000360 65 27 80 be 83 7c 06 be 25 c9 69 be 30 71 2d 3e
       -0.25030056 -0.13133435 -0.22830637 0.16937709
000370 76 b2 e6 3d d2 e8 e9 3d ac 57 42 3e 64 47 2c 3e
       0.112645075 0.1142136 0.18978757 0.16824108
000380 91 a1 9a bd 39 d0 35 3e 5b 0b 4c 3c bd f9 e5 3d
       -0.075503476 0.17755212 0.012453879 0.112292744
000390 45 76 fb bd 0e 50 70 3e 0a df 0b 3e 71 b5 65 bd
       -0.122784175 0.23468038 0.13659301 -0.05608124
0003a0 71 9d 86 bd c1 5a ac bd a5 18 88 bd 4f fa 06 3e
       -0.06572998 -0.084157474 -0.066453256 0.13181423
0003b0 da 7e 3a be 0f 76 2f 3e 9c bf 83 3d 89 13 70 3e
       -0.18212453 0.1713488 0.06433031 0.23444952
0003c0 b9 79 49 3e db c6 a0 3d 23 63 42 3e 24 4e 95 bd
       0.1967534 0.07850429 0.1898313 -0.07290295
0003d0 97 55 43 3e f0 c5 2f 3e 64 b0 ed bd ba 8e 20 be
       0.19075619 0.17165351 -0.116059095 -0.15679446
0003e0 c0 7e 19 3c d5 b3 54 bb d8 d4 76 3d 16 d7 28 3e
       0.009368598 -0.003245582 0.060261577 0.16488299
0003f0 d1 de c6 bd 47 fb 75 be b0 7b e9 bc 31 f0 38 be
       -0.097104676 -0.24021636 -0.028501362 -0.18060376

layers.2.bias f4 [32]
000000 7a ac 70 3d 33 36 e2 3c df a2 1e 3d fe 54 67 be
       0.058758236 0.027613735 0.038729545 -0.22591016
000010 64 ba 01 bd 98 78 94 bc 83 50 00 3e 8f 3b 0f be
       -0.031671897 -0.01812391 0.12530713 -0.13987564
000020 d8 7f 00 3e cf 2b 62 3c ce d7 00 3e 49 bf 55 3e
       0.12548769 0.01380439 0.12582323 0.20873751
000030 d0 e2 0b be d9 d3 1d 3e 01 e4 89 bc de b5 4a be
       -0.13660741 0.15412845 -0.016832354 -0.1979594
000040 5f 9d 25 3d 89 49 d4 3d 9b f4 9d bc 86 70 22 be
       0.040433284 0.10365588 -0.019281676 -0.15863237
000050 ac 9e 10 be 36 79 94 3d 07 a3 06 bd 7c 84 c0 bd
       -0.14123029 0.07249682 -0.03287032 -0.094002694
000060 ed ba 86 3d 6d 86 3f 3e f1 f7 1f 3e 24 07 0b be
       0.06578622 0.18703623 0.15621926 -0.13576943
000070 8e e9 be bc f6 1a 51 3d b6 cb 25 bd 51 b8 0f 3e
       -0.023304727 0.051051103 -0.040477477 0.14035155

layers.4.weight f4 [20, 32]
000000 7b 6c c9 bd b8 d6 88 bc 8a 0b 02 3d ed 43 56 3d
       -0.09835144 -0.016703948 0.031749286 0.052310873
000010 77 ed ca 3d 56 b5 e2 3d 8b 96 53 3e 1f 1e 83 3d
       0.09908574 0.11069743 0.20662896 0.064022295
000020 5a 10 6c bd c8 fc 4f bd ad e3 0c bd 34 22 5c 3d
       -0.05763278 -0.05077818 -0.034396816 0.053743556
000030 c6 55 dc 3d c9 ce 1c be 54 21 d6 3d 05 ba 19 3c
       0.107585475 -0.15313257 0.104555756 0.009382729
000040 f9 3a 37 bd cf 64 02 bd ba cd 1a 3e 2b 15 48 3e
       -0.044733975 -0.03183442 0.15117541 0.19539325
000050 e2 dd 39 be df 0a 59 be f7 6e 45 bd db bf 43 3e
       -0.18151048 -0.21195553 -0.048201527 0.19116156
000060 17 35 36 be 44 f5 d5 bb 8f 77 01 be 61 51 87 ba
       -0.1779369 -0.006529482 -0.12643264 -0.0010323935
000070 61 b2 53 3d da b1 22 be 1c a1 b5 3b 69 6d 21 be
       0.051683787 -0.15888157 0.0055428874 -0.15764393
000080 f1 9e 79 bd 6e 42 2e 3e 0f 10 15 3e a8 0b 9c 3d
       -0.060942594 0.17017528 0.14556907 0.07619411
000090 7e 70 3f be 43 38 36 3d 06 28 cc bd fa 11 38 bd
       -0.18695256 0.04448725 -0.09968571 -0.04493902
0000a0 0d 50 39 3d 11 17 7d 3e 19 86 63 bd 43 38 01 be
       0.045242358 0.2471583 -0.055547807 -0.12619118
0000b0 64 ea 3f 3e 47 fd 11 be 3a 9e eb bd 83 c1 66 be
       0.18741757 -0.14256774 -0.11504789 -0.22534756
0000c0 99 37 ae bd ff 41 0a 3e c8 6e 71 3e 57 46 d3 bd
       -0.08506698 0.13501738 0.23577416 -0.10316151
0000d0 8d 73 fb 3b da e5 ca 3a 0a ec ae 3d 61 ee ba 3b
       0.007673687 0.0015479878 0.08541115 0.0057046865
0000e0 27 08 e7 bd 02 a7 1c 3e 80 08 55 be a3 d6 55 be
       -0.11280852 0.15298083 -0.20804024 -0.20882659
0000f0 8b 63 21 be b3 bd 0c 3e 88 de 2f 3d 50 e0 73 3d
       -0.15760629 0.1374424 0.04293683 0.059540093
000100 2b 85 a6 3c 6b 8e e0 bd 42 1b f8 bd b6 38 7f bd
       0.020327171 -0.10964664 -0.12114574 -0.062309943
000110 a7 5b a3 3c 64 92 0c 3e 04 13 21 3e 3f f3 e5 3c
       0.019941164 0.13727719 0.1572991 0.02807009
000120 44 3d 11 3d d1 b2 6e bc da 10 c4 bb 8e d8 d0 bd
       0.035458818 -0.014569 -0.005983454 -0.101975545
000130 b7 2e 9c bd 16 dd 95 bd 43 e3 99 bd ef 0e 50 be
       -0.07626098 -0.073175594 -0.0751405 -0.20318197
000140 cd 8c ec 3d b0 84 ea 3d f0 17 de bb 82 a3 b1 3d
       0.11550293 0.114510894 -0.006777756 0.08673765
000150 3d e3 0b bc 8b 27 c3 3d f0 8e dd 3b 72 77 6a 3e
       -0.008538065 0.095290266 0.0067614242 0.22897127
000160 22 67 a8 3c 12 a1 ca 3d 34 06 0b be 55 b4 58 be
       0.02055699 0.09894003 -0.13576585 -0.21162541
000170 9b 24 16 be 04 fc e5 3d 21 e7 07 be d4 eb d4 bc
       -0.14662401 0.11229709 -0.13271762 -0.025991358
000180 7c c3 02 be 77 82 81 3e 45 d5 d9 3d 56 da d0 3d
       -0.12769884 0.2529485 0.10636381 0.10197894
000190 2e b9 6d 3d ba 3a 2d be 5c 36 c9 3d ce 35 16 bd
       0.05803793 -0.16916934 0.09824821 -0.036672406
0001a0 84 ff a1 bc 49 7a 2c 3c 93 02 1d be e2 9f 1c 3c
       -0.01977516 0.010527202 -0.15333013 0.009559603
0001b0 8d 8d a9 bd 86 36 26 3d 69 93 14 be 00 45 74 bd
       -0.08278952 0.04057934 -0.14509358 -0.059636116
0001c0 c5 df f0 bd 6e 23 0c be b4 ab 0b 3e e2 e2 28 b9
       -0.11761431 -0.1368539 0.13639718 -0.00016106249
0001d0 fc 39 a4 3b 9f a1 46 be 50 05 18 3e 88 2f 08 3e
       0.005011795 -0.19397591 0.14845777 0.13299382
0001e0 2c 92 e1 bc 10 f2 e9 3d b2 96 e3 bd b4 db 2c 3d
       -0.02753552 0.11423123 -0.11112727 0.042201713
0001f0 7e 37 ac bd 6b 80 17 bd 5b b4 d5 bd a0 d6 20 be
       -0.08409022 -0.036987703 -0.10434791 -0.15706873
000200 9b a2 26 3c 46 fb ee 3d 17 d2 43 3d 1c 98 0d 3e
       0.010170604 0.1166902 0.04780778 0.13827556
000210 9f 42 9b bd bd 14 37 be 65 0c 04 bd 67 b1 6e ba
       -0.07581066 -0.17879005 -0.032238383 -0.00091054145
000220 bc 71 df 3d bf 48 f5 3b ab 9b e3 bd 2d 02 1c be
       0.10910365 0.0074854787 -0.11113676 -0.15235205
000230 6f 1c 7a bd 4b c4 be 3d 31 92 15 be 3c 1c 08 3e
       -0.061062273 0.09314784 -0.14606549 0.1329202
000240 55 2e 34 3d 4b 62 04 3e 8e 6f 08 bd b8 71 cc bd
       0.0439895 0.12928121 -0.03330951 -0.09982628
000250 25 02 b5 3b 4e ad ff 3d 4d 4b 2e 3e 45 aa 99 bd
       0.0055239373 0.12484227 0.17020912 -0.075031795
000260 09 c8 94 bc 17 79 00 3e 04 1d 05 3c 48 59 4a be
       -0.01816179 0.12546192 0.008124594 -0.1976062
000270 51 19 81 bd df f0 6c 3d 7d 3e 98 3c 40 ee 70 3d
       -0.06303657 0.0578469 0.018584484 0.058820963
000280 9a 62 93 3c 6a 5b f6 bd fd c6 f2 3d 9b 56 f1 bd
       0.017991353 -0.120291546 0.1185436 -0.11784097
000290 8a bb a3 3d 0d ab bf 3c ee d7 98 bd d7 41 0b be
       0.079947546 0.023396993 -0.0746306 -0.13599335
0002a0 7f b6 40 be 1f 96 79 3d 54 ad 88 bc 24 12 39 be
       -0.18819617 0.060934182 -0.016684212 -0.18073326
0002b0 9c 1e 89 3d 9c f3 03 bd 86 9b d2 bd 45 78 10 3e
       0.066952914 -0.032214746 -0.1028357 0.14108379
0002c0 fc 60 0d 3e 20 af 93 3d 44 07 c5 3d 4a a5 ba 3d
       0.13806528 0.07211137 0.096205264 0.09113558
0002d0 23 26 c1 bd 81 c0 2c bd 20 dc c4 bc 17 92 c4 3c
       -0.09431102 -0.042175774 -0.024030745 0.023995442
0002e0 a9 63 8a bd 97 eb 1b be 29 ab 56 3d 52 c4 95 bd
       -0.0675729 -0.15226589 0.052409325 -0.07312836
0002f0 72 ed 4d be e9 a1 1f 3c 95 23 12 3b c0 0d c7 3d
       -0.2011011 0.009743192 0.002229904 0.097194195
000300 97 8f 4b bd d7 4c aa bd 90 36 c5 3d 42 b1 82 3d
       -0.049697485 -0.08315437 0.096295476 0.063814655
000310 6c 20 d5 bd 86 09 8a 3d 0e f0 bf 3d 76 ae 2c be
       -0.104065746 0.06740098 0.09371959 -0.16863427
000320 3c 74 2b bd dd fe 37 3c 84 22 9c bd 45 4f ac 3d
       -0.041858897 0.011230198 -0.07623771 0.08413557
000330 2a 56 c9 bd 6e a4 26 be 2c 52 a4 bd 3c bd 1d be
       -0.098308876 -0.16273662 -0.080234855 -0.15404218
000340 f0 04 e3 bd 45 99 63 bd c2 8b 45 3e 81 e0 b3 bd
       -0.11084926 -0.05556609 0.19291595 -0.08783055
000350 e4 eb 1e be 8c e4 88 3d 87 f9 39 be 60 c7 be 3d
       -0.15519673 0.06684217 -0.18161593 0.093153715
000360 2c da 28 3d a6 bc 64 bd 28 b4 4e bd b5 7d 39 3d
       0.04122369 -0.05584397 -0.05046478 0.0452859
000370 35 74 cd 3c e0 f9 26 bd fd 9a 15 3d ca c5 b4 3d
       0.025079826 -0.040765643 0.03652476 0.08826788
000380 65 de 69 3d 90 8f b8 3d 6c d1 18 be 1d ad 14 3e
       0.057096858 0.090117574 -0.14923638 0.14519162
000390 a9 71 94 bc 9e 02 0c be 44 cf 08 bd 0e af b9 ba
       -0.018120604 -0.13672873 -0.03340079 -0.001416655
0003a0 d7 25 ef 3d 0c 76 8e bd ee c4 88 3d b2 df f5 bd
       0.11677139 -0.069561094 0.06678186 -0.12005557
0003b0 e1 76 d6 3d 48 03 cc 3d 30 05 07 3e b1 9c 4f 3d
       0.10471893 0.09961563 0.13185573 0.050686542
0003c0 7f 07 67 3d 71 10 c6 3d 9e 40 41 bc fd c5 7c 3d
       0.056403633 0.09671105 -0.011795191 0.061712254
0003d0 76 d1 90 bd 84 2d ff bd 2e a3 18 be a6 b4 a0 3d
       -0.070712015 -0.12459853 -0.14905998 0.07846956
0003e0 52 43 1f 3c 70 9e 40 3d 01 39 0e 3e b5 25 b1 3d
       0.00972064 0.047026098 0.13888933 0.0864977
0003f0 6b 1f ba 3b 2b fa 5e bd e4 a1 c4 3d 63 ff fb bd
       0.005680015 -0.054437798 0.09601191 -0.123045705

layers.4.bias f4 [20]
000000 92 00 ba 3d 58 ba 83 ba 64 65 5f bd c0 63 a9 3d
       0.0908214 -0.0010050042 -0.054540053 0.08270979
000010 15 1c 8b 3b cc 01 ce 3d 52 e3 42 3d cd 88 f4 bb
       0.004245291 0.100589365 0.04758007 -0.007462597
000020 cc 42 79 3d 55 41 8b 3c e4 3f b8 bd cd 9c f5 3d
       0.060854718 0.016998926 -0.08996561 0.11992798
000030 13 eb 72 bd cf c1 12 3d 80 6f eb 3d f5 25 5c bd
       -0.059306215 0.03582936 0.11495876 -0.053747136
000040 cc ed 76 3d f3 f0 38 bd 10 59 58 3d 9b eb 41 bd
       0.060285375 -0.045151662 0.05281931 -0.04734383
