data/models/test_dc9_only_20_bins_low_init_lr/checkpoints/epoch_0.pt (torch, 7957 bytes, 6 tensors)

layers.0.weight f4 [16, 4]
00000000: 9374 d03e b203 943e 49e2 93bd aed0 2f3e
00000010: 7756 71be 3f54 cb3e bc8a dfbe 4d02 a7be
00000020: 5a8f a93e 4910 9abe 4e48 b5be e08b 3d3e
00000030: c350 103e 4de8 753e 948c e6be ef46 883d
00000040: 005b a0be 7ca2 803e 8d45 e23d 9722 bebe
00000050: c7b1 d03e 20e8 f5be 4835 f8be 2a54 bdbd
00000060: 28b3 b7bd eaf6 ba3e 57ee b43e ab94 eabe
00000070: 0310 70be 15fb 8cbe 2618 92be f83e 373d
00000080: faed d739 0a1f cf3e ea23 6d3e f613 cf3e
00000090: 8891 a7bd f2c1 a3be b310 f13e 84e8 f4be
000000a0: b629 5abe d94b 8fbe 8500 b63e 4ea0 9f3e
000000b0: 1783 a23e 36a3 f13e 8a1a 853d f548 16be
000000c0: 5fd5 a13e 06ec e4be 2820 babd 2258 803d
000000d0: ca0e 1abd 7b3f 9abe 2d22 c33e 6b80 3f3e
000000e0: 9b80 f03e abc2 99be c506 cabe 7cc4 e03e
000000f0: dd8d e93e 3e3f 353c c552 8c3e a70a 58bd
0.4071394 0.2890907 -0.07220895 0.17169449 -0.2356814 0.39712712 -0.43660533 -0.32618943
0.3311718 -0.3009055 -0.35406727 0.1851039 0.14093308 0.24014397 -0.45029128 0.066541545
-0.31319427 0.25123966 0.11048422 -0.37135765 0.40760633 -0.4802866 -0.4847815 -0.09244569
-0.08969718 0.36516505 0.3533809 -0.4581655 -0.23443608 -0.2753531 -0.2853405 0.044737786
0.00041185302 0.40453368 0.23158231 0.40444916 -0.08182055 -0.31983906 0.47083053 -0.47833645
-0.21304974 -0.27987555 0.3554727 0.3117699 0.3174064 0.47194833 0.064992025 -0.14676268
0.31608102 -0.44711322 -0.090881646 0.0626681 -0.03761176 -0.30126557 0.38112012 0.18701331
0.46973118 -0.30031332 -0.3945829 0.43899906 0.45616046 0.011062441 0.27406898 -0.052744534

layers.0.bias f4 [16]
00000000: c602 a93e 912d 0cbe e553 e23e 2164 9fbd
00000010: 2f47 d5be d7bc 56be 65cf 84bd d5b7 a63e
00000020: e4a3 033d 5de7 bfbe a700 c8be 6f3d 8abe
00000030: 63cd 743d 722c fd3e 0c17 0ebe e836 32bd
0.33009928 -0.13689257 0.4420463 -0.0778277 -0.4165587 -0.20970474 -0.0648487 0.32562128
0.03213872 -0.37481204 -0.39062998 -0.26999995 0.059766185 0.49447972 -0.13875979 -0.043509394

layers.2.weight f4 [32, 16]
00000000: 0edb 01be 6d9b ddbd 8a10 1abe 4c8b 04be
00000010: e11c 593e 3bb1 d1bc c4e7 debd 012c db3a
00000020: 6eea 3f3b 4191 063e e267 14be 47df 133b
00000030: 771b f4bd a956 523e a7fb e7bd b845 a0bd
00000040: 64de 7f3c ebd7 41be 5d54 52be 2621 eebc
00000050: 9de6 02be c425 263c 12d2 543d 1072 183d
00000060: cfda 983d 3d26 163e 060d 38be 691c bbbd
00000070: 7772 063e 1a92 c3bc 6c23 143e eaa4 58be
00000080: a72b 37be d6b6 213e 2eab f73d c586 923d
00000090: ec59 263d 887e e7bc 6f88 ca3d 7876 ecbd
000000a0: ed40 e0bd 610c 5c3e f0c0 6f3e c651 d33d
000000b0: ed29 733c c002 6cbc f585 3fbe df8d 293e
000000c0: 71db 71be 2410 60be c19c eebd 9451 05be
000000d0: a431 13be cafd c93d afef 883b fc11 353d
000000e0: c4ca 053e 9d87 1abe 86d4 fa3d 2ba8 1b3e
000000f0: 071e ae3d cd89 393e 4c7f a1bd f70a ea3d
00000100: 2ab7 073a c438 0a3e 344e 0a3e c6e4 3ebe
00000110: 342b b2bd e885 7cbe f95f 52bc d127 0dbe
00000120: eaff d83d 2baa 533e 6033 5fbe e673 5cbe
00000130: 1690 523b 83f4 99bd 13c5 493e 7fb0 773e
00000140: b8a3 043e ef42 2e3e d5eb 353e cd5f b33d
00000150: bfc6 5d3e ec82 6ebe 411d 52bd a2c7 90bb
00000160: 0dbe e5bd 46c7 cb3d 6840 27be ed71 bc3d
00000170: a3e7 123e c0d9 333a cd61 49bd a031 033d
00000180: a397 1fbd c6b3 6cbe c55d 3e3e 368d f43d
00000190: b67c 32be e69f 81bd 61c3 8fbd c607 8abb
000001a0: a767 62be 0238 5abe 262d 903d bd23 273c
000001b0: 3517 1b3e 9507 25be ed25 4a3e efca 0b3e
000001c0: ba4a f43c 7350 58be 9c86 543e 9127 703e
000001d0: 2716 eebd 28a8 32be b914 3e3e 359f 64bd
000001e0: 175f 9b3d 73c6 8b3c cf97 6fbe 2a88 11bd
000001f0: 3498 0a3e d158 88bd a986 29be dd21 2a3e
00000200: f1f9 9bbd 564b eb3d acd3 033e 6cf8 673e
00000210: 59a0 f63d 5cf7 dbbd e8fa 103e c525 c93d
00000220: 8d9f b13d 6bfd 5d3e a773 15be 2014 ce3d
00000230: 367b 1ebe 2c0f 8dbc 658c a23c e832 0f3e
00000240: e50d 7ebc 7b87 823d 4d8b 443d 2b20 453e
00000250: 6227 1bbe 99a3 9dbd d0b8 90bd 39d0 2b3e
00000260: f0a5 a3bd 66c8 7bbe 0456 613e 1ab8 4cbe
00000270: 6b7b 8a3d 33f7 ac3d 70ca 813d 2e58 0d3e
00000280: 6511 4ebc 1fac 5f3e 1213 cd3c 6685 063e
00000290: 22e7 843b 3a7d 543a 9734 22be fc8c 5d3e
000002a0: 07ad 8c3d a88f 233e b576 b83d c7a9 443d
000002b0: 9298 863d 21a7 093e ba0f 81be 1a05 6b3e
000002c0: 873f 2f3e 6b40 0abe 4bc1 d63d d89e a13d
000002d0: 7aad 0abe 2356 26be d344 e93c 6fd2 8dbd
000002e0: 45db 84bb 0a9a 6abe 8743 e63d 8d9b 32be
000002f0: da1e 4f3e f2ab 113e 895d 69be a66f c8bc
00000300: ebe7 e2bc ce0c 4bbe 824c 6b3e 46bd 19bd
00000310: baaf 523e 2817 723e 2a09 843d 0532 ba3d
00000320: 8d7d 733e 7640 513d 5e8a 19bc fcb5 49be
00000330: 9706 1d3e 7542 84bd d72c d73d 03a7 e4bb
00000340: 2d94 08be 0b9b 263e d730 813d 2380 d73d
00000350: cf37 55be c4a8 70be 6302 2e3e 66e8 33be
00000360: 7b37 7fbe f38b d6bd 1a35 5fbe 593d 2a3e
00000370: ff86 1a3e 5548 183e a426 543e 9684 653e
00000380: dc5f 9abd be91 503e 6033 97ba 4dbe 183e
00000390: 4203 25be 77fe 723e 03b3 003e 9bb5 4dbd
000003a0: d1fa 86bd 03b6 c9bd 28d0 90bd bb34 243e
000003b0: 1914 5abe 8af6 103e 4eea 1a3d dcea 473e
000003c0: bde6 473e 087c d83d 2701 453e 1486 a7bd
000003d0: 8e46 393e 2117 463e 6356 b1bd 2150 05be
000003e0: 76f6 3abd 077d 713d ffc0 013e 0be4 483e
000003f0: 2807 a7bd 6842 63be 99e5 45bd 4e32 0dbe
-0.12681219 -0.10820661 -0.15045372 -0.12943763 0.21202423 -0.025597205 -0.108840495 0.0016721488
0.0029284018 0.13141347 -0.14492753 0.0022563504 -0.11919301 0.2054087 -0.11327296 -0.07825798
0.015616987 -0.18930022 -0.20539995 -0.02906854 -0.12783284 0.01014084 0.05195815 0.037218153
0.074636094 0.14663024 -0.17973718 -0.09136278 0.13129602 -0.023873378 0.14466637 -0.2115666
-0.17887746 0.15792403 0.12093197 0.071546115 0.0406131 -0.028258577 0.09889304 -0.115460336
-0.109498836 0.21489097 0.23413444 0.103183314 0.014841539 -0.0144049525 -0.18703444 0.16558026
-0.23618867 -0.21881157 -0.11650992 -0.13019401 -0.14374405 0.098628595 0.004178963 0.044206604
0.1306563 -0.15090795 0.12247567 0.1520087 0.08501821 0.18118973 -0.07885608 0.11427873
0.0005177135 0.13498217 0.13506395 -0.18641958 -0.086996466 -0.24660456 -0.0128402645 -0.1378472
0.10595687 0.20670383 -0.21796942 -0.21528587 0.003212934 -0.0751734 0.19704084 0.24188422
0.12953079 0.1701772 0.17765744 0.08758507 0.21657847 -0.2329213 -0.05129743 -0.0044183293
-0.1121789 0.09950118 -0.16333163 0.09201417 0.14346175 0.00068607554 -0.049165536 0.032029748
-0.03896297 -0.23115453 0.18590458 0.11940996 -0.17430386 -0.06329326 -0.070196874 -0.0042123524
-0.22109853 -0.21310428 0.070398614 0.010201392 0.15145572 -0.16116174 0.1974103 0.13651632
0.029820789 -0.21124439 0.20754474 0.23452593 -0.11625319 -0.17446959 0.18562593 -0.055815894
0.07586496 0.017062401 -0.23397754 -0.035530247 0.13534623 -0.066575654 -0.16555275 0.1661448
-0.07616032 0.114889786 0.12873715 0.22653359 0.12042303 -0.107405394 0.14158213 0.09821657
0.0867301 0.21678703 -0.14594899 0.10062432 -0.15476689 -0.017219149 0.019842336 0.13984263
-0.015506242 0.06373497 0.04798441 0.19250552 -0.15151742 -0.076972194 -0.070665 0.1677865
-0.079906344 -0.24588165 0.22005469 -0.19992104 0.06761821 0.08445587 0.0633744 0.13803169
-0.012577389 0.21843003 0.025033507 0.13136825 0.0040558735 0.00081058184 -0.15840374 0.21635813
0.0686894 0.1597277 0.090070166 0.048013475 0.06572069 0.13442661 -0.2520731 0.22951165
0.17114078 -0.13501136 0.104860865 0.07891625 -0.13542739 -0.16243796 0.0284752 -0.06924903
-0.0040544593 -0.22910324 0.112433486 -0.1744215 0.20226613 0.14225748 -0.22789587 -0.0244673
-0.027698478 -0.19829103 0.22978404 -0.03753402 0.20574847 0.23641646 0.064470604 0.09091572
0.23778363 0.051086865 -0.009371368 -0.19698328 0.15334545 -0.06457988 0.105065994 -0.006977917
-0.13337775 0.16270082 0.063081436 0.10522487 -0.2082207 -0.23501879 0.16993098 -0.17569122
-0.24923508 -0.10475912 -0.217976 0.16624965 0.1509056 0.14871342 0.20717865 0.22413859
-0.07537815 0.20368096 -0.0011535697 0.14916344 -0.16114524 0.23729883 0.12568288 -0.05022202
-0.06590808 -0.09849169 -0.07070953 0.1603574 -0.21296729 0.14156547 0.037821107 0.19523185
0.19521613 0.10570532 0.19238721 -0.0817987 0.1809332 0.1934476 -0.08659055 -0.13018848
-0.0456452 0.058957126 0.12671278 0.19618241 -0.08155662 -0.221933 -0.048314665 -0.13788721

layers.2.bias f4 [32]
00000000: c72e ac3d eac0 3d3d 5e78 2e3d d8fb 71be
00000010: b383 f5bc b9e1 b03c de80 e83d 19f2 f3bd
00000020: 6553 ea3d 8b32 dd3c 81c8 183e 5124 383e
00000030: 6cb6 d3bd 4848 323e 24fb 8ebc 8f67 3ebe
00000040: 32bf 0c3d 2d39 da3d 8fe0 b8bd 2d81 53be
00000050: 299e 56be c1ad a13d 8fea 94bc 9a83 03be
00000060: d56b 973c 4987 173e 995e 123e 48aa 4abe
00000070: 63c8 973c 14a7 bd3c 3b7b 21bd f847 be3d
0.084073596 0.046326555 0.04259526 -0.23631227 -0.029970026 0.021592008 0.113527045 -0.11911411
0.114416875 0.02700164 0.14920236 0.17982604 -0.103375286 0.17410386 -0.017453738 -0.18594192
0.034362026 0.10655437 -0.09027206 -0.20654745 -0.20958771 0.07894469 -0.018178253 -0.12843171
0.018484036 0.14797701 0.14293899 -0.1979152 0.018528169 0.023150958 -0.039424162 0.09291071

layers.4.weight f4 [20, 32]
00000000: bd02 b9bd 6bb0 0ebe 4624 753b 27ad 74bd
00000010: 64d2 e43d c59c 213e a75c 283e 4805 9b3d
00000020: 22c0 a1bc 8c18 f7bd 155b d9bc c08a ff3d
00000030: dde4 283d bbb3 b9bd bce0 1a3e 968b 9b3d
00000040: 26e3 babd 0329 83bd 2906 ebbc 24d6 ea3d
00000050: be6b 06be 2f89 e8bd 5884 61bd 4558 9d3d
00000060: 011b 00be 7b9a e0bd ce35 11be 20e3 083e
00000070: 6ce4 cb3d 94c8 e1bd dcec 063d 1be7 05be
00000080: 401a 7fbd 8077 c23d c07c e73d 3ced a43c
00000090: afe8 14be 5641 913d 3d00 1ebe aaad 4ebd
000000a0: 2623 8a3d a850 353e cfdd b4bd 704f f1bd
000000b0: 9f60 0b3e ba5d 22be da7e cbbd 92a8 2fbe
000000c0: 0867 16be d548 c73d 87b7 d03d 54c6 01be
000000d0: 1e52 fc3a d3b8 013d 725c 9a3d 0139 a1bd
000000e0: d0a8 d3bd a069 453d 4197 0dbe 6dec 1dbe
000000f0: ee9a 1cbe a5ea 313e 7db7 613d 0c8c ed3c
00000100: 6836 1bbd 49e9 18be 35f9 13be 7d1b 13be
00000110: 895b f33c cc46 063e 100c 0b3e 3c94 893c
00000120: 9292 3e3b 9e88 6abd 97ec 60bd e10a 1cbe
00000130: 5a19 d0bd 4c4e b7bd 8cfd a2bd e021 2abe
00000140: 8df1 a63d 9bdb 833d c044 e5bd a65e d03d
00000150: 3d0c 05bc d221 1e3e 3774 06bd 8783 223e
00000160: f48a 5e3c ac12 0e3d c581 24be cb09 0abe
00000170: 2d74 23be 6377 f43d d677 c2bd 981e 8ebd
00000180: f72e fdbd 0515 2e3e f4ee f23d 60e9 c13d
00000190: 7f90 cc3d d363 20be 36d4 713d 5536 25bd
000001a0: 8eab 983c 45e3 f4bb 5441 0abe a008 a23d
000001b0: bcb1 edbd ec17 893d 1e1f 01be a98f 06be
000001c0: 4117 1dbe 12f2 0cbe 78cd 7b3d d160 6fbd
000001d0: dabc 493d a0d4 2cbe a253 253e 6ff7 903d
000001e0: 5db6 02bd 5943 e33d c41c 6ebd cad3 82bc
000001f0: 6deb 90bd 016f 62bd 2ec8 07be a4e6 02be
00000200: 35ed 9ebb 6065 8c3d e189 123d 37b7 cb3d
00000210: 31a3 01bd a737 19be 51fa b6bb ae21 b63c
00000220: 3434 a93d b3c3 40bc e552 22be 770a 0fbe
00000230: 533b 1bbd 5681 243e dd3f bfbd 3c38 fb3d
00000240: 5941 d0bc 9c23 133e e060 e1bd 3619 09be
00000250: 48c3 6e3d 1300 213e e6f8 243e d47d 20be
00000260: 0b41 4e3c 9771 0f3e 449c 4e3d 1202 0ebe
00000270: 064d 80bd f2d5 a43d e6af 853c a5d3 ac3d
00000280: e09a 293d 3b20 e4bd 2b3b 063e 3114 30be
00000290: da38 dc3d a0e2 023d 5537 29bd 6bcd 21be
000002a0: 28eb 2fbe 6675 a23d 73b2 c53a 14e9 23be
000002b0: fab6 be3d 31ff 2dbc 169c 9bbd d0e4 ff3d
000002c0: 039f 093e b528 ab3d e425 0d3e ec43 0c3e
000002d0: 31bb 05be 85c7 4f3c d790 88ba 6471 3c3d
000002e0: de44 5cbd d662 08be 86fa c13d 1542 14be
000002f0: 6dea 2fbe 8210 db3c 1a1f 353c 71d6 f23d
00000300: a05f 8abd 271c a8bd d2e1 a23d d08c 9b3d
00000310: 5b4a 8fbd 1177 8b3d 98c5 283e 0eac 2cbe
00000320: f11f 50bd 6e18 723d 8ff0 d4bd 11ad da3d
00000330: c9d0 37bd ae24 fdbd 7052 99bd 0d30 10be
00000340: 739d f9bd 044a efbc 32af 1d3e 79d9 c4bd
00000350: 1cb5 1fbe fc30 f83d fee1 2dbe fc84 b83d
00000360: 0648 8a3d 528c b2bc 66e4 85bd 94dd b03d
00000370: f381 9a3c 8877 d9bc fcb1 af3c cc15 0a3e
00000380: 9235 d23d 5049 233e a755 edbd 032f cf3d
00000390: bd1d c2bc 3356 25be 3bfb 7abd 11c4 e8bb
000003a0: 58b4 083e 4b35 b0bd 6a2c b43d 5e51 f2bd
000003b0: 3dec a93d 8d86 a23d 4adf ed3d 0f53 c43c
000003c0: cb52 b83d 0c86 ae3d af29 413d ebf5 9e3d
000003d0: c171 87bd 1c97 17be a4c1 15be dac7 063e
000003e0: bf9a 78bc bf90 033d 0620 e53d 9ebc 443d
000003f0: 7f2f 883d 3e18 a1bd 4668 de3d cc0f 08be
-0.090337254 -0.13934486 0.0037405654 -0.059735443 0.11172941 0.15782459 0.16441594 0.07569367
-0.019744936 -0.12065229 -0.02653269 0.12477636 0.041233886 -0.09067484 0.15124792 0.07594983
-0.091253564 -0.06404307 -0.02868946 0.11466625 -0.13127038 -0.11354291 -0.055057853 0.07682852
-0.12510301 -0.10966965 -0.14180681 0.13367891 0.099556774 -0.11024585 0.03294073 -0.13076441
-0.062280893 0.09495449 0.11303091 0.020132653 -0.14541887 0.0709254 -0.15429778 -0.050458588
0.06744985 0.17706549 -0.08831369 -0.117827296 0.13611077 -0.15856066 -0.099363044 -0.17154148
-0.14687741 0.097306885 0.10191255 -0.12673312 0.0019250547 0.031670403 0.07537164 -0.07872201
-0.10334933 0.048196435 -0.1382723 -0.1542222 -0.15293476 0.17374666 0.05510663 0.028997444
-0.037893683 -0.14932741 -0.14450534 -0.14365955 0.029706733 0.13112944 0.1357882 0.016794316
0.0029079062 -0.057259195 -0.05491313 -0.15238525 -0.101610854 -0.08950481 -0.079585165 -0.16614485
0.08151541 0.06438371 -0.11194754 0.10174303 -0.008120594 0.15442589 -0.032825675 0.15870486
0.013582934 0.034685776 -0.16065128 -0.13480298 -0.15962286 0.11936834 -0.09495513 -0.06939429
-0.123624735 0.17000206 0.11861983 0.09468341 0.09988498 -0.1566308 0.05904027 -0.04033502
0.018636491 -0.0074733817 -0.13501483 0.07911801 -0.11606166 0.06694016 -0.12609527 -0.1314074
-0.15340902 -0.13764217 0.061475247 -0.05844194 0.04925237 -0.16877985 0.16145185 0.07078444
-0.031912196 0.1109683 -0.0581329 -0.01597013 -0.07076154 -0.055281643 -0.13259956 -0.12783295
-0.0048500546 0.06855273 0.035776023 0.09947055 -0.031649772 -0.14962636 -0.0055840393 0.022232857
0.0826191 -0.011765408 -0.15851934 -0.13968836 -0.037898373 0.16064963 -0.09338353 0.12266585
-0.025421785 0.14369053 -0.110048056 -0.13388523 0.058291703 0.15722685 0.16110572 -0.15673
0.01258875 0.14008175 0.050441995 -0.13867977 -0.06264691 0.08048619 0.016319226 0.084388055
0.041407466 -0.1113896 0.13108508 -0.17195202 0.10753031 0.031954408 -0.041312534 -0.15801017
-0.17179549 0.07932548 0.0015083089 -0.16006881 0.09312244 -0.010619924 -0.075981304 0.124948144
0.13439564 0.083573736 0.13783985 0.13697785 -0.13059689 0.0126818465 -0.0010419142 0.046006575
-0.053776614 -0.13318953 0.09471612 -0.14478333 -0.1717927 0.02674127 0.0110547785 0.11857308
-0.0675652 -0.08208495 0.07953228 0.07595217 -0.06996604 0.068098195 0.16481626 -0.16862509
-0.05081171 0.05910533 -0.103974454 0.10677541 -0.044876847 -0.12360512 -0.07486427 -0.1408083
-0.12188234 -0.029210098 0.15398863 -0.09611792 -0.15596431 0.12118718 -0.1698074 0.0900974
0.06752019 -0.021795426 -0.06537704 0.08636013 0.018860793 -0.026546255 0.021447174 0.13484877
0.10264124 0.15945935 -0.115886025 0.10116389 -0.023695821 -0.16146164 -0.06127475 -0.007103451
0.13350046 -0.08603915 0.08797534 -0.11831926 0.08297012 0.0793582 0.11614855 0.023965387
0.090001665 0.08521661 0.047158893 0.07761749 -0.06613494 -0.14803737 -0.1462465 0.13162175
-0.015173613 0.032120463 0.111877486 0.048031442 0.06649684 -0.07865952 0.10859732 -0.13287276

layers.4.bias f4 [20]
00000000: 85ea 003e c14e d3bb c7c9 d6bd e0ca 023e
00000010: d6d9 6ebc c14d 033e 3857 533d 6e9e 933b
00000020: 7786 c83d 8026 3fbb 6b7c d8bd 9cce 143e
00000030: 421b ccbd 52e4 373d 6209 ef3d d7e5 c1bd
00000040: 003d b73d e37b 6dbd 84a2 6f3d 7683 21bd
0.12589462 -0.006448597 -0.10487705 0.12772703 -0.014578303 0.1282263 0.05159685 0.0045049703
0.09791272 -0.0029167235 -0.10570606 0.1453194 -0.099661365 0.044895478 0.116717115 -0.094676666
0.08947182 -0.057979476 0.058504596 -0.03943201
