data/models/test_easier/checkpoints/epoch_0.pt (torch, 6101 bytes, 6 tensors)

layers.0.weight f4 [16, 6]
0	0x3e35a4e2	0.17738679
1	0xbdeff14d	-0.11715946
2	0x3e4263df	0.1898341
3	0xbec8b808	-0.39202905
4	0x3e987c35	0.29782262
5	0x3b2a4c8f	0.0025985574
6	0x3ebb758b	0.36613116
7	0xbe4070a8	-0.18792975
8	0x3e136180	0.14392662
9	0xbea3eb77	-0.32015583
10	0x3dc53c0f	0.09630596
11	0x3d192580	0.03738928
12	0x3ddfe6f4	0.10932723
13	0xbe982c60	-0.29721355
14	0xbe8ffbd2	-0.2812181
15	0xbda59609	-0.080852576
16	0xbd0eecc4	-0.034893766
17	0x3ea22135	0.3166596
18	0xbdf4e72d	-0.11958156
19	0x3e50b841	0.20382787
20	0xbe01f352	-0.12690476
21	0x3dff14bf	0.12455129
22	0xbe57ade9	-0.21062435
23	0x3e9d0678	0.30668998
24	0xbd90fac0	-0.07079077
25	0xbeabf315	-0.33583894
26	0x3e78c385	0.24293335
27	0xbdf94275	-0.12170879
28	0x3ebc03d8	0.36721683
29	0xbe8682ea	-0.26271755
30	0x3e63024f	0.2216885
31	0x3e638edc	0.22222465
32	0x3cbac87f	0.022800682
33	0xbec8619b	-0.39136967
34	0xbe724a66	-0.23661193
35	0x3e83c974	0.25739634
36	0x3ea3b276	0.31972092
37	0x3cedb386	0.029016268
38	0x3e82b544	0.2552892
39	0x3ebd9a3c	0.37031734
40	0x3e60ef7f	0.2196636
41	0xbe451121	-0.19244815
42	0xbe2df0f5	-0.16986449
43	0x3e12e759	0.14346065
44	0x3e77a132	0.24182585
45	0x3ec13b06	0.37740344
46	0xbde2eebd	-0.11080692
47	0xbe631b5f	-0.2217841
48	0x3eb915d5	0.3614947
49	0x3c9772c9	0.018487351
50	0xbdc95c19	-0.09832019
51	0xbdb8f5c2	-0.090312496
52	0xbeb17fd2	-0.34667832
53	0x3e997098	0.29968715
54	0xbe398d89	-0.18120398
55	0xbae9ba63	-0.0017832037
56	0x3ecbb3e8	0.39785695
57	0xbec14c88	-0.377537
58	0xbc6d3dda	-0.014480079
59	0xbe97074c	-0.29497755
60	0x3e607a3e	0.21921632
61	0x3d98cdd5	0.07461134
62	0x3ec923dd	0.39285174
63	0x3eaec164	0.3413192
64	0xbec51b1a	-0.3849724
65	0xbe5d79a6	-0.21628436
66	0xbadaa7b8	-0.0016682064
67	0x3daac9fb	0.08339306
68	0xbe9dcb77	-0.30819294
69	0x3eacbb9c	0.33736885
70	0xbd8c97d2	-0.06864895
71	0x3e8d55c8	0.27604508
72	0xbecfd562	-0.40592486
73	0xbe23ba69	-0.15989079
74	0xbe7d82e6	-0.24756965
75	0x3e823b85	0.25436035
76	0x3eb2a303	0.34889993
77	0x3bee765b	0.0072772927
78	0x3e75911d	0.23981138
79	0xbe82e761	-0.25567153
80	0x3e1af4fd	0.15132518
81	0x3e84306e	0.258182
82	0xbdd65cc1	-0.1046691
83	0xbe8f1148	-0.27942872
84	0x3ebbe342	0.3669682
85	0x3e93c02b	0.2885755
86	0x3e9924b1	0.29910806
87	0x3e3138b4	0.17306787
88	0xbe2fe54d	-0.17177315
89	0x3dfd6359	0.12372465
90	0x3e246b81	0.16056634
91	0x3e8fdf0e	0.28099865
92	0xbe836bf1	-0.2566829
93	0xbe295c11	-0.16539027
94	0x3d8b2d7f	0.06795787
95	0x3ebbdc2c	0.36691415

layers.0.bias f4 [16]
0	0xbd815d9d	-0.063166834
1	0xbd926efa	-0.07150073
2	0x3e5e8549	0.21730532
3	0x3eaa92d0	0.33315134
4	0xbc342688	-0.010995515
5	0xbe72dae4	-0.23716313
6	0x3e3a2ab8	0.18180358
7	0x3e0c10a3	0.13678221
8	0x3e1a45e7	0.15065728
9	0xbe92d2e1	-0.28676513
10	0x3e505bcf	0.20347522
11	0x3eac8062	0.33691698
12	0x3e3bab00	0.1832695
13	0xbe641a4b	-0.22275655
14	0x3e0bbec6	0.13646993
15	0xbaca9785	-0.0015456533

layers.2.weight f4 [32, 16]
0	0x3dde7877	0.108628206
1	0xbe00a174	-0.1256159
2	0xbe32e184	-0.1746884
3	0x3e752433	0.2393959
4	0x3d782a83	0.060587417
5	0xbe655c8b	-0.22398584
6	0xbe5afa66	-0.21384582
7	0x3debba20	0.1151011
8	0xbd70cf12	-0.058791228
9	0x3d959988	0.073046744
10	0xbe0b1a73	-0.13584308
11	0x3e3f02de	0.18653437
12	0xbe2b3f17	-0.16723286
13	0x3dd4a6e0	0.103833914
14	0xbdd93fef	-0.106078975
15	0x3e28a12e	0.16467735
16	0x3dff5393	0.124671124
17	0x3ac8751f	0.0015293694
18	0xbe1cbe2f	-0.15306924
19	0x3e86fa67	0.26362917
20	0x3d887ca0	0.06664395
21	0xbe139e83	-0.14415936
22	0x3d2c1e87	0.0420213
23	0x3db99d6e	0.090632305
24	0xbe2a7b7d	-0.1664867
25	0xbe5af805	-0.21383674
26	0xbe4139fb	-0.18869774
27	0xbe558303	-0.20850758
28	0x3e7ca5e2	0.24672654
29	0x3e21f4b3	0.15816002
30	0x3d3db2a0	0.04631293
31	0x3e52903c	0.20562834
32	0x3c14ed46	0.0090897735
33	0x3df67c9e	0.120354876
34	0xbe06c1a5	-0.13159807
35	0xbbf6804d	-0.007522619
36	0xbe6b7dd2	-0.22997215
37	0x3e7a661e	0.24453017
38	0x3e763acd	0.24045868
39	0xbe39e506	-0.18153772
40	0x3debe88b	0.115189634
41	0x3dd06ca0	0.101769686
42	0x3e7fb788	0.24972355
43	0x3cac2f79	0.02101873
44	0xbd9d38da	-0.07676859
45	0xbe49c444	-0.19703776
46	0x3d2db5a4	0.042409554
47	0xbcea6dfb	-0.028616896
48	0xbe148a69	-0.14505924
49	0xbd06f8cf	-0.032952126
50	0x3d99a959	0.075030036
51	0x3e517110	0.20453286
52	0x3d7e979e	0.062156312
53	0x3cfde50c	0.030993007
54	0x3e5423c3	0.20716767
55	0xbd5e2526	-0.054234646
56	0xbce88256	-0.028382462
57	0x3c1369a5	0.008997356
58	0xbd6794d3	-0.056538414
59	0xbe6d17e8	-0.23153651
60	0xbe13db61	-0.14439155
61	0x3dc0af34	0.09408417
62	0x3d67d18c	0.056596324
63	0xbe6c561f	-0.23079728
64	0xbd18ac16	-0.03727349
65	0x3dbe89bd	0.09303615
66	0xbdc8b24c	-0.097996324
67	0x3dc549b1	0.09633196
68	0x3b1dccf6	0.0024078465
69	0xbae6ee04	-0.0017618542
70	0x3e02bdf5	0.12767775
71	0xbe572b1d	-0.2101254
72	0xbc881ecd	-0.01661625
73	0x3e375110	0.17902017
74	0xbda5e01a	-0.080993846
75	0x3d7fb000	0.062423706
76	0xbe6bc1d2	-0.23023155
77	0x3e6ee05c	0.23327774
78	0x3e065245	0.13117321
79	0xbaba9ae1	-0.0014236831
80	0x3cab7c6e	0.020933356
81	0xbdf3200c	-0.11871347
82	0xbd0cf808	-0.03441623
83	0xbe1f035a	-0.15528622
84	0xbe049357	-0.1294683
85	0x3e1bd854	0.15219241
86	0xbe325edf	-0.17419003
87	0xbe34e2a0	-0.17664576
88	0xbd30132e	-0.04298704
89	0xbe2d4b68	-0.16923296
90	0xbe15f470	-0.14644027
91	0x3e71b25e	0.23603198
92	0x3d4d7a63	0.050165545
93	0x3dfeee3e	0.12447785
94	0xbe0c6f48	-0.13714325
95	0x3e2135cc	0.15743178
96	0xbdf20543	-0.1181741
97	0xbdcdffba	-0.100585416
98	0x3e696e28	0.22795928
99	0x3a9debeb	0.0012048458
100	0x3daa900f	0.08328258
101	0x3e73a61b	0.23793833
102	0x3de85f25	0.113462724
103	0xbd261ad8	-0.040552944
104	0x3da41550	0.080118775
105	0xbdd63cec	-0.10460839
106	0x3e1ece6c	0.15508431
107	0xbe18fb82	-0.14939693
108	0x3da54d37	0.08071368
109	0xbd9dab02	-0.07698633
110	0x3e7a1712	0.24422863
111	0xbde0fdb5	-0.10985891
112	0xbdf64ec4	-0.12026742
113	0x3e5038a7	0.20334111
114	0xbe356001	-0.17712404
115	0x3e06818a	0.13135353
116	0xbd33f4c7	-0.04393461
117	0xbe459f46	-0.19299039
118	0xbd0fb718	-0.03508672
119	0xbe45fe6e	-0.19335338
120	0xbdd61100	-0.10452461
121	0x3e646d39	0.2230729
122	0xbdfe545d	-0.12418435
123	0x3d8a4ee1	0.06753326
124	0xbdec397a	-0.115344
125	0xbe02e7dc	-0.1278376
126	0x3d59bef1	0.05316061
127	0x3e02df36	0.1278046
128	0x3c4bed3a	0.012446696
129	0x3e22323d	0.15839477
130	0x3deda9b4	0.11604634
131	0xbe5bf67f	-0.2148075
132	0xbb9531cf	-0.004553057
133	0x3e80d672	0.2516361
134	0x3db7ce28	0.08974868
135	0xbc79974c	-0.015233826
136	0x3e3c094a	0.18362918
137	0xbd83f8e9	-0.0644396
138	0x3dd0f3e6	0.1020277
139	0xbdd3782b	-0.103256546
140	0xbe4a0eba	-0.1973218
141	0xbe25e05e	-0.1619887
142	0x3e68dc7e	0.22740361
143	0xbe436b91	-0.19084002
144	0x3de50d33	0.11184158
145	0xbdbc6071	-0.09198082
146	0x3dc7debd	0.09759281
147	0xbe6df5b1	-0.23238255
148	0x3e125798	0.14291227
149	0x3e577cd7	0.21043716
150	0xbdfa93bf	-0.122352116
151	0x3e67a6c5	0.22622211
152	0x3e4cf04d	0.20013542
153	0xbd86e594	-0.06586757
154	0xbe640323	-0.22266822
155	0x3db439e5	0.08800105
156	0x3d8b344c	0.06797084
157	0xb9a90580	-0.0003223829
158	0xbe5c8f90	-0.2153914
159	0x3e5029af	0.20328401
160	0x3d1118a5	0.035423893
161	0x3dbd73b5	0.09250585
162	0xbe51c2fc	-0.20484537
163	0xbe6859e2	-0.22690538
164	0xbe62e4c3	-0.22157578
165	0x3d0c0489	0.034184013
166	0xbe5baf7f	-0.21453665
167	0x3de9dd8f	0.11419212
168	0xbde3594e	-0.11101018
169	0xbe821fb8	-0.25414824
170	0x3e246cfb	0.16057198
171	0xbdb4114d	-0.08792362
172	0x3e5bd42a	0.21467653
173	0x3d6f6fa3	0.058456074
174	0xbd68998a	-0.05678705
175	0x3dfd8033	0.12377968
176	0xbd90d8b2	-0.07072581
177	0xbe1ca44f	-0.15297054
178	0x3e3360a1	0.1751733
179	0xbbdd35ea	-0.006750812
180	0x3da86f0f	0.08224308
181	0xbe110f90	-0.14166093
182	0xbd4cfb93	-0.050044607
183	0xbe0bb8cf	-0.13644718
184	0xbe0e709e	-0.13910148
185	0x3ce0fd99	0.027464675
186	0x3dde571a	0.10856457
187	0x3de17975	0.11009494
188	0xbc397200	-0.011318684
189	0xbe491524	-0.19636971
190	0xbe442d9a	-0.1915802
191	0x3c82933b	0.015939346
192	0x3db2b1e8	0.08725339
193	0x3e7e15d6	0.24813017
194	0x3dede7bd	0.11616466
195	0xbe22b530	-0.1588943
196	0xbde5eac0	-0.11226416
197	0x3d8a4868	0.06752092
198	0x3dd0fb14	0.10204139
199	0x3c686126	0.014183318
200	0xbdb445b9	-0.08802361
201	0x3d199ed6	0.037504993
202	0xbe46f717	-0.19430195
203	0xbd36dcac	-0.044644043
204	0xbde0cbee	-0.109763965
205	0xbe4099cc	-0.18808669
206	0xbd236829	-0.039894257
207	0xbd975b53	-0.073904656
208	0x3e30da9d	0.17270894
209	0x3e58dc70	0.2117784
210	0x3e69da75	0.22837241
211	0xbe4fade1	-0.20281173
212	0x3c0e4953	0.008684474
213	0x3ce88e1b	0.028388074
214	0xbe1cf8be	-0.15329263
215	0xbd92a3fb	-0.07160183
216	0xbe2a70b9	-0.16644563
217	0xbcc17be3	-0.023618644
218	0xbe1c2f03	-0.15252309
219	0x3aaa29a2	0.0012982378
220	0x3c86d369	0.01645823
221	0x3deaeb26	0.11470632
222	0x3df190cc	0.11795196
223	0xbd49350c	-0.049122855
224	0x3dbe8681	0.09302998
225	0x3e08d41a	0.1336216
226	0xbddc7da4	-0.107661515
227	0x3e86f195	0.26356187
228	0xbe55e062	-0.20886377
229	0x3e5f478b	0.21804635
230	0x3d9ebdbc	0.07751033
231	0x3e0eec52	0.13957337
232	0xbd7b2612	-0.061315604
233	0xbe599803	-0.21249394
234	0x3dc1226a	0.09430392
235	0xbdb4b6f2	-0.088239565
236	0x3e799a6e	0.24375317
237	0x3c8e3315	0.017358342
238	0xbd01ceed	-0.03169148
239	0xbe501b9e	-0.20323035
240	0x3e4237a9	0.18966545
241	0x3d673fdf	0.056457397
242	0x3c8f3dbc	0.017485492
243	0x3d0c808e	0.034302287
244	0xbe834f15	-0.25646272
245	0x3dc0471a	0.093885615
246	0x3e69d6f9	0.22835912
247	0x3dd73470	0.105080485
248	0x3a82dd15	0.00099841
249	0xbe0eadc7	-0.13933478
250	0xbe202ec0	-0.15642834
251	0x3e51f325	0.20502909
252	0xbc767f58	-0.01504501
253	0x3e26abb6	0.1627644
254	0xbe1415d8	-0.14461458
255	0x3e269338	0.16267097

layers.2.bias f4 [32]
0	0x3de8ccdb	0.11367198
1	0x3d7f3632	0.062307544
2	0xbe2275f9	-0.15865315
3	0xbdc7ccd0	-0.09755862
4	0x3d8e265d	0.06940911
5	0xbe2fe0a8	-0.17175543
6	0x3e39f89d	0.18161245
7	0x3df0467c	0.11732194
8	0x3e1c1c9b	0.15245287
9	0xbe035258	-0.1282438
10	0xbda0d4c2	-0.0785308
11	0xbe40cc0d	-0.18827839
12	0xbe2d0272	-0.16895464
13	0x3de1ebc4	0.11031297
14	0xbe5a1035	-0.21295245
15	0x3dbd4c2c	0.09243044
16	0x3e3c4246	0.18384656
17	0x3e70667b	0.23476593
18	0xbe7f504b	-0.24932973
19	0xbc9bda83	-0.019025093
20	0x3da2512b	0.07925638
21	0xbd26d573	-0.040730905
22	0xbd87015e	-0.06592058
23	0xbe397c82	-0.18113902
24	0xbe505845	-0.20346172
25	0x3dd1fc06	0.10253148
26	0x3e5abd17	0.21361195
27	0x3e3da315	0.18519242
28	0xbd0adf0c	-0.03390412
29	0x3d398d49	0.045300756
30	0xbdac8ccb	-0.08425292
31	0x3e5a6d1b	0.21330683

layers.4.weight f4 [5, 32]
0	0xbdcf3fca	-0.10119589
1	0x3e133bd0	0.14378285
2	0xbe01a912	-0.12662151
3	0x3d2871b6	0.04112407
4	0xbc880180	-0.016602278
5	0xbba8cb2f	-0.0051511745
6	0x3dee0f62	0.11624028
7	0xbd11a470	-0.03555721
8	0x3e0e6c01	0.13908388
9	0xbce8ff09	-0.028441923
10	0x3d492ba3	0.04911388
11	0xbe17a3ed	-0.14808626
12	0xbd17cccd	-0.037060548
13	0x3d8570ec	0.06515679
14	0x3d81ed36	0.063440725
15	0xbd59c32d	-0.05316465
16	0xbe03a0ad	-0.12854262
17	0x3e11fb4e	0.14256021
18	0x3e20c143	0.15698723
19	0xbd1d7564	-0.03844203
20	0xbe077e4a	-0.13231769
21	0x3da14021	0.0787356
22	0x3d75f492	0.060047694
23	0xbdc5f733	-0.0966629
24	0x3e034320	0.12818575
25	0x3d3fa974	0.046792462
26	0x3d990d40	0.0747323
27	0x3dc290ad	0.09500251
28	0xbce0c965	-0.027439782
29	0x3e062092	0.13098362
30	0x3c4bffd9	0.012451136
31	0x3d033bdb	0.032039504
32	0xbe2ffdc3	-0.17186646
33	0x3d03e0d0	0.03219682
34	0x3db73752	0.089460984
35	0x3d17f7af	0.037101444
36	0xbe0bfdb8	-0.13671005
37	0x3dc0f39d	0.094214655
38	0xbdd8385b	-0.10557624
39	0x3dfcc5c7	0.123424105
40	0xbc9b344a	-0.018945832
41	0x3a8ce64c	0.0010749786
42	0xbe0e0dad	-0.13872404
43	0x3d5a9f6c	0.053374693
44	0xbdcb2e08	-0.09920889
45	0x3e1d4ce8	0.15361369
46	0xbe31af73	-0.17352085
47	0x3da71e20	0.08160043
48	0x3e17d3ca	0.14826885
49	0xbda6cafd	-0.08144186
50	0x3d9ff57f	0.078104965
51	0x3de2ac6a	0.110680416
52	0x3d59d751	0.053183857
53	0x3e1683e7	0.14698754
54	0x3c940315	0.018067876
55	0xbdc8e61f	-0.09809517
56	0xbdfd9206	-0.123813674
57	0xbe013818	-0.12619054
58	0x3d5233f5	0.05131908
59	0x3dc60270	0.09668434
60	0x3d1c3b76	0.038142644
61	0xbe080722	-0.13283971
62	0x3d4c41c2	0.0498674
63	0x3c8080ea	0.015686471
64	0x3b6990cd	0.0035639287
65	0x3deb80af	0.11499154
66	0x3d7f6fdb	0.062362533
67	0xbdd16ffc	-0.102264374
68	0xbcae0eab	-0.021247229
69	0x3d27b664	0.040945426
70	0x3da71373	0.081580065
71	0x3d918ab0	0.07106531
72	0x3e2b025e	0.16700122
73	0xbdb0e72d	-0.08637843
74	0xbdd95519	-0.10611934
75	0xbda0ac71	-0.078453906
76	0x3d372250	0.044710457
77	0x3d4f4680	0.050604343
78	0x3df6c3a6	0.12049036
79	0x3d7c372f	0.061576065
80	0xbd8f67b7	-0.07002204
81	0xbe1b1459	-0.15144481
82	0xbd93ffde	-0.07226537
83	0x3e1bb31a	0.1520504
84	0xbda9fa84	-0.08299735
85	0xbe05aab5	-0.13053401
86	0x3d9a970b	0.075483404
87	0x3e359151	0.17731215
88	0xbd8bc020	-0.06823754
89	0xbe0d8514	-0.13820297
90	0xbd63220b	-0.055452388
91	0x3def3416	0.116798565
92	0x3de27033	0.110565566
93	0x3e047c01	0.12937929
94	0x3da0a810	0.078445554
95	0xbb58be11	-0.0033072273
96	0xbc970797	-0.018436236
97	0xbd3dd33b	-0.046344023
98	0x3e2b42a3	0.16724639
99	0x3e131fd8	0.14367616
100	0x3da3126b	0.07962497
101	0xbdc5c53d	-0.09656761
102	0x3e1dc316	0.1540645
103	0xbdb38133	-0.08764877
104	0x3e002274	0.12513143
105	0x3dfc68aa	0.123246506
106	0x3d34f67b	0.044180375
107	0xbd63c9ef	-0.0556125
108	0xbd9dc43c	-0.07703444
109	0xbe322bb5	-0.17399485
110	0x3c98f25e	0.018670257
111	0x3e12275a	0.14272824
112	0x3d20c15a	0.039246894
113	0xbdc1689d	-0.094437815
114	0x3df99823	0.12187221
115	0x3c709bdb	0.014685596
116	0xbe0aaf23	-0.13543372
117	0x3dc8c297	0.0980274
118	0x3d270200	0.04077339
119	0x3ccd4379	0.025056588
120	0xbe16e353	-0.14735155
121	0x3d1986f2	0.03748221
122	0x3dbae5f6	0.09125893
123	0xbd6f2816	-0.05838784
124	0xbdd21f5e	-0.10259889
125	0x3d3ceae4	0.046122447
126	0x3e0dd87d	0.13852115
127	0x3d09a098	0.03360042
128	0x3da40bd7	0.08010071
129	0xbd8a1c7d	-0.06743715
130	0x3e14a2ed	0.14515276
131	0x3e365ffe	0.17810056
132	0x3c5ff5cc	0.013669442
133	0x3e069459	0.13142528
134	0x3e2f41d7	0.1711496
135	0xbd12ea12	-0.035867758
136	0x3e03a047	0.1285411
137	0x3e0a98cd	0.13534851
138	0xbcab698c	-0.020924352
139	0xbe17f7e4	-0.14840657
140	0xbdc72bac	-0.097251266
141	0xbd2b09b5	-0.041757304
142	0xbe1eca50	-0.15506864
143	0xbdf5b820	-0.1199801
144	0x3e33d9f0	0.17563605
145	0x3cfaf59a	0.03063469
146	0xbdbd5628	-0.092449486
147	0xbdc3a6a5	-0.09553269
148	0x3ca14aa0	0.019688904
149	0x3dbf236f	0.0933293
150	0x3e0bacba	0.13640109
151	0x3d8458ad	0.06462226
152	0x3d8072c8	0.06271893
153	0xbdea4573	-0.11439028
154	0xbce94193	-0.028473651
155	0x3d0f991e	0.035058133
156	0x3d134907	0.035958316
157	0xbc1863bf	-0.009301125
158	0xbd90deb0	-0.07073724
159	0x3df063bf	0.11737775

layers.4.bias f4 [5]
0	0x3d6d9f27	0.058013108
1	0x3e0abd63	0.13548808
2	0xbdc274fc	-0.09494969
3	0x3d31bdf0	0.04339403
4	0xbda14ca0	-0.07875943
