data/models/test_easier/checkpoints/epoch_150.pt (torch, 6445 bytes, 6 tensors)

layers.0.weight f4 [16, 6]
0.049015697 0.014832117 0.0054019624 -0.005129991 0.86346394 0.051528532 0.24990475 0.041224066
-0.03922927 -0.02583093 0.5573024 0.25832 -0.014560987 -0.022282941 -0.0038296138 -0.0007106238
-0.24135625 0.7408094 0.0025297953 -0.0030568847 -0.0012936534 -0.0037114504 -0.5406719 0.06980444
0.029355323 -0.009452404 -0.0063410406 -0.0018619781 0.6115602 -0.7517345 0.14470512 0.22165291
0.026161512 -0.035188567 -0.56123155 0.39804146 0.0016731308 0.005139116 5.737922e-05 0.0013443673
0.58459145 -0.6832603 -2.8982264e-05 7.076664e-05 -0.0001452013 -1.3671049e-05 0.14068821 -0.7570855
0.13500924 0.011162743 -0.041882746 -0.009412077 -0.48476824 0.38877445 0.057342105 0.038727585
-0.0052076443 -0.004625603 -0.12036716 -1.0206748 0.004563005 -0.008065267 -0.0002549101 0.0041060727
-0.9061127 -0.4104974 0.000112627815 0.00042949893 -0.000378276 6.1700215e-05 0.4950595 0.67391527
-0.059031792 0.00466894 -0.0013326091 0.010661941 0.75951856 0.22454429 0.0031201604 -0.019867197
-0.0017306487 -0.00017900651 -0.4016797 -0.92194587 -0.0034182572 0.001493648 0.010773395 0.003721629
-0.31638294 0.48657018 0.0021405146 0.0031648516 1.5449523e-05 -0.00088666263 0.701019 0.99348646
00000000: afc4 483d 6802 733c f202 b13b 7c19 a8bb
00000010: f90b 5d3f 950f 533d 08e7 7f3e 91da 283d
00000020: dfae 20bd 639b d3bc 5fab 0e3f 8542 843e
00000030: 3591 6ebc b78a b6bc 42fa 7abb 2849 3aba
00000040: 1826 77be afa5 3d3f ecca 253b 0456 48bb
00000050: ce8f a9ba ce3b 73bb 7969 0abf a1f5 8e3d
00000060: 937a f03c 42de 1abc 81c8 cfbb 9e0d f4ba
00000070: 368f 1c3f ac71 40bf 942d 143e fbf8 623e
00000080: ab50 d63c e321 10bd dfac 0fbf 17cc cb3e
00000090: f44c db3a 0866 a83b 78aa 7038 7b35 b03a
000000a0: c9a7 153f 26ea 2ebf f01e f3b7 8d68 9438
000000b0: 2d41 18b9 b55c 65b7 9210 103e 5bd0 41bf
000000c0: dd3f 0a3e f0e3 363c 3e8d 2bbd 1d35 1abc
000000d0: 8b33 f8be 720d c73e 8edf 6a3d d1a0 1e3d
000000e0: e3a4 aabb 5f92 97bb 0f83 f6bd 79a5 82bf
000000f0: 4385 953b 2e24 04bc 74a5 85b9 3c8c 863b
00000100: 00f7 67bf b72c d2be 9932 ec38 5f2e e139
00000110: 5853 c6b9 0d65 8138 7078 fd3e b685 2c3f
00000120: 52cb 71bd e8fd 983b f1aa aeba 6caf 2e3c
00000130: cf6f 423f f0ee 653e 9b7b 4c3b 88c0 a2bc
00000140: efd6 e2ba b2b3 3bb9 f6a8 cdbe a504 6cbf
00000150: d704 60bb 83c6 c33a e582 303c 93e6 733b
00000160: f2fc a1be ba1f f93e e047 0c3b 6669 4f3b
00000170: 9999 8137 ec6e 68ba fb75 333f 2155 7e3f

layers.0.bias f4 [16]
0.47446734 0.16942376 0.08185428 0.92899156 0.08100046 0.054821093 0.633139 0.6692848
0.70171607 -0.28053516 0.5973896 0.79545885 0.6052923 0.09306324 0.7724508 0.2758015
00000000: 62ed f23e 6c7d 2d3e 37a3 a73d 64d2 6d3f
00000010: 92e3 a53d 158c 603d 6615 223f 4056 2b3f
00000020: aaa3 333f 4ea2 8fbe 86ee 183f 31a3 4b3f
00000030: 70f4 1a3f f197 be3d 56bf 453f db35 8d3e

layers.2.weight f4 [32, 16]
-0.033209767 -0.18835193 -0.760614 0.18876974 0.24069403 -0.08086604 0.12822387 0.40742484
0.044115853 0.049480744 -0.23435885 0.04321462 -0.23369515 0.12651609 -0.024610998 0.1937252
-0.003290122 -0.011424466 -0.0004818834 0.42286885 0.30856556 -0.04747267 0.08615037 0.13353993
-0.083411016 -0.7987006 -0.16842605 -0.11044364 0.18431327 -0.4978336 0.07345104 -0.23727976
-0.10330325 -0.14178966 -0.3490017 0.25364822 -0.4197107 0.34054363 0.3641628 0.008283194
0.34833217 0.10363253 0.20398994 0.09135621 -0.07994616 -0.2929831 0.2120875 -0.22724853
-0.26080528 -0.13911574 -0.33273962 -0.05733774 0.26823795 -0.06275301 0.41929272 0.2872262
-0.045684945 0.37263206 -0.11371375 -0.71756876 -0.23649226 0.3678751 -0.026473077 -0.81458026
0.022467045 0.11748778 -0.013416774 0.13515882 -0.09829798 0.06415427 0.31034523 -0.02683113
0.07399467 0.14223173 -0.10409855 0.035175923 -0.14111555 0.3068984 0.2706358 0.29371098
0.010542788 0.15693119 0.21848749 -0.26965362 -0.56085664 -0.022830859 -0.75892967 -1.0451597
-0.15401964 -0.27627775 -0.26875573 0.46484745 0.17069967 -0.18638691 0.055518746 0.55812216
-0.14935979 -0.108762436 0.35367692 0.025416587 0.0453909 0.30971047 0.2659073 0.17971906
0.15954728 -0.12836026 0.12011382 -0.18811074 0.04029588 0.014133898 0.39668155 0.1362526
-0.16764125 0.32190594 0.14386183 -0.09416282 -0.44783667 -0.0004908967 -0.5748951 -1.0024664
-0.13012084 0.28730693 -0.2529451 0.27009892 0.093670934 -0.24034092 0.1310633 0.54304117
-0.25932366 -0.16262022 0.34013698 -0.11610886 0.26750773 0.36666158 0.3017785 0.25844952
0.2415516 -0.14486545 0.11045538 -0.40296894 -0.2902245 -0.22516268 0.21194975 -0.22205034
0.12638928 -0.14608255 0.20512292 -0.06666065 0.060255587 0.29056755 0.014126125 0.3880168
0.36448422 0.16267996 -0.07262867 0.043506987 0.12029729 0.31545088 0.043111615 0.49818167
-0.02383777 0.07003285 -0.23653188 -0.26119193 -0.23910634 0.026155481 -0.22483471 0.09218351
-0.115353346 -0.27105364 0.13864903 -0.11420045 0.17834063 0.025663259 -0.06381541 0.07669146
0.1048844 0.015321755 0.42487228 -0.19781768 0.58949363 0.083001904 0.016612327 -0.22804067
-0.07607775 -0.27346194 0.04821682 0.13677233 0.12550494 -0.6256438 -0.05954025 0.097964734
0.46999282 0.3501874 -0.18512066 -0.8448438 0.0017899425 -0.33559468 0.3532162 -0.0059655476
-0.58535427 -0.8519706 -0.8949317 0.1831348 0.36302453 -0.99613154 -0.4663231 0.0040842206
0.19951029 0.21256983 0.2946385 -0.14953518 0.3962581 0.06793616 0.16123575 0.16969547
-0.13180172 -0.3749073 -0.34149832 0.17175254 0.08655591 -0.06576863 0.10428531 -0.09518611
0.09731078 0.10655963 -0.33785892 0.34389055 0.0660786 0.012221018 0.28546306 0.26941994
-0.06180473 -0.20179231 0.20029183 0.1420473 0.18281706 -0.21556966 -0.18175237 -0.8993088
0.31277755 0.15720068 -0.1842641 0.14052558 -0.50498617 0.07593654 0.14045087 -0.020029128
0.07762165 -0.39809835 0.034790233 0.2144064 0.22062416 0.06731235 -0.11307885 0.046533655
00000000: f706 08bd 54df 40be 99b7 42bf db4c 413e
00000010: 7f78 763e 189d a5bd 1e4d 033e fd99 d03e
00000020: d3b2 343d 52ac 4a3d c4fb 6fbe d001 313d
00000030: c84d 6fbe 6f8d 013e 019d c9bc e65f 463e
00000040: 169f 57bb af2d 3bbc 4ca5 fcb9 4482 d83e
00000050: 4efc 9d3e b472 42bd 9b6f b03d b1be 083e
00000060: 65d3 aabd a477 4cbf e177 2cbe 4630 e2bd
00000070: 9ebc 3c3e 0ce4 febe 806d 963d 77f9 72be
00000080: a890 d3bd 4f31 11be 5ab0 b2be 2ede 813e
00000090: 52e4 d6be bc5b ae3e 8c73 ba3e 3cb6 073c
000000a0: 9858 b23e 4b3d d43d bde2 503e f718 bb3d
000000b0: d0ba a3bd e201 96be 772d 593e d7b3 68be
000000c0: 4588 85be 5b74 0ebe d95c aabe fada 6abd
000000d0: 7c56 893e a684 80bd 89ad d63e 500f 933e
000000e0: 2320 3bbd a1c9 be3e c1e2 e8bd 96b2 37bf
000000f0: 072b 72be 205a bc3e 11de d8bc 5588 50bf
00000100: cf0c b83c 6f9d f03d 07d2 5bbc 1367 0a3e
00000110: 7450 c9bd 5063 833d 92e5 9e3e f5cc dbbc
00000120: 848a 973d 32a5 113e 9f31 d5bd a114 103d
00000130: 9880 10be c921 9d3e c790 8a3e 4961 963e
00000140: a8bb 2c3c 92b2 203e 2fbb 5f3e 0a10 8abe
00000150: 4d94 0fbf c807 bbbc 3749 42bf cbc7 85bf
00000160: 53b7 1dbe 4774 8dbe 5a9a 89be 7c00 ee3e
00000170: e5cb 2e3e 36dc 3ebe a067 633d 18e1 0e3f
00000180: c6f1 18be d7be debd 2415 b53e 7236 d03c
00000190: cfeb 393d 5f92 9e3e 0025 883e 4608 383e
000001a0: 5d60 233e df70 03be 3cfe f53d 1aa0 40be
000001b0: 4b0d 253d dd91 673c d819 cb3e cd85 0b3e
000001c0: 26aa 2bbe dbd0 a43e 8450 133e 70d8 c0bd
000001d0: d94a e5be 85af 00ba 532c 13bf d250 80bf
000001e0: 663e 05be e519 933e 0582 81be 684a 8a3e
000001f0: 8cd6 bf3d ee1b 76be 7535 063e bf04 0b3f
00000200: 12c6 84be ea85 26be 6f26 ae3e 7bca edbd
00000210: c6f6 883e 11bb bb3e b682 9a3e 7f53 843e
00000220: 4d59 773e 9c57 14be 6e36 e23d f251 cebe
00000230: 4e98 94be 0c91 66be 5b09 593e 2a61 63be
00000240: 316c 013e aa96 15be be0b 523e 6185 88bd
00000250: 90ce 763d 45c5 943e 4371 673c 23aa c63e
00000260: ad9d ba3e 9395 263e 57be 94bd 6234 323d
00000270: 6d5e f63d c782 a13e ce95 303d ab11 ff3e
00000280: 6d47 c3bc 626d 8f3d 6a35 72be f3ba 85be
00000290: 4bd8 74be 0544 d63c 123b 66be b5ca bc3d
000002a0: 603e ecbd 8bc7 8abe 03fa 0d3e ede1 e9bd
000002b0: ed9e 363e c13b d23c a7b1 82bd 6a10 9d3d
000002c0: a2cd d63d 1908 7b3c dc88 d93e b890 4abe
000002d0: 0ee9 163f e7fc a93d 9316 883c 7e83 69be
000002e0: a7ce 9bbd 3403 8cbe 007f 453d 0c0e 0c3e
000002f0: 5e84 003e 312a 20bf 7ae0 73bd bca1 c83d
00000300: e6a2 f03e c34b b33e 4590 3dbe af47 58bf
00000310: 819c ea3a 11d3 abbe c1d8 b43e a47a c3bb
00000320: c7d9 15bf bf1a 5abf 3e1a 65bf b087 3b3e
00000330: 5ade b93e 7a02 7fbf e7c1 eebe edd4 853b
00000340: 6d4c 4c3e e8ab 593e dcda 963e c01f 19be
00000350: 57e2 ca3e 1d22 8b3d fc1a 253e a6c4 2d3e
00000360: 08f7 06be daf3 bfbe ded8 aebe e6df 2f3e
00000370: 3a44 b13d b4b1 86bd 8993 d53d eff0 c2bd
00000380: e04a c73d ef3b da3d d8fb acbe 6c12 b03e
00000390: 3854 873d aa3a 483c 3728 923e 69f1 893e
000003a0: f526 7dbd a5a2 4ebe 4d19 4d3e d974 113e
000003b0: 6534 3b3e 4bbe 5cbe 4b1d 3abe 1a39 66bf
000003c0: 6124 a03e 37f9 203e baaf 3cbe f0e5 0f3e
000003d0: c646 01bf 9e84 9b3d 5ad2 0f3e 2014 a4bc
000003e0: 1af8 9e3d 8cd3 cbbe 3480 0e3d 5a8d 5b3e
000003f0: 4deb 613e 0fdb 893d e295 e7bd 139a 3e3d

layers.2.bias f4 [32]
0.3268349 0.14304344 0.07577331 -0.31953114 0.22283413 -0.23415807 0.26541606 -0.055092074
0.23489863 -0.15417805 -0.10288923 -0.25746745 -0.32608116 0.1603218 0.10714178 0.34977937
0.19852586 0.18549158 -0.32030666 0.2939973 0.09986027 -0.25791702 0.14132774 -0.34684592
-0.1431988 0.2104227 0.27675018 0.024658816 -0.037247453 0.11951966 0.42226964 0.3864434
00000000: e756 a73e fb79 123e 0a2f 9b3d 9699 a3be
00000010: a12e 643e 22c7 6fbe 9de4 873e 3aa8 61bd
00000020: 4489 703e dae0 1dbe 97b7 d2bd c6d2 83be
00000030: 1cf4 a6be 662b 243e 266d db3d 4816 b33e
00000040: 5d4a 4b3e 81f1 3d3e 3cff a3be d086 963e
00000050: 8b83 cc3d b30d 84be 38b8 103e ca95 b1be
00000060: b5a2 12be 0c79 573e 33b2 8d3e 4901 ca3c
00000070: c990 18bd b9c6 f43d ba33 d83e e9db c53e

layers.4.weight f4 [5, 32]
-0.26439497 0.33928445 -0.37809232 -0.063662454 0.036396332 -0.26789594 0.18971473 -0.27015203
0.08731542 0.1285898 0.031690914 -0.14493148 -0.17696346 0.13788715 -0.06073021 0.0020340255
-0.26402247 0.30447444 0.115656994 -0.0003465046 -0.07986163 -0.07154835 -0.086164415 -0.17607751
0.2160525 0.24510488 -0.17029147 0.17355113 -0.42202103 0.46845675 -0.22084926 0.20034923
-0.48923597 0.37318474 0.22723758 0.00875383 -0.3028937 0.6742605 -0.2672295 0.6101026
-0.34940436 -0.14853172 -0.11784785 0.4273163 0.47074524 0.37588736 0.27616206 0.092975326
0.037821006 -0.24651009 0.56187445 0.5197133 0.4000231 0.5949057 -0.06898686 0.26702225
-0.23566622 -0.8430808 -0.38223553 -0.1052874 0.11169987 -0.09620666 0.5827442 -0.05797887
0.32893354 0.26683864 0.05455515 -0.52230877 -0.107125506 0.36700162 0.0916455 0.3684061
0.31896085 -0.2161184 -0.09139961 0.123142265 0.39844242 -0.20049688 0.424847 -0.07571615
-0.22745381 -0.16071624 -0.16354504 0.24974512 0.088415906 -0.55354303 0.08995845 0.5774939
-0.19501407 0.12575226 0.069852866 0.12809151 0.031142194 0.17879866 0.16766857 -0.13850403
-0.021366129 -0.37175938 0.10120254 -0.07884986 0.21516122 -0.44218913 0.25318858 -0.23013009
0.17829154 0.03931288 0.03511117 -0.032021098 0.12575385 -0.260431 -0.041898437 0.3769677
-0.03401772 -0.06252797 0.12813587 -0.152465 -0.44382077 0.18640505 0.34104398 -0.074775636
-0.2377033 0.087925084 0.36805642 -0.18136561 -0.36561447 -0.162717 0.15810338 0.22577746
0.16064924 -0.41124755 0.42662477 0.6641139 0.05034706 -0.40797234 0.14761199 -0.5548055
0.27618307 0.36774522 -0.02433543 -0.68215966 -0.8827168 -0.00042270016 -0.67458034 -0.2798788
0.61827606 -0.0011746568 -0.5111568 -0.52878404 -0.2624735 0.07338261 0.0012178384 -0.577979
0.36379877 0.33132687 0.23051955 0.25849897 0.5886899 -0.2520083 -0.38013104 -0.03285284
00000000: c75e 87be b1b6 ad3e 5195 c1be 7661 82bd
00000010: 5214 153d a829 89be 9444 423e 5e51 8abe
00000020: 6dd2 b23d 0bad 033e 55ce 013d eb68 14be
00000030: e935 35be 4a32 0d3e 3ec0 78bd 494d 053b
00000040: f42d 87be 13e4 9b3e 93dd ec3d 0fab b5b9
00000050: 7f8e a3bd f187 92bd f876 b0bd aa4d 34be
00000060: de3c 5d3e c6fc 7a3e e360 2ebe 63b7 313e
00000070: 2413 d8be 90d9 ef3e 4f26 62be 5928 4d3e
00000080: 237d fabe 1212 bf3e f8b0 683e 396c 0f3c
00000090: e214 9bbe 569c 2c3f 4ed2 88be af2f 1c3f
000000a0: 21e5 b2be b318 18be 375a f1bd 34c9 da3e
000000b0: 8505 f13e 4f74 c03e 1d65 8d3e d969 be3d
000000c0: 33ea 1a3d 246d 7cbe 01d7 0f3f ee0b 053f
000000d0: d4cf cc3e bd4b 183f fc48 8dbd 24b7 883e
000000e0: 7c52 71be 25d4 57bf 60b4 c3be eca0 d7bd
000000f0: e7c2 e43d ff07 c5bd b92e 153f 407b 6dbd
00000100: fa69 a83e 139f 883e 3975 5f3d 07b6 05bf
00000110: 9e64 dbbd a3e7 bb3e a3b0 bb3d b99f bc3e
00000120: d64e a33e 244e 5dbe b82f bbbd 0332 fc3d
00000130: a500 cc3e 0e4f 4dbe 8c85 d93e 1211 9bbd
00000140: a7e9 68be cc92 24be 5a78 27be 2fbd 7f3e
00000150: 6613 b53d ffb4 0dbf 233c b83d a4d6 133f
00000160: c5b1 47be 33c5 003e 050f 8f3d 6c2a 033e
00000170: ea1d ff3c ff16 373e 4fb1 2b3e 00d4 0dbe
00000180: 0508 afbc 3f57 bebe 4743 cf3d 097c a1bd
00000190: 3953 5c3e 9d66 e2be efa1 813e 39a7 6bbe
000001a0: 0f92 363e 8b06 213d bbd0 0f3d 8e28 03bd
000001b0: 9ec5 003e 3657 85be b29d 2bbd e901 c13e
000001c0: 2a56 0bbd aa0e 80bd 0d36 033e c91f 1cbe
000001d0: 7a3c e3be f7e0 3e3e 519d ae3e f823 99bd
000001e0: 7e68 73be 1112 b43d e471 bc3e e8b7 39be
000001f0: d231 bbbe 499f 26be dae5 213e 3532 673e
00000200: 3c81 243e 0a8f d2be 906e da3e 5e03 2a3f
00000210: b838 4e3d c0e1 d0be 9927 173e bc07 0ebf
00000220: de67 8d3e 1a49 bc3e 185b c7bc 04a2 2ebf
00000230: baf9 61bf db9d ddb9 4cb1 2cbf 464c 8fbe
00000240: 5747 1e3f f1f6 99ba 2cdb 02bf 645e 07bf
00000250: ed62 86be 9f49 963d e09f 9f3a 6ff6 13bf
00000260: d543 ba3e ada3 a93e 510d 6c3e fa59 843e
00000270: 62b4 163f 3b07 81be 89a0 c2be b390 06bd

layers.4.bias f4 [5]
0.047601715 0.09795399 -0.087687135 0.2212221 -0.21705157
00000000: 04fa 423d 1a9c c83d 5095 b3bd 0c88 623e
00000010: c442 5ebe
