data/models/test_easier/checkpoints/epoch_70.pt (torch, 6433 bytes, 6 tensors)

layers.0.weight f4 [16, 6]
0.072250895 0.024063336 0.013531261 -0.02353371 0.8133479 0.04951531 0.2872624 0.045768376
-0.029558841 -0.041069344 0.51268387 0.2677458 -0.023937663 -0.034608573 -0.012853794 -0.005926486
-0.22923827 0.7072333 -0.02119868 -0.0095561845 -0.010140655 -0.015793584 -0.5187036 0.04790697
0.035319038 -0.017028458 -0.0003206482 0.0061273747 0.56340486 -0.73029846 0.14117756 0.2544073
-1.6372845e-05 -0.08275324 -0.55118567 0.32696906 0.001821906 0.003795555 0.0017419178 0.0019287174
0.5619148 -0.64956045 0.00010007187 0.0005733137 -8.299417e-05 0.00046091827 0.12725139 -0.68303376
0.18738021 0.0044633336 -0.089554355 -0.02594036 -0.4777951 0.36836445 0.047340572 0.06088924
0.0079591675 -0.01119672 -0.12706006 -0.9603502 0.026860151 -0.00013317364 0.029212173 0.0292008
-0.812138 -0.40411502 0.002630316 0.0011180015 -0.003480568 -0.0012385736 0.46952122 0.622309
-0.08486318 0.0011374109 0.0024239805 0.05524159 0.7326633 0.21432962 0.033880066 -0.045735512
-0.014782426 0.0064108586 -0.4078835 -0.85466284 0.011487882 0.031050336 0.095421635 0.04245851
-0.28726208 0.5422239 0.0070113046 0.0034910527 -0.0049127294 -0.003787078 0.65558386 0.9395587
00000000: 47f8 933d 7920 c53c 39b2 5d3c c4c9 c0bc
00000010: 9137 503f 91d0 4a3d 0f14 933e 9f77 3b3d
00000020: 6225 f2bc 5438 28bd 403f 033f fa15 893e
00000030: eb18 c4bc b8c1 0dbd b898 52bc f832 c2bb
00000040: 70bd 6abe 3e0d 353f dba8 adbc 8b91 1cbc
00000050: fd24 26bc 8c61 81bc c2c9 04bf 193a 443d
00000060: b2aa 103d 447f 8bbc ac1c a8b9 25c8 c83b
00000070: 4d3b 103f d7f4 3abf da90 103e ac41 823e
00000080: 6b58 89b7 887a a9bd 811a 0dbf 7d68 a73e
00000090: 05cd ee3a d9be 783b 1051 e43a 04cd fc3a
000000a0: a6d9 0f3f 9849 26bf addd d138 6e4a 163a
000000b0: 280d aeb8 67a7 f139 304e 023e 4ddb 2ebf
000000c0: 99e0 3f3e 2841 923b 4668 b7bd e180 d4bc
000000d0: 8fa1 f4be 449a bc3e 30e8 413d ff66 793d
000000e0: 2b67 023c 7372 37bc 081c 02be 83d9 75bf
000000f0: d209 dc3c 87a4 0bb9 5e4e ef3c 8436 ef3c
00000100: 47e8 4fbf 2ae8 cebe 6161 2c3b e889 923a
00000110: 3e1a 64bb a257 a2ba 1665 f03e a54f 1f3f
00000120: bfcc adbd 2d15 953a a5db 1e3b 0145 623d
00000130: d28f 3b3f 3979 5b3e d3c5 0a3d 2955 3bbd
00000140: fd31 72bc 2e12 d23b 1bd6 d0be 2fcb 5abf
00000150: ab37 3c3c 465d fe3c 6b6c c33d f9e8 2d3d
00000160: 0414 93be 2fcf 0a3f 16bf e53b 25ca 643b
00000170: f6fa a0bb a030 78bb 58d4 273f eb86 703f

layers.0.bias f4 [16]
0.4264556 0.14941992 0.09958308 0.8828592 0.06872397 0.006707571 0.6013471 0.6035534
0.64234525 -0.27631277 0.583633 0.74323046 0.5182189 0.06860863 0.6783952 0.2587232
00000000: 6358 da3e 8901 193e 37f2 cb3d 0f03 623f
00000010: 27bf 8c3d 2fcb db3b e2f1 193f 7a82 1a3f
00000020: bd70 243f de78 8dbe f968 153f 5a44 3e3f
00000030: fea9 043f ae82 8c3d 4fab 2d3f 5e77 843e

layers.2.weight f4 [32, 16]
-0.037986472 -0.2076423 -0.66122484 0.17811444 0.2017071 -0.08944781 0.093533404 0.36920542
0.030562593 0.09914104 -0.20932528 0.07115719 -0.23590463 0.14423639 -0.049620345 0.2187445
0.016113201 -0.007789771 0.018089397 0.41336623 0.2909963 -0.010450124 0.06312553 0.12601808
-0.0895776 -0.7471945 -0.1770301 -0.15558994 0.18324383 -0.3922232 0.069631696 -0.16879335
-0.072892755 -0.1122583 -0.36637908 0.21090733 -0.43620998 0.31762505 0.33529797 -0.019943884
0.30430466 0.10735642 0.2534185 0.107706204 -0.04494014 -0.28301066 0.18260549 -0.19325331
-0.27093053 -0.16465336 -0.26666567 -0.044589233 0.28396222 0.0083828755 0.40917298 0.28251576
-0.06429168 0.36477536 -0.09870149 -0.65225524 -0.23568462 0.36822963 -0.06937789 -0.7360063
0.013933247 0.11308045 -0.029564554 0.13505425 -0.07597956 0.059660774 0.29919365 -0.057025805
0.060340688 0.17986289 -0.10514707 0.072424084 -0.13895552 0.28349426 0.2543122 0.26618114
0.010899026 0.14498296 0.25205964 -0.2794821 -0.5688105 -0.006684652 -0.716204 -0.94300145
-0.15262966 -0.27627775 -0.29879826 0.4491396 0.1391325 -0.18638691 0.060335837 0.5546597
-0.14807488 -0.113445476 0.32551667 0.029659517 0.060767684 0.3021912 0.26433957 0.14234345
0.14554629 -0.0876187 0.11890856 -0.16049673 0.05133901 -0.0034000075 0.37431055 0.110066794
-0.18044943 0.31377268 0.16449584 -0.09565154 -0.43589693 -0.009896865 -0.552507 -0.9000241
-0.12691696 0.28730693 -0.28502697 0.26292372 0.05833172 -0.24034092 0.1373181 0.5423436
-0.2665698 -0.15507798 0.3307247 -0.115847684 0.25995103 0.3631197 0.29058924 0.2428434
0.21832278 -0.093148395 0.12142795 -0.36886856 -0.27750298 -0.21593748 0.17843021 -0.25289264
0.119749725 -0.14638084 0.20201743 -0.05700108 0.07436987 0.29572827 0.011399302 0.37986693
0.35770917 0.18729244 -0.054356676 0.07734294 0.13948174 0.28816506 0.025373066 0.4720642
-0.02383777 0.07003285 -0.23653188 -0.26119193 -0.23910634 0.026155481 -0.22483471 0.09218351
-0.115353346 -0.27105364 0.13864903 -0.11420045 0.17834063 0.025663259 -0.06381541 0.07669146
0.09732647 0.019249514 0.42948052 -0.19080417 0.55778575 0.10413356 0.006958142 -0.18528593
-0.0747196 -0.2950132 -0.004483353 0.1425295 0.102865726 -0.60805243 -0.04261953 0.12232498
0.4410991 0.33693784 -0.12847851 -0.798729 0.029015848 -0.25740248 0.3166705 0.010842409
-0.5629252 -0.77403283 -0.827053 0.1726191 0.33564577 -0.90986246 -0.4225478 0.014194643
0.18505986 0.22282004 0.28871623 -0.14903806 0.3677883 0.0457134 0.14418836 0.18537688
-0.1284719 -0.3589778 -0.32565644 0.15417418 0.07623887 -0.06471963 0.10045915 -0.10227616
0.113626435 0.13833123 -0.35067764 0.33736038 0.048299484 0.022803739 0.2832796 0.2538869
-0.042239822 -0.22917216 0.2002562 0.07860192 0.18215153 -0.19318958 -0.14816564 -0.8470363
0.28761643 0.15231742 -0.17367706 0.12138822 -0.4729594 0.073569514 0.1269759 -0.004251369
0.06502919 -0.3833024 0.0065259812 0.21772681 0.17538604 0.084122546 -0.10812465 0.053509768
00000000: b497 1bbd 2fa0 54be 0846 29bf a263 363e
00000010: 4e8c 4e3e 6a30 b7bd 718e bf3d 7e08 bd3e
00000020: 675e fa3c 750a cb3d 5e59 56be dcba 913d
00000030: fc90 71be b4b2 133e b43e 4bbd 8ffe 5f3e
00000040: d5ff 833c 5641 ffbb 3730 943c bda4 d33e
00000050: 78fd 943e ff36 2bbc f547 813d e20a 013e
00000060: 7674 b7bd 2448 3fbf 6147 35be f852 1fbe
00000070: 45a4 3b3e 7bd1 c8be 109b 8e3d 2ad8 2cbe
00000080: cc48 95bd aee7 e5bd 0a96 bbbe 17f8 573e
00000090: ea56 dfbe c09f a23e 2dac ab3e 5b61 a3bc
000000a0: d2cd 9b3e afdd db3d 12c0 813e 1295 dc3d
000000b0: 2713 38bd c6e6 90be effc 3a3e 32e4 45be
000000c0: 68b7 8abe e49a 28be 6788 88be 33a3 36bd
000000d0: 7f63 913e 5458 093c 1f7f d13e e8a5 903e
000000e0: 5bab 83bd d6c3 ba3e 0224 cabd 33fa 26bf
000000f0: 4f57 71be 9888 bc3e ff15 8ebd e96a 3cbf
00000100: 4648 643c b996 e73d 5d31 f2bc a94b 0a3e
00000110: 2c9b 9bbd db5e 743d e92f 993e e493 69bd
00000120: cc27 773d fa2d 383e 5957 d7bd 1453 943d
00000130: 5b4a 0ebe 2926 913e 3535 823e e548 883e
00000140: d491 323c 6a76 143e f60d 813e 4718 8fbe
00000150: 919d 11bf ed0a dbbb 2559 37bf 8b68 71bf
00000160: f34a 1cbe 4774 8dbe 16fc 98be a0f5 e53e
00000170: c078 0e3e 36dc 3ebe b622 773d 2efe 0d3f
00000180: f1a0 17be 1a56 e8bd 1faa a63e 84f8 f23c
00000190: 89e7 783d ceb8 9a3e 8457 873e 7bc2 113e
000001a0: 160a 153e 6f71 b3bd 5586 f33d 4159 24be
000001b0: db48 523d a9d2 5ebb a2a5 bf3e b36a e13d
000001c0: bcc7 38be d0a6 a03e 9971 283e f4e4 c3bd
000001d0: e22d dfbe 7626 22bc 1971 0dbf fb67 66bf
000001e0: 85f6 01be e519 933e 0eef 91be f09d 863e
000001f0: 3eed 6e3d ee1b 76be 1e9d 0c3e 08d7 0a3f
00000200: d67b 88be c3cc 1ebe bf54 a93e 8d41 edbd
00000210: 4d18 853e d3ea b93e 1dc8 943e f1ab 783e
00000220: 0290 5f3e 96c4 bebd 38af f83d 57dc bcbe
00000230: df14 8ebe b71e 5dbe 69b6 363e 257b 81be
00000240: 583f f53d dce4 15be a8dd 4e3e f779 69bd
00000250: 3b4f 983d b269 973e 23c4 3a3c eb7d c23e
00000260: a825 b73e 97c9 3f3e 1ba5 5ebd fa65 9e3d
00000270: 4dd4 0e3e 5f8a 933e 2ddb cf3c 66b2 f13e
00000280: 6d47 c3bc 626d 8f3d 6a35 72be f3ba 85be
00000290: 4bd8 74be 0544 d63c 123b 66be b5ca bc3d
000002a0: 603e ecbd 8bc7 8abe 03fa 0d3e ede1 e9bd
000002b0: ed9e 363e c13b d23c a7b1 82bd 6a10 9d3d
000002c0: 1a53 c73d 28b1 9d3c dfe4 db3e 2b62 43be
000002d0: 0ccb 0e3f fa43 d53d 2001 e43b 98bb 3dbe
000002e0: 9706 99bd f80b 97be 17e9 92bb 41f3 113e
000002f0: 44ab d23d 53a9 1bbf d191 2ebd 8585 fa3d
00000300: bed7 e13e 1e83 ac3e df8f 03be 8179 4cbf
00000310: a5b2 ed3c 42ca 83be a322 a23e 5ca4 313c
00000320: de1b 10bf 0427 46bf bfb9 53bf 10c3 303e
00000330: c3d9 ab3e bfec 68bf 2f58 d8be a690 683c
00000340: 5580 3d3e f02a 643e 9dd2 933e 6f9d 18be
00000350: c04e bc3e f93d 3b3d 1da6 133e 70d3 3d3e
00000360: 238e 03be f0cb b7be 71bc a6be d6df 1d3e
00000370: 2023 9c3d ba8b 84bd 87bd cd3d 2a76 d1bd
00000380: fab4 e83d b4a6 0d3e 058c b3be 80ba ac3e
00000390: aed5 453d e8ce ba3c 060a 913e 77fd 813e
000003a0: aa03 2dbd 1bac 6abe f60f 4d3e 0bfa a03d
000003b0: ee85 3a3e 7dd3 45be bcb8 17be 5fd7 58bf
000003c0: 7642 933e 19f9 1b3e 66d8 31be 639a f83d
000003d0: bc27 f2be 9dab 963d f805 023e 114f 8bbb
000003e0: 062e 853d 3640 c4be e6d7 d53b c7f3 5e3e
000003f0: 6698 333e 7148 ac3d 7570 ddbd 0f2d 5b3d

layers.2.bias f4 [32]
0.2911491 0.107518405 0.027863715 -0.3171741 0.23125054 -0.26782393 0.28056738 -0.07171918
0.22790009 -0.13612098 -0.10288923 -0.26533073 -0.3314567 0.15548514 0.09591766 0.3270802
0.1918017 0.21013919 -0.32501176 0.28728712 0.10978904 -0.25110498 0.12758824 -0.36316082
-0.1551393 0.23849766 0.26832178 0.05439431 -0.04585041 0.12572221 0.37632218 0.39080727
00000000: 7f11 953e 9c32 dc3d 7242 e43c a564 a2be
00000010: f1cc 6c3e 3820 89be 87a6 8f3e 81e1 92bd
00000020: a45e 693e 4c63 0bbe 97b7 d2bd 6ed9 87be
00000030: b1b4 a9be 7f37 1f3e 7a70 c43d 0e77 a73e
00000040: aa67 443e ba2e 573e f167 a6be 4c17 933e
00000050: 14d9 e03d d590 80be 7ea6 023e 37f0 b9be
00000060: d6dc 1ebe bb38 743e 7961 893e 91cc 5e3d
00000070: a4cd 3bbd 53bd 003e 4dad c03e e417 c83e

layers.4.weight f4 [5, 32]
-0.23515044 0.29755855 -0.34169307 -0.019204712 0.039581906 -0.23389156 0.18606266 -0.23524554
0.080147006 0.11380828 0.031690914 -0.18491665 -0.15853377 0.12927888 -0.043729752 0.0022013823
-0.23556906 0.2788944 0.10004596 -0.03057721 -0.08891177 -0.04452918 -0.060796008 -0.20451412
0.18363892 0.20643912 -0.09937634 0.14880924 -0.42047024 0.40274134 -0.20540076 0.19497456
-0.44884732 0.29174304 0.21097428 -0.070129015 -0.2973844 0.6505885 -0.2448506 0.58452886
-0.31092638 -0.12323603 -0.11784785 0.4416686 0.3925903 0.36969167 0.247885 0.070743114
0.047058437 -0.22747345 0.55570185 0.4595816 0.36059794 0.5586952 -0.067632124 0.21945187
-0.20649715 -0.7897646 -0.31086954 -0.093806624 0.11439115 -0.069044515 0.52482486 -0.06144098
0.27636966 0.22259188 0.0651158 -0.48604152 -0.09567594 0.34188542 0.08976993 0.3485413
0.3095294 -0.2125632 -0.09139961 0.12612207 0.4194859 -0.17480741 0.403562 -0.05706261
-0.20494537 -0.16132586 -0.2124712 0.25476682 0.06971591 -0.5604193 0.09117042 0.57384694
-0.21130733 0.085848995 0.09081728 0.12701052 0.057203185 0.16674854 0.18351066 -0.119993135
0.0009187629 -0.27811342 0.09815488 -0.063346654 0.2038813 -0.43103728 0.24046563 -0.21948354
0.18714356 0.03257044 0.03511117 -0.07652446 0.07310384 -0.24233796 -0.039812636 0.347585
-0.04448619 -0.059149615 0.07998718 -0.11638705 -0.42134288 0.14090295 0.31569123 -0.05672541
-0.22027664 0.11431018 0.2779355 -0.15875058 -0.33042684 -0.13764827 0.15856622 0.20366003
0.13101365 -0.3579592 0.39993796 0.6585769 0.041465394 -0.39513713 0.14543688 -0.5487318
0.25104 0.35982928 -0.02433543 -0.63146025 -0.8121306 -0.029044611 -0.6443759 -0.24820843
0.5681505 0.0037240023 -0.42971772 -0.48219272 -0.22162886 0.12646864 -0.002704192 -0.5214685
0.36822155 0.3261021 0.16723187 0.253022 0.53656715 -0.21876983 -0.35219586 -0.021238424
00000000: 47cb 70be 9859 983e 65f2 aebe 3353 9dbc
00000010: a320 223d 4581 6fbe 3687 3e3e 35e4 70be
00000020: 1d24 a43d 5114 e93d 55ce 013d ca5a 3dbe
00000030: ad56 22be af61 043e f81d 33bd 1145 103b
00000040: 0439 71be 3fcb 8e3e e5e4 cc3d 0f7d fabc
00000050: 6017 b6bd 3b64 36bd 3c05 79bd 266c 51be
00000060: d70b 3c3e c764 533e d385 cbbd 7361 183e
00000070: e047 d7be 1d34 ce3e 9454 52be 69a7 473e
00000080: 51cf e5be 585f 953e a409 583e cd9f 8fbd
00000090: c542 98be f88c 263f 1eba 7abe afa3 153f
000000a0: be31 9fbe 2c63 fcbd 375a f1bd 6322 e23e
000000b0: 9901 c93e 3a48 bd3e 91d5 7d3e c4e1 903d
000000c0: 59c0 403d cdee 68be 7a42 0e3f 484e eb3e
000000d0: 4ba0 b83e a606 0f3f b682 8abd feb7 603e
000000e0: fd73 53be 032e 4abf 4b2a 9fbe b01d c0bd
000000f0: e845 ea3d 3667 8dbd ec5a 063f 89a9 7bbd
00000100: 5380 8d3e 20ef 633e 6f5b 853d 6fda f8be
00000110: bff1 c3bd 9b0b af3e 4cd9 b73d 0174 b23e
00000120: a37a 9e3e 2baa 59be b82f bbbd 2526 013e
00000130: dbc6 d63e b700 33be ae9f ce3e 7cba 69bd
00000140: 33dd 51be 9b32 25be 0d92 59be cc70 823e
00000150: 37c7 8e3d a477 0fbf 8fb7 ba3d a2e7 123f
00000160: f360 58be 99d1 af3d 69fe b93d 0c0f 023e
00000170: e34d 6a3d 21c0 2a3e 38ea 3b3e f6be f5bd
00000180: 22d9 703a e264 8ebe 6d05 c93d e4bb 81bd
00000190: 42c6 503e ebb0 dcbe 9f3c 763e 4bc0 60be
000001a0: 90a2 3f3e 9568 053d bbd0 0f3d dbb8 9cbd
000001b0: 77b7 953d 7127 78be 9312 23bd a9f6 b13e
000001c0: 2737 36bd de46 72bd 52d0 a33d 555c eebd
000001d0: 41ba d7be dd48 103e 48a2 a13e e758 68bd
000001e0: 3390 61be 751b ea3d 904d 8e3e 838f 22be
000001f0: b52d a9be abf3 0cbe 2f5f 223e 418c 503e
00000200: 7128 063e 6e46 b7be abc4 cc3e 7f98 283f
00000210: 9ed7 293d 6a4f cabe 68ed 143e b079 0cbf
00000220: 5188 803e 8b3b b83e 185b c7bc 61a7 21bf
00000230: cae7 4fbf f7ee edbc d2f5 24bf 5a2a 7ebe
00000240: 5072 113f 640e 743b f603 dcbe f7e1 f6be
00000250: adf2 62be ff80 013e d038 31bb f67e 05bf
00000260: 8987 bc3e dbf6 a63e d53e 2b3e 198c 813e
00000270: 775c 093f 3305 60be 0453 b4be 34fc adbc

layers.4.bias f4 [5]
0.06552144 0.08139386 -0.08816943 0.20694172 -0.20492837
00000000: 1b30 863d d3b1 a63d 2d92 b4bd 88e8 533e
00000010: bed8 51be
