data/models/test_easier/checkpoints/epoch_60.pt (torch, 6433 bytes, 6 tensors)

layers.0.weight f4 [16, 6]
000000 a5 d0 b4 3d 9b 3f 17 3d 87 a4 ae 3c 32 26 15 bd
       0.08828858 0.036925893 0.021318687 -0.03641338
000010 1d 8d 46 3f 40 d4 63 3d 3f 71 9f 3e 5a e5 48 3d
       0.7755907 0.05562234 0.31141087 0.04904685
000020 cb c0 bc bc 63 e2 4f bd e4 d9 f7 3e 32 e2 87 3e
       -0.02304115 -0.05075301 0.48408425 0.2653976
000030 33 07 f5 bc f4 be 25 bd 63 80 a5 bc fb 50 1f bc
       -0.02991066 -0.04046531 -0.020202821 -0.009723897
000040 d7 97 60 be 63 77 31 3f d4 cc 4d bd 21 7c 94 bc
       -0.21932922 0.69322795 -0.050244167 -0.018125596
000050 01 73 af bc 68 a3 e9 bc b1 b5 00 bf 38 24 45 3d
       -0.021417143 -0.028520301 -0.5027724 0.048130244
000060 c0 8f 19 3d 34 f4 c7 bc 9a fa 93 ba d6 6a 4b 3c
       0.037490606 -0.024408437 -0.0011289895 0.012415608
000070 b1 dc 08 3f c0 fc 37 bf b8 90 15 3e a4 d6 87 3e
       0.5346175 -0.7187004 0.14605987 0.26530945
000080 48 91 5c 3a 40 78 eb bd f3 65 09 bf 7f 5d 8f 3e
       0.00084139826 -0.11497545 -0.5367119 0.2800102
000090 a3 52 d4 3a ca 36 28 3b 20 b3 fa 3a aa 1b 1e 3b
       0.0016198944 0.0025667422 0.001912687 0.0024125376
0000a0 ee fe 0c 3f 3b 55 21 bf df ea c0 39 69 e3 e1 39
       0.5507649 -0.63020676 0.00036796086 0.00043084778
0000b0 ad 75 f6 b9 2e 48 d8 38 14 c7 f1 3d fd 87 22 bf
       -0.00047008452 0.00010313127 0.11805549 -0.6348875
0000c0 69 27 69 3e 79 47 20 3c 0a c6 e7 bd 7d 7c 06 bd
       0.2276894 0.009782665 -0.1131707 -0.032833565
0000d0 d1 7a f0 be 22 16 b2 3e da e1 1c 3d 82 ac 8c 3d
       -0.469687 0.3478251 0.038301326 0.06868841
0000e0 bc fc 60 3c d9 e0 92 bc 7f ee 08 be 1a e1 6c bf
       0.013732132 -0.017929481 -0.13372229 -0.9253098
0000f0 63 b4 3d 3d 1e df fd 3b b1 92 70 3d 27 34 5d 3d
       0.04631461 0.007747545 0.058733646 0.054004814
000100 f8 e6 43 bf 41 03 cb be 2f 89 e9 3b 6c 60 2e b9
       -0.76524305 -0.3965092 0.0071269493 -0.00016629853
000110 eb 03 2a bc e4 c6 c0 b9 54 77 ee 3e a4 70 15 3f
       -0.010376911 -0.0003676928 0.46575415 0.58375
000120 b1 82 ee bd 68 24 f2 bb e0 04 13 3c 16 f0 ce 3d
       -0.11646021 -0.007389594 0.00897333 0.101043865
000130 a5 7e 37 3f 3d 6d 51 3e b4 69 49 3d 82 99 67 bd
       0.7167762 0.20451827 0.049173072 -0.05654288
000140 e1 40 8a bc b1 92 b4 3c 50 4d cb be dc fe 50 bf
       -0.01687664 0.022042604 -0.39707422 -0.81638885
000150 2c 6f 0e 3d e3 6b 61 3d 40 04 1c 3e 05 c9 99 3d
       0.03477399 0.05503453 0.15235996 0.075090446
000160 15 8f 92 be a4 10 0c 3f 3d 62 2d 3c 10 83 65 3b
       -0.28624788 0.5471289 0.010582504 0.0035020746
000170 40 e5 c6 bb 06 16 c3 bb 18 0a 20 3f 32 30 68 3f
       -0.006069809 -0.005953553 0.625154 0.9069854

layers.0.bias f4 [16]
000000 6a 14 c9 3e 13 6f 0d 3e 38 1f ed 3d 16 a9 59 3f
       0.39273387 0.13811903 0.1157822 0.8502363
000010 68 b9 8a 3d 78 20 f2 bc 99 ff 14 3f b9 bc 0f 3f
       0.06773645 -0.029556498 0.5820251 0.5614734
000020 f4 42 1b 3f 64 52 8b be 4e 11 11 3f c5 ae 34 3f
       0.6064904 -0.27211297 0.5666703 0.7057918
000030 f5 5d e5 3e 7e f1 80 3d 66 be 1c 3f 65 69 7e 3e
       0.44798246 0.06296061 0.61228025 0.24844892

layers.2.weight f4 [32, 16]
000000 ba 40 3f bd cf 7e 67 be f6 9d 19 bf c4 76 33 3e
       -0.046692587 -0.22606967 -0.60006654 0.17525774
000010 bd 7e 38 3e a4 91 bf bd 55 e2 88 3d 17 ea af 3e
       0.18017097 -0.093539506 0.066837944 0.34358284
000020 41 8c be 3c 60 61 06 3e f2 8e 43 be 69 69 ad 3d
       0.023260238 0.13123083 -0.19097498 0.08467371
000030 2a 92 78 be 38 87 1e 3e dc d3 63 bd 25 c5 63 3e
       -0.24274507 0.1548127 -0.055621967 0.22243173
000040 61 21 0b 3d 5f 86 b0 bc 23 14 69 3c 56 71 c7 3e
       0.03396738 -0.021548448 0.014225992 0.38953656
000050 dd ee 8f 3e a0 be 3a bc 16 89 72 3d e2 92 f8 3d
       0.28111926 -0.011397988 0.059212767 0.12137391
000060 0d 62 fb bd 0e b5 32 bf 1e aa 53 be 73 95 47 be
       -0.12274561 -0.6980752 -0.20670363 -0.19490604
000070 02 e4 45 3e f5 7b a5 be 35 2c 59 3d 46 99 fb bd
       0.1932526 -0.32321134 0.053020675 -0.12285094
000080 de 91 73 bd 48 65 b6 bd c0 08 be be e2 ea 3b 3e
       -0.05946528 -0.089060366 -0.3711605 0.1835132
000090 92 84 e2 be f2 20 9d 3e 5c a7 a2 3e f9 c1 18 bd
       -0.44241768 0.30689198 0.3176831 -0.03729436
0000a0 ba 07 8e 3e 32 66 fa 3d 9f d5 8c 3e 94 80 f0 3d
       0.2774027 0.122265235 0.2750673 0.11743274
0000b0 7e 93 00 bd 3e 2c 88 be a1 50 28 3e 50 85 2d be
       -0.03139066 -0.26596254 0.16437007 -0.16945386
0000c0 37 3d 8f be 3f 68 3d be 4e 43 6c be 0c 10 20 bd
       -0.2797639 -0.18496798 -0.2307255 -0.039077803
0000d0 94 f6 95 3e 4e 8f 2a 3d 85 d0 cf 3e 37 0d 90 3e
       0.29289687 0.041640572 0.40588775 0.28135082
0000e0 d2 78 9e bd 1f 37 ba 3e f8 90 c0 bd b4 0c 1f bf
       -0.077378884 0.3637018 -0.094026506 -0.6212876
0000f0 c3 60 77 be 03 4b bd 3e f4 c6 b7 bd e1 03 34 bf
       -0.24158005 0.36971292 -0.08973494 -0.7031842
000100 7b c7 05 3c ef 2c e3 3d 00 8c 19 bd 91 b9 05 3e
       0.008165236 0.11092555 -0.03748703 0.13059069
000110 42 7b 84 bd 2b 08 70 3d 87 8f 94 3e 33 42 a3 bd
       -0.06468822 0.05860154 0.29015753 -0.07971611
000120 b4 15 50 3d 51 6e 54 3e a2 f8 d4 bd db 29 c3 3d
       0.050801948 0.20745207 -0.103989854 0.09529468
000130 0d 42 10 be 00 39 89 3e d8 94 7b 3e 10 5a 7a 3e
       -0.14087696 0.268013 0.24568498 0.24448419
000140 69 31 14 3c 3e b8 08 3e be 1b 8c 3e 5c b2 8d be
       0.009044983 0.13351533 0.27364916 -0.2767514
000150 e7 0f 11 bf 76 b7 bf 3b e1 40 31 bf d9 62 5f bf
       -0.5666489 0.0058507277 -0.6923962 -0.87260205
000160 6a 5f 17 be 47 74 8d be dd 11 a0 be cb 45 e0 3e
       -0.14782491 -0.27627775 -0.3126363 0.43803248
000170 7a 88 f9 3d 36 dc 3e be f1 4b 90 3d ae c3 0c 3f
       0.12184234 -0.18638691 0.07045735 0.54986084
000180 b2 53 17 be 95 51 ed bd 26 5a 9e 3e f7 79 e1 3c
       -0.14778021 -0.11587826 0.30928153 0.027523978
000190 ce 80 86 3d 86 73 9a 3e cb ff 84 3e 7b 77 ec 3d
       0.06567536 0.30166262 0.25976405 0.115462266
0001a0 3a 92 0b 3e f7 34 70 bd 48 36 f9 3d 8a 9c 12 be
       0.1363 -0.05864426 0.121685565 -0.14317527
0001b0 82 eb 66 3d 38 78 79 bc 70 a9 b9 3e 3e 0c b8 3d
       0.05637694 -0.015226416 0.36262083 0.0898671
0001c0 6e fd 40 be 8b 67 9c 3e bc 64 36 3e 31 dd bb bd
       -0.18846676 0.30547747 0.17811865 -0.09173048
0001d0 a3 56 d6 be 05 dd 93 bc 1a 55 09 bf dc 0d 54 bf
       -0.41862974 -0.018049726 -0.5364548 -0.8283365
0001e0 1c eb fd bd e5 19 93 3e da c1 9a be 92 0a 83 3e
       -0.12398359 0.28730693 -0.30226022 0.25594002
0001f0 6f 12 15 3d 6e 19 76 be b0 db 14 3e 62 e5 09 3f
       0.036394533 -0.24033138 0.14536929 0.53865635
000200 df 05 89 be 1e 35 12 be ed 04 9f 3e b2 29 f6 bd
       -0.26762292 -0.14278075 0.31058446 -0.120196715
000210 85 f3 7e 3e 4c 48 b5 3e c2 5b 8e 3e b0 7e 6a 3e
       0.24897583 0.3540672 0.2780438 0.2289989
000220 e5 8a 4f 3e 5a f7 66 bd 8b 05 05 3e c1 5b af be
       0.20267828 -0.056388237 0.12990396 -0.3424969
000230 7e e5 89 be e2 02 56 be 6c 04 24 3e 09 63 8f be
       -0.269329 -0.20899537 0.16017312 -0.28005245
000240 9a e9 e7 3d 1d 4c 14 be 3b b3 4e 3e 5a 4f 71 bd
       0.11323853 -0.1448216 0.20185558 -0.058913566
000250 66 b0 af 3d aa 33 97 3e 74 8e 1a 3c 4a 2e bf 3e
       0.08578567 0.29531604 0.0094333775 0.37340003
000260 47 4a b3 3e ed 1f 4f 3e cc ac 47 bd c8 6c c6 3d
       0.35017607 0.20227022 -0.048748776 0.09688717
000270 17 78 15 3e d2 c6 8a 3e c4 e1 86 3c 95 0d e9 3e
       0.14596592 0.27104813 0.016465075 0.45518175
000280 6d 47 c3 bc 62 6d 8f 3d 6a 35 72 be f3 ba 85 be
       -0.02383777 0.07003285 -0.23653188 -0.26119193
000290 4b d8 74 be 05 44 d6 3c 12 3b 66 be b5 ca bc 3d
       -0.23910634 0.026155481 -0.22483471 0.09218351
0002a0 60 3e ec bd 8b c7 8a be 03 fa 0d 3e ed e1 e9 bd
       -0.115353346 -0.27105364 0.13864903 -0.11420045
0002b0 ed 9e 36 3e c1 3b d2 3c a7 b1 82 bd 6a 10 9d 3d
       0.17834063 0.025663259 -0.06381541 0.07669146
0002c0 50 ea bb 3d 71 0c 6e 3c 46 d8 dc 3e aa fb 3b be
       0.09175551 0.014529333 0.43133754 -0.18357721
0002d0 b9 6e 09 3f 5d 8f e5 3d 3e 08 49 3b 00 13 1f be
       0.53684574 0.11208985 0.0030675079 -0.15534592
0002e0 10 89 93 bd 97 e4 98 be da 3c ea bc b8 a6 12 3e
       -0.07203877 -0.298619 -0.02859347 0.1432141
0002f0 49 27 b6 3d a9 52 18 bf ce 76 08 bd 9d 21 0a 3e
       0.08894212 -0.5950113 -0.033316426 0.13489385
000300 b7 f7 d6 3e 13 89 a7 3e 8d 52 c6 bd 6a c1 42 bf
       0.41985866 0.32721767 -0.09683714 -0.76076376
000310 04 64 36 3d 9a ab 59 be b9 76 96 3e 17 91 c6 3c
       0.044528976 -0.21256867 0.29387453 0.024239106
000320 d4 e9 07 bf 2f d5 38 bf b2 58 45 bf 4f a3 26 3e
       -0.5309117 -0.7220029 -0.77088463 0.16273235
000330 20 b1 9f 3e a3 c1 5a bf 2c a6 c6 be ef 10 7d 3c
       0.31189823 -0.85451716 -0.38798654 0.015445932
000340 ef f0 34 3e 1b 19 69 3e a7 09 96 3e 74 ab 17 be
       0.17670034 0.22763483 0.2930424 -0.14811498
000350 81 81 b4 3e a4 29 f6 3c 24 30 08 3e 09 7a 45 3e
       0.35255054 0.030049153 0.13299614 0.19284834
000360 e5 f4 01 be dc 78 b1 be ae 95 a5 be 4a 5e 13 3e
       -0.12691076 -0.3466252 -0.3234076 0.14391437
000370 30 c1 92 3d 8e 75 6c bd ff f2 cf 3d f1 e0 ce bd
       0.07165754 -0.057729296 0.1015377 -0.10101498
000380 58 cd fd 3d 60 dd 1f 3e 81 94 b9 be c1 de ac 3e
       0.12392682 0.15611792 -0.36246112 0.33763698
000390 77 42 09 3d e2 fb 06 3d 4a cf 8e 3e 3e 85 79 3e
       0.03351065 0.032955058 0.27892524 0.24367234
0003a0 2c 23 f2 bc a7 49 7c be 25 83 4f 3e 22 88 1f 3d
       -0.029557787 -0.24637471 0.20264871 0.038948186
0003b0 ac 8b 3e 3e c6 f1 36 be e5 8a 0b be 69 89 50 bf
       0.18607968 -0.17865667 -0.13627203 -0.8145967
0003c0 2b 17 8c 3e a6 fe 19 3e 25 50 27 be f6 d6 e9 3d
       0.27361426 0.15038547 -0.16339166 0.11417954
0003d0 51 20 e7 be 0c df 8c 3d ff 42 f7 3d 7c 9a b8 3b
       -0.45141843 0.0687848 0.12073325 0.0056336503
0003e0 da e7 78 3d 5b 30 bf be d9 31 f7 bb 5f de 60 3e
       0.060767986 -0.3734158 -0.007543784 0.21959828
0003f0 1d 41 13 3e 8f e9 be 3d 7d c9 d6 bd a8 8e 5a 3d
       0.14380307 0.093218915 -0.104876496 0.053358704

layers.2.bias f4 [32]
000000 c4 75 88 3e 2e cf 95 3d b7 f5 11 bb c1 f5 a1 be
       0.26652348 0.07314907 -0.0022271702 -0.31632808
000010 9d 13 6d 3e 41 33 92 be 5f b9 91 3e 62 ab a6 bd
       0.23152013 -0.2855473 0.2846174 -0.081381574
000020 51 b2 61 3e 95 ce 04 be 97 b7 d2 bd 82 66 8a be
       0.22040679 -0.1296943 -0.10288923 -0.27031332
000030 1b 68 a9 be 74 83 1a 3e 59 ba b9 3d 4d 0d a1 3e
       -0.3308724 0.15089208 0.09068746 0.3145546
000040 d3 d5 3b 3e 1d 00 62 3e 93 81 a3 be f2 cf 91 3e
       0.18343286 0.22070356 -0.31934795 0.28478962
000050 52 6b ea 3d 25 1b 77 be 3f e0 ec 3d b1 47 bd be
       0.11446251 -0.24131449 0.11566209 -0.3696876
000060 14 82 2b be aa c4 81 3e 02 09 84 3e 62 7d 8c 3d
       -0.1674884 0.25345355 0.25788122 0.068598524
000070 82 57 3e bd ae 3e 02 3e 25 da b2 3e 7c 0e c8 3e
       -0.046470173 0.12719223 0.34932056 0.3907355

layers.4.weight f4 [5, 32]
000000 5b b4 66 be 77 f7 86 3e a5 8b a3 be ff 6b 0a 3c
       -0.22529738 0.26360676 -0.31942478 0.0084486
000010 89 f7 28 3d c8 97 5a be 11 80 3d 3e 97 6a 5c be
       0.041251693 -0.21346962 0.18505885 -0.21525036
000020 5e ee a9 3d 28 09 d7 3d 55 ce 01 3d 3e dc 5b be
       0.08297418 0.10499793 0.031690914 -0.21470734
000030 96 5a 26 be c9 81 f7 3d b1 dc 13 bd 98 97 b1 3a
       -0.16245493 0.120853014 -0.03609914 0.0013549207
000040 a9 5e 5c be 61 fe 86 3e e2 ad bb 3d 20 f4 4b bd
       -0.21520485 0.2636595 0.09164025 -0.049793363
000050 04 96 c1 bd 37 de a1 bc e6 ee 3d bd 0c e0 6a be
       -0.09452441 -0.01975928 -0.04637041 -0.2293703
000060 89 a5 36 3e c3 d4 3e 3e 3b d0 74 bd 8e d5 0a 3e
       0.17836584 0.1863585 -0.059768897 0.13558027
000070 cd cd d2 be 7e c4 b7 3e 9a cc 4a be 22 7c 46 3e
       -0.4117264 0.358921 -0.19804612 0.1938329
000080 93 f7 d5 be fd 6b 7a 3e a6 7c 4c 3e 20 a6 ec bd
       -0.41790447 0.24455257 0.19969425 -0.11555123
000090 fa 72 96 be 5a 29 23 3f 0a c5 6c be 6b a3 11 3f
       -0.29384595 0.6373497 -0.2312204 0.5688998
0000a0 a4 fd 90 be 0c 21 db bd 37 5a f1 bd f9 37 e6 3e
       -0.28318512 -0.106996626 -0.11784785 0.4496458
0000b0 67 06 ad 3e f2 32 bc 3e ad 82 70 3e c6 6d 78 3d
       0.33793947 0.36757618 0.23487349 0.060651563
0000c0 a2 28 5e 3d e3 ae 5b be 80 44 0c 3f 35 d8 d9 3e
       0.05423797 -0.21453433 0.5479202 0.42547765
0000d0 38 f5 ad 3e d3 f5 0a 3f bf cb 84 bd c8 b7 3a 3e
       0.3397615 0.5428135 -0.06484174 0.1823417
0000e0 f5 e0 4d be dd 24 41 bf 62 e9 90 be b5 1f a9 bd
       -0.20105346 -0.75446874 -0.28303057 -0.08258001
0000f0 57 b5 f0 3d 5d d9 6f bd fd 9b f8 3e 6b 70 79 bd
       0.11753338 -0.058556903 0.4855651 -0.060898226
000100 52 94 7c 3e 25 d1 4d 3e 2b 66 9b 3d 49 46 f0 be
       0.24665955 0.20099314 0.07587846 -0.46928623
000110 7f 3a b5 bd cf 8c a3 3e f9 4f b6 3d 9e 43 a9 3e
       -0.08849048 0.31943366 0.08901972 0.330594
000120 6f 82 99 3e 0c 5c 56 be b8 2f bb bd e1 e5 00 3e
       0.29982325 -0.2093355 -0.09139961 0.12587692
000130 cc 16 dd 3e 8e b1 22 be 4b 1c c8 3e aa c3 2a bd
       0.43181455 -0.15888044 0.39084086 -0.041690506
000140 a5 b2 40 be 37 42 25 be a3 2f 6e be 0a f2 84 3e
       -0.18818147 -0.1613854 -0.2326036 0.2596591
000150 97 d7 61 3d 88 72 0e bf af f6 c4 3d b5 3f 12 3f
       0.055137243 -0.5564351 0.09617364 0.5712846
000160 f1 ad 5c be b1 57 73 3d 1e e5 ba 3d 44 a3 f9 3d
       -0.21550728 0.0594098 0.09125732 0.121893436
000170 07 2f a6 3d a1 6e 26 3e 73 43 48 3e 28 3e de bd
       0.081144385 0.16253139 0.1955698 -0.10851699
000180 a2 3d 4d 3c 9a 2b 60 be b9 83 c3 3d d9 7f 6f bd
       0.012526901 -0.21891633 0.095466085 -0.058471534
000190 db b4 48 3e fb c4 d9 be 0c 4f 6e 3e e2 a7 5a be
       0.19600241 -0.42533097 0.23272341 -0.21353105
0001a0 01 9a 43 3e f1 82 dd 3c bb d0 0f 3d db 50 db bd
       0.19101717 0.027039977 0.03511117 -0.10708781
0001b0 fe 91 03 3d bb 46 6d be 1b 4c 16 bd 51 92 a7 3e
       0.03212165 -0.23171513 -0.036693674 0.32728818
0001c0 d2 8f 58 bd b6 2d 6b bd d1 ca 67 3d 2a 23 cb bd
       -0.052871533 -0.05741664 0.056589905 -0.099188164
0001d0 87 9a cf be fb 39 dd 3d 59 5b 98 3e af 5e 3a bd
       -0.40547583 0.108020745 0.29757193 -0.045500454
0001e0 18 ed 58 be 59 fb ff 3d 81 61 66 3e cc d3 15 be
       -0.21184194 0.12499113 0.22498132 -0.14631575
0001f0 b8 38 a0 be d5 a3 f4 bd 13 0b 21 3e 55 4b 42 3e
       -0.31293273 -0.11945311 0.1572688 0.1897405
000200 67 12 e9 3d a0 4b a6 be 4a 9a c3 3e 48 3a 28 3f
       0.11380463 -0.32479572 0.3820365 0.6571393
000210 8d 62 17 3d 75 ec c2 be e1 3d 12 3e ea a8 09 bf
       0.03695922 -0.38071027 0.14281417 -0.5377337
000220 98 61 6c 3e 5e 95 b5 3e 18 5b c7 bc 75 8a 18 bf
       0.23084104 0.3546552 -0.02433543 -0.5958627
000230 3c b5 42 bf 8e 5e 37 bd bd 18 21 bf 11 af 6f be
       -0.7605779 -0.04476791 -0.6292837 -0.23406626
000240 3e a8 08 3f 14 b7 b3 3b 1f 63 c6 be 4f a4 e8 be
       0.5338172 0.005484471 -0.38747498 -0.45437858
000250 96 c8 4a be 7b 7e 16 3e f5 f5 f2 bb 29 b9 f4 be
       -0.1980308 0.14696686 -0.0074145743 -0.47797516
000260 2c 9d ba 3e 08 54 a4 3e 83 f6 0f 3e 8f 3d 7f 3e
       0.36448038 0.3209536 0.1405888 0.24925826
000270 f0 c9 fe 3e a0 f6 49 be 90 9e a9 be 22 47 98 bc
       0.4976344 -0.19722986 -0.33128786 -0.018588606

layers.4.bias f4 [5]
000000 80 9f 97 3d e6 a4 9b 3d d4 08 b3 bd e4 da 49 3e
       0.07403469 0.07599811 -0.08741918 0.19712406
000010 db d0 4c be
       -0.20001547
