data/models/test_easier/checkpoints/epoch_180.pt (torch, 6445 bytes, 6 tensors)

layers.0.weight f4 [16, 6]
0	0x3d479b58	0.04873213
1	0x3c71623d	0.0147328945
2	0x3babf0ab	0.0052471957
3	0xbba464ac	-0.005016884
4	0x3f5d2f85	0.86400634
5	0x3d539ff7	0.051666226
6	0x3e7f6ef1	0.24944665
7	0x3d28d036	0.04121419
8	0xbd2071ec	-0.039171144
9	0xbcd1df46	-0.02561916
10	0x3f0ecd3c	0.5578191
11	0x3e842e68	0.25816655
12	0xbc6cf2d0	-0.014462188
13	0xbcb562d8	-0.022141859
14	0xbb794a96	-0.0038038841
15	0xba3231aa	-0.00067975617
16	0xbe7753f3	-0.24153118
17	0x3f3dc02a	0.74121344
18	0x3b313b8c	0.002704355
19	0xbb48820d	-0.0030595094
20	0xbaaf676b	-0.0013382261
21	0xbb6f8e50	-0.003655333
22	0xbf0a7678	-0.5408702
23	0x3d8f8875	0.07008449
24	0x3cef47e9	0.029209094
25	0xbc1929d8	-0.009348355
26	0xbbd1622c	-0.006389877
27	0xbaf4ab9c	-0.0018666866
28	0x3f1cba9a	0.6122223
29	0xbf408080	-0.75196075
30	0x3e14358d	0.14473553
31	0x3e62636b	0.22108237
32	0x3cd751a6	0.02628405
33	0xbd0e68f2	-0.034768052
34	0xbf0fb5f3	-0.5613701
35	0x3ecc2eb6	0.39879388
36	0x3adb07be	0.0016710681
37	0x3ba81291	0.0051291664
38	0x383045ea	4.2026782e-05
39	0x3aaf0c6b	0.0013355141
40	0x3f15ba79	0.5848766
41	0xbf2f05a5	-0.6836799
42	0xb7f2d3b4	-2.894723e-05
43	0x388c544f	6.691424e-05
44	0xb91cbd68	-0.00014947879
45	0xb724b2d7	-9.816801e-06
46	0x3e103ae6	0.14084968
47	0xbf4208ec	-0.75794864
48	0x3e0985fa	0.13430014
49	0x3c379558	0.01120504
50	0xbd298afc	-0.04139231
51	0xbc17b1bd	-0.009258685
52	0xbef822f5	-0.4846417
53	0x3ec70ff8	0.3887937
54	0x3d6ade7f	0.057341095
55	0x3d1dab56	0.038493477
56	0xbbaefd99	-0.00534029
57	0xbb967957	-0.0045921016
58	0xbdf64597	-0.12024992
59	0xbf82bf7c	-1.0214686
60	0x3b8fb416	0.0043854816
61	0xbc0422c6	-0.008064931
62	0xb9bef7ad	-0.00036424157
63	0x3b82baf8	0.0039895736
64	0xbf683777	-0.9070963
65	0xbed23ecf	-0.41063544
66	0x38f1e0e4	0.00011533665
67	0x39eaf754	0.00044816232
68	0xb9c26c9d	-0.00037083487
69	0x38830535	6.247537e-05
70	0x3efd9f7a	0.49535733
71	0x3f2cadc4	0.67452645
72	0xbd712ac3	-0.05887867
73	0x3b98745d	0.0046525435
74	0xbab0b52d	-0.0013481729
75	0x3c29de62	0.010367962
76	0x3f428ad8	0.7599311
77	0x3e65f1a1	0.22455455
78	0x3b39a024	0.002832421
79	0xbca09d0e	-0.01960614
80	0xbad7b784	-0.001645789
81	0xb930173e	-0.00016793326
82	0xbecdb8be	-0.4018001
83	0xbf6c32e5	-0.9226516
84	0xbb600de3	-0.0034187965
85	0x3ab21940	0.0013587847
86	0x3c29e854	0.010370333
87	0x3b66e266	0.0035230159
88	0xbea24e24	-0.31700242
89	0x3ef90ece	0.48644108
90	0x3b08e7dc	0.0020890152
91	0x3b4f094d	0.0031591237
92	0x383c8a62	4.4951572e-05
93	0xba6257e9	-0.00086343155
94	0x3f339863	0.701544
95	0x3f7e7cbf	0.994091

layers.0.bias f4 [16]
0	0x3ef34e16	0.47520512
1	0x3e2dd22e	0.16974708
2	0x3da76f55	0.08175532
3	0x3f6df795	0.92955905
4	0x3da62870	0.081131816
5	0x3d62831e	0.055300824
6	0x3f222e53	0.63351935
7	0x3f2b87ac	0.67003894
8	0x3f33d72b	0.70250195
9	0xbe8fa90d	-0.28058663
10	0x3f19036f	0.59770864
11	0x3f4bc4f0	0.7959738
12	0x3f1b2f8a	0.60619414
13	0x3dbf0684	0.09327415
14	0x3f45eda6	0.7731575
15	0x3e8d58a1	0.2760668

layers.2.weight f4 [32, 16]
0	0xbd07cd9d	-0.033155072
1	0xbe40a759	-0.18813838
2	0xbf4304e8	-0.7617936
3	0x3e416845	0.18887432
4	0x3e76f4a1	0.24116756
5	0xbda58dce	-0.08083688
6	0x3e03b075	0.12860282
7	0x3ed0d025	0.40783802
8	0x3d353a4b	0.044245046
9	0x3d489d8b	0.04897837
10	0xbe7038d4	-0.23459178
11	0x3d2fc83c	0.042915568
12	0xbe6f41ca	-0.2336494
13	0x3e0161f8	0.12635028
14	0xbcc6ad1d	-0.024252469
15	0x3e461846	0.19345197
16	0xbb660317	-0.0035097057
17	0xbc3aa777	-0.011392466
18	0xba318199	-0.0006771326
19	0x3ed88c3d	0.42294493
20	0x3e9e0ddf	0.30869958
21	0xbd43752c	-0.047719166
22	0x3db0ffb0	0.086425185
23	0x3e08d1a2	0.13361219
24	0xbdaaa2a1	-0.083318
25	0xbf4c9446	-0.7991375
26	0xbe2c7944	-0.16843134
27	0xbde134e4	-0.10996416
28	0x3e3cc041	0.18432714
29	0xbeff71ce	-0.49891514
30	0x3d96a067	0.07354813
31	0xbe73a7a2	-0.23794416
32	0xbdd45e7c	-0.10369584
33	0xbe118fd8	-0.14215028
34	0xbeb28f7d	-0.34875098
35	0x3e822162	0.25416094
36	0xbed6c9c1	-0.419508
37	0x3eae8598	0.340863
38	0x3eba9c65	0.36447445
39	0x3c0c74d7	0.008572779
40	0x3eb29c3c	0.34884822
41	0x3dd42b11	0.10359777
42	0x3e5039b8	0.20334518
43	0x3dbab756	0.09117
44	0xbda489eb	-0.08034118
45	0xbe960af1	-0.29305223
46	0x3e59996e	0.21249935
47	0xbe691bfd	-0.22764583
48	0xbe8572f9	-0.2606428
49	0xbe0e2a75	-0.13883384
50	0xbeaaedaf	-0.33384463
51	0xbd6bbfe2	-0.05755604
52	0x3e893d40	0.26804543
53	0xbd824d2d	-0.06362376
54	0x3ed6c195	0.41944566
55	0x3e931644	0.28727925
56	0xbd3a3f5c	-0.04547058
57	0x3ebed62e	0.3727278
58	0xbde96fd1	-0.113982804
59	0xbf37eb7d	-0.718437
60	0xbe722851	-0.23648192
61	0x3ebc55ad	0.36784115
62	0xbcd44aa7	-0.025914503
63	0xbf50d239	-0.81570774
64	0x3cb93654	0.022608913
65	0x3df0c81a	0.11756916
66	0xbc586ffc	-0.013210293
67	0x3e0a5ff8	0.13513172
68	0xbdc9ee70	-0.098599315
69	0x3d837dc0	0.06420469
70	0x3e9efb7a	0.31051236
71	0xbcd8f369	-0.026483255
72	0x3d97e0bc	0.074159116
73	0x3e114027	0.14184628
74	0xbdd521b1	-0.10406817
75	0x3d0e47c7	0.03473642
76	0xbe108485	-0.14113052
77	0x3e9d467a	0.30717832
78	0x3e8aa65d	0.2708005
79	0x3e9689ac	0.2940191
80	0x3c2d2574	0.010568012
81	0x3e20db8a	0.15708748
82	0x3e5f4303	0.21802907
83	0xbe89fe51	-0.2695184
84	0xbf0f83d5	-0.56060535
85	0xbcbce43c	-0.02305805
86	0xbf426dbd	-0.759487
87	0xbf85ee8a	-1.0463421
88	0xbe1dbde1	-0.15404464
89	0xbe8d7447	-0.27627775
90	0xbe897873	-0.26849708
91	0x3eee1bd5	0.4650561
92	0x3e2f3c50	0.17112851
93	0xbe3edc36	-0.18638691
94	0x3d63543e	0.05550026
95	0x3f0ee4a2	0.55817616
96	0xbe18eafa	-0.14933386
97	0xbdde977d	-0.10868738
98	0x3eb543a5	0.3540317
99	0x3ccf9f26	0.025344443
100	0x3d38e1d2	0.045137234
101	0x3e9ea142	0.30982405
102	0x3e8828d6	0.26593655
103	0x3e38791e	0.18014953
104	0x3e238f8d	0.15972729
105	0xbe03e0a8	-0.12878668
106	0x3df61cdf	0.120172255
107	0xbe40eef3	-0.18841152
108	0x3d24a38a	0.040195026
109	0x3c6ae43b	0.014336641
110	0x3ecb3aff	0.39693448
111	0x3e0bd503	0.13655476
112	0xbe2b7176	-0.167425
113	0x3ea4e377	0.32204792
114	0x3e130fb0	0.14361453
115	0xbdc0d99b	-0.09416505
116	0xbee54558	-0.44779468
117	0xb9ee9f62	-0.00045513647
118	0xbf133c86	-0.57514226
119	0xbf8077c8	-1.0036554
120	0xbe05511a	-0.13019219
121	0x3e9319e5	0.28730693
122	0xbe815c6a	-0.2526582
123	0x3e8a57e4	0.2702018
124	0x3dc0c1a9	0.09411938
125	0xbe761bee	-0.24034092
126	0x3e062926	0.13101634
127	0x3f0b0734	0.54307866
128	0xbe84b2ab	-0.25917563
129	0xbe268865	-0.16262968
130	0x3eae1fcb	0.3400863
131	0xbdedd994	-0.11613765
132	0x3e88fb72	0.26754338
133	0x3ebbbca6	0.36667365
134	0x3e9a8ee0	0.3018713
135	0x3e846854	0.25860846
136	0x3e77a081	0.24182321
137	0xbe14de65	-0.14537962
138	0x3de20268	0.11035615
139	0xbece7d72	-0.40330082
140	0xbe94a4f3	-0.29032096
141	0xbe66a00d	-0.22521992
142	0x3e596d65	0.21233137
143	0xbe631ea7	-0.22179662
144	0x3e01859f	0.12648629
145	0xbe158f3a	-0.14605418
146	0x3e520848	0.20510972
147	0xbd88da26	-0.066822335
148	0x3d765916	0.060143553
149	0x3e94b717	0.29045936
150	0x3c68e86a	0.014215568
151	0x3ec6bc45	0.38815513
152	0x3ebaa824	0.36456406
153	0x3e263c04	0.16233832
154	0xbd9544e9	-0.07288534
155	0x3d308581	0.04309607
156	0x3df5eca8	0.12008029
157	0x3ea1abdd	0.31576434
158	0x3d317e4e	0.043333344
159	0x3eff35fb	0.4984587
160	0xbcc3476d	-0.02383777
161	0x3d8f6d62	0.07003285
162	0xbe72356a	-0.23653188
163	0xbe85baf3	-0.26119193
164	0xbe74d84b	-0.23910634
165	0x3cd64405	0.026155481
166	0xbe663b12	-0.22483471
167	0x3dbccab5	0.09218351
168	0xbdec3e60	-0.115353346
169	0xbe8ac78b	-0.27105364
170	0x3e0dfa03	0.13864903
171	0xbde9e1ed	-0.11420045
172	0x3e369eed	0.17834063
173	0x3cd23bc1	0.025663259
174	0xbd82b1a7	-0.06381541
175	0x3d9d106a	0.07669146
176	0x3dd6f02c	0.10495028
177	0x3c78ee43	0.015193525
178	0x3ed98123	0.42481336
179	0xbe4aaa44	-0.19791514
180	0x3f170238	0.5898776
181	0x3da981c1	0.08276702
182	0x3c88e9ff	0.01671314
183	0xbe6a1504	-0.2285958
184	0xbd9bd35d	-0.07608674
185	0xbe8bcd69	-0.27305153
186	0x3d4811de	0.048845164
187	0x3e0bf158	0.13666284
188	0x3e00c192	0.12573841
189	0xbf20321a	-0.6257645
190	0xbd74bc39	-0.059749816
191	0x3dc7f72a	0.0976394
192	0x3ef0cd11	0.47031453
193	0x3eb35b8a	0.35030776
194	0xbe3e3e17	-0.18578373
195	0xbf5868e0	-0.84535027
196	0x3ac83571	0.0015274716
197	0xbeac4cb7	-0.3365228
198	0x3eb51618	0.3536842
199	0xbbc77108	-0.0060864724
200	0xbf15da2d	-0.58536035
201	0xbf5a5548	-0.8528638
202	0xbf65596f	-0.8958959
203	0x3e3ba08f	0.18322967
204	0x3eba0435	0.36331335
205	0xbf7f4340	-0.9971199
206	0xbeeef75d	-0.46673098
207	0x3b80df01	0.003932834
208	0x3e4c7208	0.19965374
209	0x3e59896e	0.21243832
210	0x3e96eeea	0.29479152
211	0xbe191ced	-0.1495244
212	0x3ecb1870	0.39667082
213	0x3d8b8137	0.06811755
214	0x3e2550be	0.16144082
215	0x3e2d9636	0.16951832
216	0xbe0700b5	-0.13183863
217	0xbec00a0b	-0.37507662
218	0xbeaefc66	-0.3417694
219	0x3e30149a	0.17195359
220	0x3db17830	0.08665502
221	0xbd868a88	-0.065693915
222	0x3dd5b635	0.10435144
223	0xbdc2b7c6	-0.09507708
224	0x3dc6db91	0.09709848
225	0x3dd96f5f	0.106169455
226	0xbeacdc55	-0.3376185
227	0x3eb02180	0.34400558
228	0x3d87b32b	0.066259705
229	0x3c47fd45	0.01220638
230	0x3e922517	0.28543922
231	0x3e8a040f	0.2695622
232	0xbd7e28bf	-0.062050577
233	0xbe4e446a	-0.20143285
234	0x3e4d21d0	0.2003243
235	0x3e1239e7	0.142799
236	0x3e3b37d4	0.18283015
237	0xbe5d00eb	-0.21582381
238	0xbe3a8c7d	-0.18217655
239	0xbf6661e7	-0.8999314
240	0x3ea04e35	0.31309667
241	0x3e21108a	0.15728965
242	0xbe3cbe70	-0.18432021
243	0x3e101e54	0.1407407
244	0xbf015e2d	-0.50534326
245	0x3d9b7113	0.075899266
246	0x3e1002d2	0.14063576
247	0xbca5c984	-0.020237692
248	0x3d9f3c1b	0.07775136
249	0xbecbe336	-0.39821786
250	0x3d0fc439	0.035099242
251	0x3e5b804f	0.21435665
252	0x3e626b81	0.22111322
253	0x3d896db8	0.0671038
254	0xbde7c88c	-0.11317548
255	0x3d3e318f	0.04643398

layers.2.bias f4 [32]
0	0x3ea789a8	0.3272221
1	0x3e12dbb3	0.14341621
2	0x3d9c6601	0.07636643
3	0xbea3a005	-0.31958023
4	0x3e640cde	0.22270533
5	0xbe6f4e4c	-0.23369712
6	0x3e87c941	0.26520732
7	0xbd60cef0	-0.05488485
8	0x3e7099c3	0.23496155
9	0xbe1e1dda	-0.15441075
10	0xbdd2b797	-0.10288923
11	0xbe83ca0e	-0.25740093
12	0xbea6e40e	-0.32595867
13	0x3e243772	0.16036776
14	0x3ddbb6c8	0.10728222
15	0x3eb33840	0.35003853
16	0x3e4b5599	0.19856872
17	0x3e3da13d	0.18518539
18	0xbea3f083	-0.32019433
19	0x3e96901e	0.29406828
20	0x3dcc6743	0.09980633
21	0xbe841745	-0.25799003
22	0x3e10dfce	0.14147875
23	0xbeb17f48	-0.3466742
24	0xbe129f8c	-0.14318675
25	0x3e570f7a	0.21001998
26	0x3e8db08a	0.2767375
27	0x3cc6b407	0.024255766
28	0xbd183962	-0.0371641
29	0x3df4867f	0.119397156
30	0x3ed87a94	0.4228102
31	0x3ec5d43e	0.3863849

layers.4.weight f4 [5, 32]
0	0xbe878fd4	-0.2647692
1	0x3eadee13	0.339707
2	0xbec1ccb6	-0.37851495
3	0xbd839eec	-0.06426796
4	0x3d14e6c8	0.036352903
5	0xbe896455	-0.2683436
6	0x3e425107	0.18976222
7	0xbe8a8d3d	-0.2706088
8	0x3db2ff8f	0.0874015
9	0x3e03da5f	0.1287627
10	0x3d01ce55	0.031690914
11	0xbe13f608	-0.14449322
12	0xbe359617	-0.17733036
13	0x3e0d4c4c	0.13798636
14	0xbd796da0	-0.060895562
15	0x3b08b296	0.0020858399
16	0xbe875529	-0.2643216
17	0x3e9c0d8d	0.30479088
18	0x3ded5c7c	0.115899056
19	0x37f37145	2.9020603e-05
20	0xbda3342a	-0.07968934
21	0xbd9301f6	-0.071781084
22	0xbdb0fe0e	-0.08642207
23	0xbe340af9	-0.1758231
24	0x3e5db49f	0.21650933
25	0x3e7b768c	0.24556941
26	0xbe2f49c3	-0.17117982
27	0x3e320768	0.17385638
28	0xbed814cc	-0.42203367
29	0x3ef031fe	0.4691314
30	0xbe625d88	-0.22105992
31	0x3e4d42e1	0.20045044
32	0xbefab6f7	-0.48967716
33	0x3ebf8869	0.3740876
34	0x3e68d61a	0.22737923
35	0x3c1ede5b	0.009696568
36	0xbe9b216a	-0.3029893
37	0x3f2cb226	0.6745933
38	0xbe88f8ce	-0.26752323
39	0x3f1c4611	0.6104441
40	0xbeb31a40	-0.34980965
41	0xbe18732f	-0.14887689
42	0xbdf15a37	-0.11784785
43	0x3edab03a	0.42712575
44	0x3ef17bb9	0.47164705
45	0x3ec07dc8	0.37595963
46	0x3e8d96dc	0.2765416
47	0x3dbee885	0.09321693
48	0x3d1a5f30	0.037688434
49	0xbe7caca0	-0.24675226
50	0x3f0fda64	0.5619261
51	0x3f053b91	0.52044016
52	0x3ecd1476	0.40054673
53	0x3f186e9d	0.5954378
54	0xbd8d6929	-0.06904823
55	0x3e88f55a	0.26749688
56	0xbe71bd9b	-0.23607485
57	0xbf57fe62	-0.8437253
58	0xbec418a9	-0.38300064
59	0xbdd7dc7b	-0.105401
60	0x3de4c600	0.11170578
61	0xbdc5bab1	-0.09654749
62	0x3f155818	0.58337545
63	0xbd6d5d97	-0.057950582
64	0x3ea8b815	0.32952943
65	0x3e88e34f	0.26735923
66	0x3d5f1702	0.0544653
67	0xbf05d163	-0.52272624
68	0xbddba723	-0.10725238
69	0x3ebc0e7a	0.36729795
70	0x3dbbc4bd	0.09168384
71	0x3ebcc0da	0.36865884
72	0x3ea3591c	0.31903923
73	0xbe5d5122	-0.21612981
74	0xbdbb2fb8	-0.09139961
75	0x3dfc19b6	0.123095915
76	0x3ecbe05c	0.3981961
77	0xbe4da838	-0.20083702
78	0x3ed99e8b	0.4250377
79	0xbd9b7a4c	-0.07591686
80	0xbe692ac9	-0.22770227
81	0xbe248a32	-0.16068342
82	0xbe26dc16	-0.16294894
83	0x3e7facf3	0.24968319
84	0x3db55fbf	0.08856153
85	0xbf0da6b6	-0.55332506
86	0x3db83933	0.08995285
87	0x3f13d8a2	0.5775243
88	0xbe478873	-0.19485645
89	0x3e013e60	0.1262145
90	0x3d8e71f0	0.069553256
91	0x3e031dd4	0.12804347
92	0x3cfd3f2d	0.030913914
93	0x3e3746f1	0.17898156
94	0x3e2b88a6	0.16751346
95	0xbe0e0da7	-0.13872395
96	0xbcb1559e	-0.02164727
97	0xbebedfeb	-0.3728021
98	0x3dcf3ad5	0.10118643
99	0xbda1c3f0	-0.078987
100	0x3e5c7729	0.21529831
101	0xbee2749d	-0.44229594
102	0x3e81b475	0.2533299
103	0xbe6bc02f	-0.23022531
104	0x3e3673c0	0.17817593
105	0x3d216229	0.039400253
106	0x3d0fd0bb	0.03511117
107	0xbd00fcee	-0.031491213
108	0x3e015323	0.1262937
109	0xbe857430	-0.26065207
110	0xbd2bc33e	-0.041934244
111	0x3ec12b4a	0.3772834
112	0xbd0ada10	-0.033899367
113	0xbd8022a5	-0.06256608
114	0x3e03cbb0	0.1287067
115	0xbe1ca565	-0.15297468
116	0xbee363ea	-0.44412166
117	0x3e3f5eef	0.18688558
118	0x3eaebdef	0.34129283
119	0xbd998e82	-0.07497884
120	0xbe7398db	-0.23788778
121	0x3db3652d	0.08759532
122	0x3ebced2d	0.368997
123	0xbe39fd07	-0.18162929
124	0xbebb6a0d	-0.36604348
125	0xbe26df94	-0.16296226
126	0x3e21d9c2	0.15805724
127	0x3e67783e	0.22604463
128	0x3e24e75c	0.16103882
129	0xbed2ce1f	-0.41172883
130	0x3edaa0c4	0.4270078
131	0x3f2a05ed	0.6641529
132	0x3d4ec49b	0.050480466
133	0xbed0f726	-0.4081356
134	0x3e173406	0.14765939
135	0xbf0e0da0	-0.5548954
136	0x3e8d8e84	0.27647793
137	0x3ebc570f	0.3678517
138	0xbcc75b18	-0.02433543
139	0xbf2ecd3e	-0.68281925
140	0xbf623493	-0.8836147
141	0xb7f4ddea	-2.9190403e-05
142	0xbf2cc9e1	-0.6749554
143	0xbe8f7f4c	-0.28026807
144	0x3f1e6d0b	0.61885136
145	0xbaa4b1da	-0.0012565211
146	0xbf031b39	-0.51213413
147	0xbf078262	-0.52933323
148	0xbe86a68c	-0.2629894
149	0x3d94c1f6	0.072635576
150	0x3aac646a	0.0013152484
151	0xbf141e14	-0.57858396
152	0x3eba391c	0.36371696
153	0x3ea9a9cb	0.33137354
154	0x3e6cc881	0.23123361
155	0x3e8464bb	0.258581
156	0x3f16db34	0.5892823
157	0xbe8136ff	-0.2523727
158	0xbec2c1cd	-0.38038483
159	0xbd073bfd	-0.033016194

layers.4.bias f4 [5]
0	0x3d42006a	0.047363676
1	0x3dc91af6	0.098195955
2	0xbdb394c5	-0.0876861
3	0x3e62b2c0	0.221385
4	0xbe5e6c3c	-0.21720976
