data/models/test_easier/checkpoints/epoch_210.pt (torch, 6445 bytes, 6 tensors)

layers.0.weight f4 [16, 6]
0.04867122 0.014709907 0.0052160393 -0.004993739 0.86412084 0.05169698 0.24934943 0.041209426
-0.039156362 -0.025572792 0.55792814 0.2581343 -0.0144430455 -0.022112131 -0.0037966345 -0.0006732638
-0.24156709 0.74129874 0.0027408532 -0.0030596014 -0.0013485693 -0.0036411618 -0.5409121 0.070143625
0.029179607 -0.009326866 -0.006401131 -0.0018689658 0.6123618 -0.7520071 0.14473987 0.22096401
0.026309133 -0.03467682 -0.5614006 0.39895302 0.0016720823 0.005127843 3.802062e-05 0.0013317037
0.58493435 -0.6837715 -2.7911025e-05 6.769321e-05 -0.00015185135 -1.0750215e-05 0.14088354 -0.75813526
0.13415349 0.011215545 -0.041289322 -0.009224738 -0.4846156 0.38879722 0.05734061 0.038443636
-0.0053679673 -0.0045855427 -0.12022323 -1.0216433 0.0043469314 -0.0080651315 -0.00038720624 0.003967896
-0.90730655 -0.41066504 0.000117467134 0.00045029362 -0.00037054427 6.211956e-05 0.49541932 0.67465806
-0.058845416 0.0046459804 -0.001350269 0.010305782 0.7600158 0.22455867 0.002769831 -0.019551923
-0.0016280694 -0.00016510916 -0.40182343 -0.92280453 -0.0034206242 0.0013319897 0.010285327 0.003482001
-0.31713304 0.48641798 0.0020756724 0.0031561248 5.203903e-05 -0.0008576986 0.7016568 0.99421877
00000000: 795b 473d d201 713c 4feb aa3b 85a2 a3bb
00000010: 0637 5d3f 36c0 533d 7555 7f3e 37cb 283d
00000020: 6c62 20bd 087e d1bc 61d4 0e3f 2e2a 843e
00000030: 86a2 6cbc 8024 b5bc f5d0 78bb f87d 30ba
00000040: 5d5d 77be c1c5 3d3f e39f 333b 9883 48bb
00000050: 7ac2 b0ba 8fa0 6ebb 3779 0abf 76a7 8f3d
00000060: 120a ef3c b6cf 18bc 94c0 d1bb 16f8 f4ba
00000070: bec3 1c3f 8a83 40bf b036 143e 6444 623e
00000080: 4086 d73c 4809 0ebd f3b7 0fbf 9243 cc3e
00000090: c629 db3a 7707 a83b 5478 1f38 908c ae3a
000000a0: 42be 153f a60b 2fbf 7822 eab7 84f6 8d38
000000b0: 493a 1fb9 d25b 34b7 c643 103e 2715 42bf
000000c0: 885f 093e 68c1 373c fe1e 29bd 5b23 17bc
000000d0: 891f f8be 6e10 c73e fddd 6a3d 1377 1d3d
000000e0: c6e5 afbb 5242 96bb 9937 f6bd 35c5 82bf
000000f0: b470 8e3b 9d23 04bc f101 cbb9 2005 823b
00000100: 3e45 68bf b042 d2be b058 f638 6315 ec39
00000110: 9c45 c2b9 2f46 8238 9aa7 fd3e 64b6 2c3f
00000120: e407 71bd 4f3d 983b 82fb b0ba 95d9 283c
00000130: 6590 423f b5f2 653e 0e86 353b 5b2b a0bc
00000140: f264 d5ba 2721 2db9 cdbb cdbe eb3c 6cbf
00000150: 8d2c 60bb 2896 ae3a ca83 283c 4832 643b
00000160: 435f a2be c70b f93e 0108 083b fdd6 4e3b
00000170: 7c44 5a38 2ed7 60ba c89f 333f 1f85 7e3f

layers.0.bias f4 [16]
0.47536033 0.169815 0.08173367 0.9296807 0.08115835 0.055403274 0.63360035 0.67019916
0.7026664 -0.28059563 0.5977766 0.79608154 0.6063842 0.09332116 0.773307 0.27612272
00000000: 6e62 f33e fce3 2d3e fb63 a73d 8eff 6d3f
00000010: 5936 a63d 8bee 623d a233 223f 2c92 2b3f
00000020: f2e1 333f 3baa 8fbe e307 193f 00cc 4b3f
00000030: ff3b 1b3f 2a1f bf3d 73f7 453f f55f 8d3e

layers.2.weight f4 [32, 16]
-0.0331435 -0.18809357 -0.7620427 0.1888983 0.24126785 -0.080829285 0.1286835 0.4079267
0.044273812 0.04887243 -0.23463896 0.042850852 -0.23363984 0.12631723 -0.02417542 0.19339316
-0.0035560308 -0.01138619 -0.0007204504 0.42295843 0.3087268 -0.047772467 0.08648211 0.1336258
-0.08330075 -0.79923284 -0.16843458 -0.10986586 0.1843291 -0.49914497 0.073566146 -0.23808347
-0.10377794 -0.14222527 -0.34869662 0.25426742 -0.41946715 0.3409322 0.36453894 0.008632343
0.3489573 0.10358969 0.20321344 0.09113203 -0.08042348 -0.29306734 0.21258621 -0.22772983
-0.260607 -0.13877141 -0.3340873 -0.057603173 0.26800376 -0.06381137 0.41947892 0.28729063
-0.045423463 0.37274793 -0.11404063 -0.7186268 -0.23647821 0.3678338 -0.025795355 -0.81595826
0.02263863 0.117585465 -0.013165109 0.13512726 -0.0986607 0.064216465 0.31054923 -0.026407499
0.07419528 0.14176624 -0.10406042 0.034645267 -0.14113335 0.3072395 0.27083606 0.2940829
0.010574289 0.15712127 0.2179307 -0.26949048 -0.56055117 -0.023106305 -0.7596047 -1.0465891
-0.15405042 -0.27627775 -0.26844236 0.46510053 0.17121886 -0.18638691 0.05549575 0.5581879
-0.14932784 -0.10867174 0.35410774 0.02533001 0.045086183 0.30984896 0.26594442 0.18024299
0.15976614 -0.12887621 0.12018601 -0.18847422 0.04017459 0.0143822525 0.39698818 0.13661772
-0.16737899 0.32207876 0.14356153 -0.094165534 -0.4477858 -0.00044714136 -0.57519484 -1.0039047
-0.13020748 0.28730693 -0.2525956 0.27022374 0.0942143 -0.24034092 0.13100639 0.5430861
-0.25914308 -0.16262987 0.3400759 -0.11614234 0.26755324 0.3666774 0.30189317 0.2586452
0.24188212 -0.14548841 0.11033665 -0.40337032 -0.2903391 -0.22522984 0.21241334 -0.2217425
0.12650733 -0.14604828 0.20510611 -0.066857584 0.06012014 0.29043522 0.014235554 0.3881855
0.36457986 0.16226491 -0.07294059 0.043008458 0.12003484 0.31583145 0.04338028 0.49851787
-0.02383777 0.07003285 -0.23653188 -0.26119193 -0.23910634 0.026155481 -0.22483471 0.09218351
-0.115353346 -0.27105364 0.13864903 -0.11420045 0.17834063 0.025663259 -0.06381541 0.07669146
0.10496249 0.0151650775 0.42480066 -0.19793633 0.5899559 0.082717486 0.01673078 -0.22871816
-0.07608821 -0.2729692 0.048980653 0.13663898 0.1257866 -0.62579507 -0.05979506 0.09756954
0.4703809 0.35033217 -0.18592605 -0.84545946 0.001468828 -0.3367188 0.35378182 -0.00611504
-0.58536196 -0.8530629 -0.89611727 0.18324839 0.36337206 -0.9973378 -0.46681848 0.0039004055
0.19968419 0.21241057 0.29482332 -0.14952314 0.39675605 0.068153545 0.16148339 0.16947939
-0.13184737 -0.37511516 -0.341829 0.1719964 0.08667594 -0.065680146 0.10436491 -0.09505379
0.09705221 0.106086634 -0.3375682 0.3440298 0.06629815 0.012202505 0.2854339 0.2695919
-0.06210352 -0.20135647 0.20033096 0.14295769 0.18283252 -0.21587792 -0.1822667 -0.9000645
0.31316382 0.15730801 -0.18433003 0.14078675 -0.5054203 0.07589301 0.14067471 -0.020283213
0.07778005 -0.39824486 0.03516391 0.21434695 0.22121668 0.067057945 -0.11319444 0.046413362
00000000: 7bc1 07bd 9a9b 40be 3b15 43bf 8e6e 413e
00000010: eb0e 773e d389 a5bd 9cc5 033e c5db d03e
00000020: 7558 353d 752e 483d 3245 70be 6084 2f3d
00000030: 483f 6fbe 4e59 013e 880b c6bc db08 463e
00000040: 4c0c 69bb 248d 3abc 9cdc 3cba 028e d83e
00000050: 7011 9e3e 10ad 43bd 881d b13d 34d5 083e
00000060: 9599 aabd 869a 4cbf 1d7a 2cbe 5a01 e1bd
00000070: c5c0 3c3e ee8f ffbe d9a9 963d 27cc 73be
00000080: 8789 d4bd 80a3 11be 5d88 b2be 572f 823e
00000090: 66c4 d6be aa8e ae3e d9a4 ba3e ac6e 0d3c
000000a0: 88aa b23e d526 d43d 2f17 503e 6ea3 ba3d
000000b0: 11b5 a4bd ec0c 96be 33b0 593e 0232 69be
000000c0: 486e 85be 181a 0ebe 7e0d abbe 4ef1 6bbd
000000d0: ca37 893e 89af 82bd f1c5 d63e c217 933e
000000e0: f40d 3abd d1d8 be3e 228e e9bd edf7 37bf
000000f0: 5827 72be b654 bc3e c850 d3bc a4e2 50bf
00000100: a674 b93c a6d0 f03d 78b2 57bc cd5e 0a3e
00000110: 9f0e cabd ec83 833d 4f00 9f3e 8a54 d8bc
00000120: b2f3 973d 2b2b 113e a11d d5bd 32e8 0d3d
00000130: 4385 10be 7f4e 9d3e 06ab 8a3e 0992 963e
00000140: c83f 2d3c 66e4 203e 3a29 5f3e a8fa 89be
00000150: 4880 0fbf 6f49 bdbc 7475 42bf a2f6 85bf
00000160: 65bf 1dbe 4774 8dbe 4771 89be a821 ee3e
00000170: ff53 2f3e 36dc 3ebe 834f 633d 67e5 0e3f
00000180: 66e9 18be 4a8f debd 9c4d b53e e280 cf3c
00000190: 4aac 383d 86a4 9e3e de29 883e 9e91 383e
000001a0: bc99 233e 20f8 03be 1524 f63d 63ff 40be
000001b0: 1c8e 243d 8aa3 6b3c 0942 cb3e 84e5 0b3e
000001c0: 6665 2bbe 82e7 a43e cb01 133e dcd9 c0bd
000001d0: 2e44 e5be 4c6e eab9 f83f 13bf f37f 80bf
000001e0: 1c55 05be e519 933e 3654 81be c45a 8a3e
000001f0: 6df3 c03d ee1b 76be 8a26 063e b107 0b3f
00000200: 67ae 84be 7288 26be 6e1e ae3e 09dc edbd
00000210: bdfc 883e 24bd bb3e be91 9a3e 256d 843e
00000220: f2af 773e eafa 14be 2ef8 e13d 8e86 cebe
00000230: 54a7 94be a7a2 66be e282 593e 7710 63be
00000240: 238b 013e ae8d 15be 5607 523e a1ec 88bd
00000250: 8940 763d edb3 943e 3e3c 693c 40c0 c63e
00000260: 36aa ba3e c628 263e e061 95bd a329 303d
00000270: d4d4 f53d a9b4 a13e 85af 313d bc3d ff3e
00000280: 6d47 c3bc 626d 8f3d 6a35 72be f3ba 85be
00000290: 4bd8 74be 0544 d63c 123b 66be b5ca bc3d
000002a0: 603e ecbd 8bc7 8abe 03fa 0d3e ede1 e9bd
000002b0: ed9e 363e c13b d23c a7b1 82bd 6a10 9d3d
000002c0: 93f6 d63d f276 783c 797f d93e d2af 4abe
000002d0: 5a07 173f c967 a93d fd0e 893c 1835 6abe
000002e0: 23d4 9bbd 9ec2 8bbe f09f 483d 17eb 0b3e
000002f0: 34ce 003e 1b34 20bf aaeb 74bd 8ad2 c73d
00000300: c4d5 f03e bd5e b33e 6663 3ebe 0870 58bf
00000310: b085 c03a 6866 acbe e422 b53e ac60 c8bb
00000320: 48da 15bf 5562 5abf f167 65bf 77a5 3b3e
00000330: e70b ba3e 8851 7fbf d502 efbe f29d 7f3b
00000340: 037a 4c3e 2882 593e 15f3 963e 981c 19be
00000350: 9c23 cb3e 1694 8b3d e75b 253e 018c 2d3e
00000360: ff02 07be 180f c0be 3604 afbe d31f 303e
00000370: 2883 b13d 5083 86bd 45bd d53d 90ab c2bd
00000380: 4fc3 c63d f343 d93d bdd5 acbe ad24 b03e
00000390: 53c7 873d 04ed 473c 6424 923e f307 8a3e
000003a0: 4360 7ebd 6430 4ebe 8f23 4d3e 8063 123e
000003b0: 7338 3b3e 1a0f 5dbe 1fa4 3abe a16a 66bf
000003c0: 0257 a03e 5a15 213e 03c1 3cbe 672a 103e
000003d0: 3a63 01bf cb6d 9b3d 080d 103e fb28 a6bc
000003e0: 264b 9f3d c0e6 cbbe 0808 103d c47d 5b3e
000003f0: a086 623e ad55 893d 7dd2 e7bd f01b 3e3d

layers.2.bias f4 [32]
0.32730588 0.1434918 0.07649037 -0.31959087 0.22267906 -0.23359947 0.26516348 -0.054840583
0.23497714 -0.1544605 -0.10288923 -0.2573874 -0.3259344 0.16037655 0.10731182 0.35009408
0.19857872 0.18511987 -0.3201716 0.2940822 0.09979369 -0.25800553 0.14151308 -0.3466381
-0.14318448 0.20993407 0.27673683 0.024169693 -0.037145894 0.11936938 0.4229269 0.38637236
00000000: a394 a73e 84ef 123e fca6 9c3d 6aa1 a3be
00000010: fb05 643e b334 6fbe 82c3 873e 85a0 60bd
00000020: d99d 703e e52a 1ebe 97b7 d2bd 48c8 83be
00000030: e0e0 a6be c039 243e 4dc6 db3d 883f b33e
00000040: 3858 4b3e 1090 3d3e 88ed a3be f191 963e
00000050: a260 cc3d 4d19 84be cee8 103e 8d7a b1be
00000060: f49e 12be f5f8 563e 73b0 8d3e 85ff c53c
00000070: 4b26 18bd ef77 f43d e089 d83e 99d2 c53e

layers.4.weight f4 [5, 32]
-0.26484862 0.3397965 -0.37860465 -0.06439669 0.03634212 -0.26844114 0.1897701 -0.27070808
0.08741682 0.12879774 0.031690914 -0.14439611 -0.17740884 0.13800818 -0.060930848 0.0020963503
-0.2643847 0.3048548 0.11595013 0.00010648338 -0.07965337 -0.07183011 -0.08647758 -0.1757657
0.21660542 0.24566953 -0.17136692 0.173922 -0.42203835 0.4692692 -0.2211059 0.20047021
-0.48977256 0.37427893 0.22740886 0.009897962 -0.30301124 0.6746651 -0.26758718 0.61051685
-0.34989828 -0.14895214 -0.11784785 0.4270853 0.47183937 0.37597385 0.27662066 0.09326813
0.03766028 -0.24680541 0.5619347 0.520595 0.40065694 0.59554607 -0.06906192 0.26759598
-0.23616125 -0.84386057 -0.3831656 -0.10542617 0.11170659 -0.09662094 0.58350945 -0.05794577
0.32965612 0.2674676 0.054447323 -0.5228143 -0.10727841 0.3673609 0.09169286 0.36871243
0.3190567 -0.21613161 -0.09139961 0.12308574 0.39814302 -0.2009094 0.42507893 -0.07595908
-0.22775516 -0.16067556 -0.16282235 0.24967112 0.08859309 -0.5532785 0.08995171 0.57752967
-0.19482307 0.12631343 0.06949204 0.1280335 0.030866439 0.17902163 0.16748184 -0.13876984
-0.021705722 -0.3730227 0.10118494 -0.07901429 0.21532927 -0.44231796 0.2533623 -0.23024414
0.17815317 0.03942069 0.03511117 -0.031380374 0.12640528 -0.26069903 -0.041940484 0.37734964
-0.03387514 -0.06257199 0.12883085 -0.15308185 -0.44418448 0.18699124 0.3413456 -0.07502261
-0.23792464 0.08752621 0.36919576 -0.181685 -0.36613354 -0.16301078 0.15804957 0.22610286
0.16112135 -0.41183203 0.42708826 0.66416085 0.050508834 -0.40816954 0.14766943 -0.5549145
0.27653992 0.36787435 -0.02433543 -0.6829619 -0.8838156 5.5090146e-05 -0.6750349 -0.28035122
0.6189737 -0.0012738669 -0.51234215 -0.5294483 -0.26309946 0.072477244 0.00133643 -0.5787152
0.36369935 0.33138278 0.23138289 0.25859824 0.5894078 -0.25244895 -0.38043728 -0.033050653
00000000: 3d9a 87be cff9 ad3e 78d8 c1be 69e2 83bd
00000010: 7adb 143d 1e71 89be 1853 423e 409a 8abe
00000020: 9707 b33d 8ee3 033e 55ce 013d 93dc 13be
00000030: aaaa 35be 0452 0d3e a092 79bd ec62 093b
00000040: 6e5d 87be ee15 9c3e 4377 ed3d d44f df38
00000050: 4e21 a3bd aa1b 93bd 281b b1bd ecfb 33be
00000060: d0cd 5d3e cb90 7b3e cf7a 2fbe 9c18 323e
00000070: 6915 d8be 0d44 f03e 9669 62be 1048 4d3e
00000080: 78c3 fabe 7da1 bf3e dedd 683e 102b 223c
00000090: 4a24 9bbe dab6 2c3f 3001 89be d54a 1c3f
000000a0: de25 b3be e986 18be 375a f1bd edaa da3e
000000b0: ee94 f13e a57f c03e 39a1 8d3e 5d03 bf3d
000000c0: aa41 1a3d 8fba 7cbe f4da 0f3f b745 053f
000000d0: e822 cd3e b575 183f 5670 8dbd 5702 893e
000000e0: 41d4 71be 3f07 58bf 482e c4be ade9 d7bd
000000f0: 6dc6 e43d 33e1 c5bd e060 153f 8b58 6dbd
00000100: b0c8 a83e 83f1 883e 2804 5f3d 28d7 05bf
00000110: c8b4 dbbd ba16 bc3e 77c9 bb3d e0c7 bc3e
00000120: 665b a33e 9b51 5dbe b82f bbbd 6014 fc3d
00000130: 67d9 cb3e 32bb 4dbe f2a3 d93e 6f90 9bbd
00000140: a638 69be 2288 24be e7ba 26be c9a9 7f3e
00000150: 4b70 b53d a9a3 0dbf 9a38 b83d fcd8 133f
00000160: b37f 47be 4f58 013e d851 8e3d 371b 033e
00000170: 9ddb fc3c 7251 373e 5c80 2b3e ae19 0ebe
00000180: 33d0 b1bc d5fc bebe 0d3a cf3d 3ed2 a1bd
00000190: 477f 5c3e 8077 e2be b4b8 813e 1fc5 6bbe
000001a0: c96d 363e 9777 213d bbd0 0f3d b588 00bd
000001b0: 6370 013e 587a 85be c9c9 2bbd f933 c13e
000001c0: a9c0 0abd be25 80bd 3cec 033e 7dc1 1cbe
000001d0: 266c e3be a27a 3f3e dac4 ae3e 74a5 99bd
000001e0: 84a2 73be f140 b33d 3a07 bd3e a20b 3abe
000001f0: db75 bbbe 4cec 26be bfd7 213e 8287 673e
00000200: fffc 243e a6db d2be 50ab da3e 7206 2a3f
00000210: 5ae2 4e3d 99fb d0be a836 173e e00e 0ebf
00000220: a496 8d3e 075a bc3e 185b c7bc 97d6 2ebf
00000230: bd41 62bf 9810 6738 16cf 2cbf 328a 8fbe
00000240: 0f75 1e3f e1f7 a6ba db28 03bf ec89 07bf
00000250: f9b4 86be f36e 943d 262b af3a ae26 14bf
00000260: cd36 ba3e 01ab a93e a3ef 6c3e fd66 843e
00000270: 6ee3 163f fd40 81be adc8 c2be 1f60 07bd

layers.4.bias f4 [5]
0.047311462 0.09824719 -0.08768526 0.2214218 -0.2172437
00000000: aac9 413d d335 c93d 5494 b3bd 65bc 623e
00000010: 2275 5ebe
