data/models/test_dc9_only/checkpoints/epoch_250.pt (torch, 6317 bytes, 6 tensors)

layers.0.weight f4 [16, 4]
0	0x3e518898	0.20462263
1	0xbe21d3c4	-0.15803438
2	0xbefa27ae	-0.48858398
3	0xbe604bef	-0.21903966
4	0x3c15feb1	0.009154961
5	0x3daacea3	0.08340194
6	0xbefc3e3a	-0.49266225
7	0xbd0bfdb8	-0.034177512
8	0xbdd4d83e	-0.103928074
9	0xbe83fc1e	-0.25778288
10	0xbed7cf22	-0.42150217
11	0xbdc68922	-0.09694125
12	0xbe8c8145	-0.27442375
13	0x3f02e671	0.51132876
14	0x3c5f2150	0.013618782
15	0x3d2d369b	0.042288404
16	0xbe046b69	-0.12931599
17	0xbf101f64	-0.562979
18	0x3e00f90f	0.12595008
19	0xbe42f87a	-0.19040099
20	0xbf12aece	-0.5729798
21	0xbd911740	-0.07084513
22	0xbe3f7114	-0.1869548
23	0x3d39b632	0.04533977
24	0xbe22c421	-0.1589513
25	0xbeb42ff4	-0.35192835
26	0x3ed50962	0.4160872
27	0x3ecbc925	0.398019
28	0xbeb2f5c9	-0.34953144
29	0xbefe4849	-0.49664524
30	0xbcade080	-0.021225214
31	0x3de19c8c	0.11016187
32	0xbeab0438	-0.33401656
33	0x3df63424	0.12021664
34	0x3f05491d	0.52064687
35	0xbeefa490	-0.4680524
36	0xbe105c15	-0.14097627
37	0x3ed9509a	0.42444307
38	0x3e588914	0.21146041
39	0xbe74f4b1	-0.23921467
40	0x3e766208	0.24060833
41	0x3e00b4c0	0.1256895
42	0xbe46c5ff	-0.19411467
43	0x3ee519ce	0.4474625
44	0xbda9e478	-0.0829553
45	0xbeb51a67	-0.35371706
46	0x3ed8ae98	0.42320704
47	0x3ee148e5	0.44000927
48	0xbd9af4fe	-0.0756626
49	0x3daa2ae6	0.083089635
50	0x3edf9f93	0.43676433
51	0xbed209b2	-0.41023022
52	0x3e9d11b1	0.3067756
53	0xbe847359	-0.25869253
54	0xbe3bee1a	-0.18352547
55	0x3ed7f702	0.4218064
56	0x3e9892a6	0.29799384
57	0x3de3051d	0.1108496
58	0xbf0bebc2	-0.5465661
59	0x3eb9af63	0.36266622
60	0x3ede2864	0.4339019
61	0xbcf0cbf8	-0.029394135
62	0xbe808c31	-0.25106958
63	0x3edd9c6a	0.43283397

layers.0.bias f4 [16]
0	0xbe911a6f	-0.2834048
1	0x3e160305	0.1464959
2	0x3e74edbe	0.23918816
3	0xbe10fead	-0.14159651
4	0xbecf52cc	-0.40492857
5	0xbc6b48b6	-0.014360597
6	0x3d5843bf	0.052798983
7	0x3cd9c66d	0.026583875
8	0x3ecb5332	0.3971191
9	0xbec5a14d	-0.38599625
10	0xbe71d18d	-0.23615094
11	0xbd211ccd	-0.039334107
12	0xbd523969	-0.05132428
13	0xbe46d7ef	-0.1941831
14	0x3ee76978	0.45197654
15	0x3e487c9a	0.19578782

layers.2.weight f4 [32, 16]
0	0xbddd8a1c	-0.10817358
1	0xbe581ff5	-0.2110594
2	0xbe692906	-0.22769555
3	0x3bbc3237	0.0057432908
4	0xbd191195	-0.037370283
5	0x3ca08f09	0.019599454
6	0xbb80058a	-0.0039069103
7	0xbe368c76	-0.17827019
8	0xbe5c88cd	-0.2153656
9	0xbd9414df	-0.07230543
10	0xbdc891f6	-0.09793465
11	0x3da5fdde	0.08105062
12	0xbe1462be	-0.14490792
13	0xbe0de4b1	-0.1385677
14	0x3daf55de	0.085613
15	0x3e0b6062	0.13610986
16	0x3db20fd8	0.08694428
17	0x3e0fbee1	0.14037658
18	0x3d85c8c5	0.065324344
19	0xbe246607	-0.16054545
20	0x3ea50d5b	0.32236752
21	0xbeac1f88	-0.33617806
22	0xbd9c616c	-0.07635769
23	0x3d00eac1	0.03147388
24	0xbe80ba8c	-0.25142324
25	0x3dc6e2f5	0.09711257
26	0xbd1bbbd5	-0.038020927
27	0x3d0957b7	0.033530917
28	0x3e0f7621	0.14009906
29	0x3e15b112	0.14618328
30	0xbdfc38f3	-0.1231555
31	0x3dc469f6	0.09590523
32	0xbd980092	-0.07421984
33	0x3da75553	0.08170571
34	0x3d371aae	0.044703178
35	0xbd862038	-0.06549114
36	0xbd89cf85	-0.06729034
37	0xbd10063b	-0.03516219
38	0xbdaa8a0a	-0.0832711
39	0x3c127bc6	0.008940643
40	0x3d7df8a0	0.062004685
41	0x3dd6a77a	0.10481162
42	0x3ddd5fa2	0.10809256
43	0x3e2a2554	0.16615802
44	0x3cd3e282	0.025864843
45	0x3db6ec00	0.08931732
46	0x3ddc6517	0.10761469
47	0xbd4973d5	-0.04918273
48	0xbd3c0c95	-0.045910437
49	0x3df537a5	0.11973504
50	0xbd2d2080	-0.042267323
51	0xbcce5b53	-0.025190031
52	0x3e771f62	0.24133065
53	0x3dcad3a0	0.099036455
54	0xbcd49ad8	-0.025952742
55	0x3b786258	0.0037900414
56	0x3e3dadee	0.1852338
57	0x3e6550ba	0.22394076
58	0xbd42bd75	-0.04754396
59	0xbe9fd045	-0.31213585
60	0x3e3836b5	0.17989619
61	0x3d5b64bc	0.053562865
62	0xbda40162	-0.08008076
63	0xbd7592cc	-0.05995445
64	0xbca3b13b	-0.019981971
65	0xbb0f5f57	-0.0021876895
66	0x3d9965eb	0.074901424
67	0x3e385646	0.1800166
68	0x3d5cdce6	0.053921603
69	0xbe2c8a66	-0.1684967
70	0xbe3d3ef9	-0.18481053
71	0xbcaeb30f	-0.021325616
72	0x3e8ef88e	0.27924007
73	0x3e2f9d84	0.17149931
74	0x3e18f630	0.14937663
75	0x3e5c30cb	0.21502988
76	0x3d9a0a94	0.07521549
77	0xbe348643	-0.17629342
78	0x3dc0e671	0.09418953
79	0x3dc78880	0.09742832
80	0x3dff39f1	0.12462223
81	0x3e12fe15	0.14354737
82	0xbe380fc2	-0.17974761
83	0x3e402512	0.18764141
84	0x3d64935a	0.055804588
85	0x3e14ab6b	0.14518516
86	0xbe2a5c33	-0.16636734
87	0x3e1a2902	0.15054706
88	0x3df6147c	0.12015626
89	0x3e5b2f6e	0.21404812
90	0x3e256b26	0.16154155
91	0x3e323bba	0.17405596
92	0xbe0a9c7b	-0.13536255
93	0x3c14606f	0.009056195
94	0xbe1e253c	-0.15443891
95	0x3da48e29	0.080349274
96	0xbe4b875b	-0.19875853
97	0xbe22e1ca	-0.15906444
98	0x3e4805d5	0.19533475
99	0x3e3f180d	0.18661518
100	0x3dc9f6e0	0.09861541
101	0xbe6f1dcc	-0.2335121
102	0xbde29ee0	-0.11065459
103	0xbe0d4796	-0.13796839
104	0xbe362f88	-0.17791569
105	0xbdf402e0	-0.11914611
106	0x3e5f7efc	0.21825784
107	0x3cb1b2e0	0.02169174
108	0xbd9f218c	-0.077700704
109	0x3d713583	0.058888923
110	0x3da5cfa5	0.08096246
111	0xbe5f8127	-0.21826611
112	0xbe892bcb	-0.26791224
113	0x3e0072df	0.1254382
114	0xbda9e947	-0.08296447
115	0x3e0727ab	0.13198726
116	0x3cf068b8	0.029346809
117	0xbdc24511	-0.094858296
118	0x3e18e770	0.14932036
119	0xbe0e1ef9	-0.13879003
120	0xbc6eff7a	-0.014587278
121	0xbe15633e	-0.14588639
122	0x3e786e44	0.24260813
123	0xbe256d95	-0.16155083
124	0x3e1d8d5a	0.15385953
125	0x3c81ce22	0.015845362
126	0x3e5aaea3	0.21355681
127	0xbe024722	-0.12722448
128	0xbce631de	-0.02809995
129	0x3e0985d2	0.13429955
130	0x3dfe8ea8	0.12429553
131	0xbd68c9a5	-0.05683293
132	0x3e144fab	0.14483516
133	0xbe379ebb	-0.17931645
134	0x3e6cec1e	0.23136947
135	0x3e275ad9	0.1634325
136	0xbc078972	-0.008272516
137	0xbd63a532	-0.055577464
138	0x3d5bd09f	0.053665753
139	0xbdb10d17	-0.08645075
140	0xbc897e78	-0.016783938
141	0xbbb8335a	-0.005621356
142	0xbe9e1cab	-0.30881247
143	0xbd0a93ad	-0.03383224
144	0x3e3b9fe5	0.18322714
145	0x3d908b2b	0.07057794
146	0xbc9d7e00	-0.01922512
147	0xbd4a75ca	-0.04942874
148	0x3d51ea36	0.05124875
149	0x3cba5c8b	0.022749206
150	0xbdcf71e1	-0.101291426
151	0x3e0c1386	0.13679323
152	0x3e42861a	0.18996468
153	0xbe473710	-0.19454598
154	0xbd9cdb3e	-0.07659005
155	0x3d06f42c	0.032947704
156	0xbd68c1e0	-0.05682552
157	0xbe6ebb3e	-0.23313615
158	0x3e2948ef	0.16531728
159	0x3dc2c6d7	0.09510582
160	0x3e6742d1	0.22584082
161	0x3e1c2b0f	0.152508
162	0xbe899f3d	-0.26879302
163	0xbcb89f0e	-0.02253678
164	0xbd38a31a	-0.04507742
165	0x3e1f46df	0.15554379
166	0xbe54ce1f	-0.20781754
167	0x3c8e81b7	0.017395837
168	0x3e5eae94	0.21746284
169	0x3d55fb57	0.05224165
170	0x3df4531a	0.11929913
171	0x3dddca5b	0.10829612
172	0x3d2efcb9	0.042721484
173	0xbc362045	-0.011116092
174	0xbdf19731	-0.117964156
175	0x3e10be7b	0.14135163
176	0x3d56bab8	0.052424163
177	0x3d99b3a5	0.075049676
178	0x3e3bd3aa	0.18342462
179	0xbd038459	-0.03210864
180	0x3dd7f4b7	0.105447225
181	0x3cd5274e	0.026019718
182	0xbdff2fa3	-0.12460258
183	0x3de5eb5d	0.112265326
184	0xbe3246b8	-0.1740979
185	0xbe2d8a70	-0.16947341
186	0x3e0a22ed	0.13489886
187	0x3dc7e685	0.09760765
188	0xbcda6d95	-0.02666358
189	0xbe28e38c	-0.16493052
190	0x3e1cb50c	0.15303439
191	0xbd07b3a3	-0.0331303
192	0x3d7857b8	0.06063053
193	0xbdf1b724	-0.118025094
194	0xbc905ce0	-0.017622411
195	0xbdf2e8bc	-0.11860797
196	0xbe24c6c0	-0.16091442
197	0x3d89207c	0.06695649
198	0xbe741bda	-0.2383875
199	0x3c97b040	0.01851666
200	0xbe663206	-0.2248002
201	0x3d4e6bf0	0.050395906
202	0xbe211d08	-0.15733731
203	0x3d223508	0.039601356
204	0xbe03e07e	-0.12878606
205	0xbd1b0b20	-0.037852407
206	0xbe2e6274	-0.17029744
207	0x3dd37fb4	0.10327092
208	0x3e1f5bcf	0.15562366
209	0xbe1d289d	-0.15347524
210	0xbe934499	-0.28763273
211	0xbdc15402	-0.09439851
212	0x3df0e18e	0.11761771
213	0xbd84d1ea	-0.064853504
214	0xbdc02ca9	-0.09383518
215	0x3d888976	0.066668436
216	0x3e6919f9	0.22763814
217	0x3e23f6c8	0.16012108
218	0xbe4d9005	-0.2007447
219	0xbd74be8b	-0.05975203
220	0xbddbbbc4	-0.10729173
221	0x3c31eff3	0.010860431
222	0xbe5a6d66	-0.21330795
223	0x3e0f10f0	0.13971305
224	0x3cd77a5e	0.026303466
225	0xbd781846	-0.060570024
226	0xbe1c49f9	-0.15262593
227	0x3d8d081d	0.06886313
228	0xbe18df01	-0.14928819
229	0x3e727119	0.23675956
230	0xbe4f4f31	-0.20245053
231	0xbd894a6a	-0.067036465
232	0xbd0bb2d1	-0.03410608
233	0x3e317c55	0.17332585
234	0xbc8a5542	-0.016886357
235	0x3e56c926	0.2097517
236	0x3d440592	0.047856875
237	0xbe1838c1	-0.148654
238	0xbe393803	-0.18087773
239	0xbbf70968	-0.007538963
240	0x3d31dcfd	0.04342364
241	0xbec13645	-0.37736717
242	0xbb332c2c	-0.002733956
243	0xbdfc6e6b	-0.12325748
244	0x3eab4677	0.33452198
245	0xbdff51e7	-0.124667935
246	0x3d52c389	0.051456008
247	0x3dc0f029	0.09420807
248	0xbeadfba9	-0.33981064
249	0x3e1a85a0	0.15090036
250	0xbe00f74f	-0.1259434
251	0x3b67ef49	0.0035390428
252	0xbe6b8136	-0.22998509
253	0x3d03f1c6	0.032212995
254	0x3dbbc063	0.09167554
255	0xb9075d03	-0.00012909253

layers.2.bias f4 [32]
0	0x3d65bee1	0.05609024
1	0x3e3a6437	0.18202291
2	0x3dd68ec7	0.10476451
3	0xbe295382	-0.16535762
4	0x3cfb8940	0.030705094
5	0x3e3ab4e4	0.18233067
6	0xbe67a2c9	-0.22620691
7	0xbe3e5a53	-0.18589143
8	0x3d7da4fe	0.061924927
9	0x3c1fcdc0	0.0097536445
10	0xbe3faf52	-0.18719223
11	0xbe0323eb	-0.1280667
12	0xbd4c30a0	-0.04985106
13	0xbd33f9ba	-0.04393933
14	0x3e8801d1	0.26563886
15	0x3dbe7f0f	0.09301578
16	0xbd91c6a6	-0.07117967
17	0x3d2e4a3d	0.042551268
18	0x3c13a39b	0.009011175
19	0x3d2d6826	0.04233565
20	0xbe73c5c0	-0.23805904
21	0x3d5e31b2	0.054246612
22	0xbe5178c4	-0.20456225
23	0x3d13611e	0.03598129
24	0xbe2b85c8	-0.16750252
25	0x3b6c2001	0.0036029818
26	0x3e6b7f45	0.22997768
27	0xbdeee648	-0.116650164
28	0x3e5a4851	0.21316649
29	0x3e0aeff9	0.13568105
30	0xbe6e874a	-0.23293796
31	0x3e2ee389	0.17078985

layers.4.weight f4 [5, 32]
0	0xbe23360e	-0.15938589
1	0x3e6f33fd	0.23359676
2	0x3e000adf	0.12504147
3	0x3d3db739	0.046317313
4	0xbe17072f	-0.14748834
5	0xbd4b2431	-0.04959506
6	0x3df0cb02	0.11757471
7	0xbce4478a	-0.027866144
8	0xbd9302c1	-0.0717826
9	0x3d33385b	0.043754917
10	0x3dc92ed4	0.09823385
11	0xbe2690bf	-0.16266154
12	0xbab18500	-0.0013543665
13	0x3db8c448	0.09021813
14	0x3d65ac6b	0.056072634
15	0x3e8be7cc	0.27325284
16	0x3bd156fc	0.006388543
17	0xbe077a27	-0.13230191
18	0xbe0250ec	-0.12726182
19	0x3e894825	0.26812854
20	0x3cedf60b	0.029047986
21	0xbe16eb2d	-0.1473815
22	0x3e002132	0.12512663
23	0x3e16bb4a	0.14719883
24	0xbc78517f	-0.015156149
25	0x3e8f0c7b	0.2793921
26	0xbd5762f2	-0.052584596
27	0xbe3ca535	-0.18422396
28	0xbe040afd	-0.12894817
29	0x3e369bb9	0.17832841
30	0x3d94f324	0.07272938
31	0xbdb537a7	-0.088485055
32	0x3e02e039	0.12780847
33	0x3dd365b5	0.103221335
34	0xbdebf096	-0.115204975
35	0x3d4b9bfb	0.0497093
36	0xbd17574d	-0.03694849
37	0x3d217a11	0.039423052
38	0xbe3298c3	-0.17441086
39	0xbd6a4d28	-0.05720249
40	0x3e37abb1	0.17936589
41	0x3d2faaa8	0.04288736
42	0xbc06c541	-0.00822574
43	0x3df27477	0.1183862
44	0xbcde9f58	-0.02717559
45	0xbe16e20a	-0.14734665
46	0x3dd0e61c	0.1020014
47	0x3d186869	0.03720895
48	0x3e027c2f	0.12742685
49	0x3e2de4d6	0.16981825
50	0xbb7ce6eb	-0.0038589786
51	0xbb632b10	-0.0034663118
52	0xbc0da5ba	-0.008645469
53	0xbe0e1f2b	-0.13879077
54	0xbd8bfe69	-0.06835634
55	0xbc83bb13	-0.016080415
56	0xbe4a0e7c	-0.19732088
57	0x3e4fd431	0.20295788
58	0xbdbb0165	-0.09131125
59	0xbe049c5b	-0.1295027
60	0xbdcdaa42	-0.1004224
61	0x3d8a7c7c	0.06762025
62	0x3cfdd7e0	0.030986726
63	0x3bb189ff	0.0054180617
64	0x3de6a474	0.11261836
65	0x3cbcb003	0.023033148
66	0x3d76dc10	0.06026846
67	0x3dbc2b2c	0.09187922
68	0xbdb8d51e	-0.09025024
69	0xbd0d01ea	-0.034425654
70	0xbd1d7c90	-0.03844887
71	0x3e296704	0.16543204
72	0xbdf57d04	-0.119867355
73	0x3d7541e3	0.059877288
74	0xbbbe880f	-0.0058145593
75	0x3d95af9f	0.07308888
76	0xbc3820a0	-0.011238247
77	0x3d877086	0.06613259
78	0xbdca8d15	-0.098901905
79	0xbe13419b	-0.14380495
80	0x3ca476d4	0.020076193
81	0xbcaf7d15	-0.021421948
82	0xbdca5834	-0.09880105
83	0xbd9dbb81	-0.07701779
84	0x3e25adcb	0.16179578
85	0xbe279aaa	-0.16367593
86	0xbcc46046	-0.023971688
87	0xbcb77710	-0.02239564
88	0xbe104c24	-0.14091545
89	0xbcc52834	-0.024067022
90	0xbd95aed8	-0.073087394
91	0xbe46b2c4	-0.19404131
92	0xbd29aefa	-0.041426636
93	0xbd84290d	-0.06453142
94	0xbe2f2a85	-0.17106064
95	0xbd9861d1	-0.07440532
96	0x3a831cf7	0.0010003139
97	0xbe0a7600	-0.13521576
98	0x3db5e658	0.08881825
99	0xbd0884dd	-0.033329833
100	0xbd8aa21c	-0.06769201
101	0xbe3f3330	-0.1867187
102	0xbd44d31d	-0.048052896
103	0x3d53102d	0.0515291
104	0x3d72b05a	0.059250213
105	0xbd3b15e9	-0.045675192
106	0x3da364eb	0.07978233
107	0xbd23fe1c	-0.04003726
108	0xbdb8a97b	-0.09016701
109	0x3da62772	0.08112992
110	0x3e1297e5	0.14315756
111	0xbe2e1ef7	-0.17004
112	0x3e1f51eb	0.15558593
113	0xbd9c2a7c	-0.07625291
114	0xbe1469a9	-0.14493431
115	0xbd857d53	-0.06518044
116	0xbe204845	-0.15652569
117	0xbdc93f50	-0.09826529
118	0x3c750e5d	0.014957038
119	0xbac55f98	-0.0015058396
120	0x3d850002	0.06494142
121	0xbd02429a	-0.031801797
122	0xbd27cd5d	-0.040967334
123	0xbdc4a4c4	-0.09601739
124	0x3d5f200d	0.054473925
125	0xbe409cfc	-0.18809885
126	0x3b397dc0	0.0028303713
127	0x3d8f0465	0.0698326
128	0x3e70005f	0.23437642
129	0xbdeda0df	-0.11602949
130	0x3d5c07ab	0.05371825
131	0xbe3d030c	-0.18458194
132	0x3e1dad54	0.1539815
133	0x3e0828e3	0.13296847
134	0x3d9294e2	0.071573034
135	0x3da8ec8e	0.08248244
136	0xbe058a80	-0.13041115
137	0x3e1aadd6	0.15105376
138	0xbe574d70	-0.21025634
139	0x3d980bd0	0.07424128
140	0xbd23be0c	-0.039976165
141	0x3df788b4	0.12086621
142	0x3d9490ec	0.07254204
143	0xbd202dae	-0.039106064
144	0x3c76587a	0.015035743
145	0xbdf869e3	-0.12129571
146	0x3e0371db	0.12836401
147	0xbe4815f6	-0.19539627
148	0xbe572494	-0.21010047
149	0xbdc71f1a	-0.09722729
150	0x3d0c1911	0.034203593
151	0xbe2743ba	-0.1633443
152	0x3d2784ab	0.040898006
153	0x3c81433f	0.015779136
154	0x3e060b91	0.1309035
155	0xbd368a88	-0.044565707
156	0x3d08592f	0.033288177
157	0xbe2da87b	-0.16958801
158	0xbdd7e98b	-0.10542592
159	0x3e06b2b4	0.13154107

layers.4.bias f4 [5]
0	0x3ceb27af	0.028705446
1	0xbcf2bf19	-0.029632138
2	0x3df715cd	0.12064705
3	0x3dadd54c	0.08487949
4	0xbe0f16c0	-0.13973522
