data/models/test_dc9_only/checkpoints/epoch_100.pt (torch, 6317 bytes, 6 tensors)

layers.0.weight f4 [16, 4]
0.20563403 -0.15814859 -0.48787957 -0.21826781 0.009314899 0.0833461 -0.49220455 -0.034672067
-0.104256935 -0.25773868 -0.42100736 -0.09661916 -0.27371508 0.5112123 0.013723412 0.04234534
-0.12960646 -0.56279427 0.12583838 -0.19006716 -0.57252663 -0.07088167 -0.18671592 0.045271136
-0.15895088 -0.3519091 0.41603267 0.39812508 -0.34962714 -0.4966888 -0.021359863 0.10993104
-0.3343919 0.12036536 0.5202818 -0.46777546 -0.14076038 0.4246245 0.21164706 -0.2395291
0.24072683 0.12604071 -0.19408093 0.44713265 -0.08304161 -0.35375956 0.42323524 0.43974456
-0.07573596 0.083619244 0.4364396 -0.4099887 0.30690697 -0.25871247 -0.1833947 0.42186403
0.29808336 0.110695876 -0.5465032 0.36284754 0.43377602 -0.029343406 -0.25076348 0.4328846
00000000: ba91 523e b4f1 21be 5acb f9be 9981 5fbe
00000010: 859d 183c 5cb1 aa3d 3c02 fcbe 4c04 0ebd
00000020: a984 d5bd 53f6 83be 478e d7be 44e0 c5bd
00000030: 6224 8cbe cfde 023f 29d8 603c 4f72 2d3d
00000040: 8eb7 04be 4913 10bf c7db 003e f7a0 42be
00000050: 1b91 12bf 692a 91bd 7532 3fbe 3a6e 393d
00000060: 05c4 22be 6e2d b4be 3c02 d53e 0dd7 cb3e
00000070: 5402 b3be ff4d febe e1fa aebc 8623 e13d
00000080: 6a35 abbe 1d82 f63d 3031 053f 4480 efbe
00000090: 7d23 10be 6268 d93e 02ba 583e 1e47 75be
000000a0: 1881 763e d110 013e 27bd 46be 92ee e43e
000000b0: b811 aabd f91f b5be 4ab2 d83e 3326 e13e
000000c0: 741b 9bbd 9140 ab3d 0375 df3e 0aea d1be
000000d0: e922 9d3e f675 84be d2cb 3bbe 90fe d73e
000000e0: 629e 983e 85b4 e23d a2e7 0bbf 27c7 b93e
000000f0: e417 de3e 9561 f0bc 1264 80be 0da3 dd3e

layers.0.bias f4 [16]
-0.28358027 0.14684613 0.23886596 -0.14168955 -0.40520692 -0.0142423855 0.052767273 0.026215566
0.3970895 -0.3857036 -0.23635001 -0.03934404 -0.051462345 -0.19420461 0.4519325 0.19581556
00000000: 6f31 91be d55e 163e 4799 743e 1117 11be
00000010: 4877 cfbe e558 69bc 7f22 583d 07c2 d63c
00000020: 514f cb3e f17a c5be bd05 72be 3727 21bd
00000030: 2eca 52bd 93dd 46be b263 e73e e083 483e

layers.2.weight f4 [32, 16]
-0.10774829 -0.21103124 -0.22743604 0.005753436 -0.037924264 0.019507917 -0.0037945996 -0.17805815
-0.21533586 -0.07189956 -0.09779392 0.08116232 -0.14553206 -0.13858697 0.085573494 0.13601534
0.087283485 0.14056389 0.065194756 -0.16060537 0.32216355 -0.33559844 -0.07642356 0.03139344
-0.25136083 0.097070806 -0.038023878 0.033609055 0.13992594 0.1461926 -0.12341228 0.095705144
-0.07430293 0.0816835 0.044668984 -0.06563148 -0.06733626 -0.03510054 -0.0833287 0.0088339625
0.062070716 0.10483821 0.10815139 0.16605632 0.025949208 0.08936461 0.10759349 -0.049231667
-0.04525271 0.12013281 -0.041967947 -0.024847727 0.24147743 0.09908108 -0.02583266 0.0039592115
0.18528694 0.22395752 -0.047405265 -0.31196138 0.1797164 0.053878736 -0.0800112 -0.060396157
-0.019950422 -0.0021161549 0.07495667 0.18010078 0.05367445 -0.16848724 -0.18478186 -0.021379577
0.27917784 0.17152867 0.14940204 0.21502078 0.07526419 -0.17640439 0.09436813 0.09746629
0.124985 0.14368269 -0.17976612 0.18760832 0.055814743 0.14519176 -0.16625792 0.15066522
0.120129615 0.2140555 0.16163968 0.17418012 -0.13531044 0.009010635 -0.15437499 0.08030997
-0.19875853 -0.15906444 0.19533475 0.18661518 0.09861541 -0.2335121 -0.11065459 -0.13796839
-0.17791569 -0.11914611 0.21825784 0.02169174 -0.077700704 0.058888923 0.08096246 -0.21826611
-0.2679474 0.12572865 -0.082850344 0.13192117 0.02877762 -0.09469786 0.14897415 -0.13891143
-0.014724648 -0.14613008 0.24256837 -0.16195954 0.15367678 0.015689908 0.21362966 -0.12726179
-0.028128875 0.13441779 0.12426773 -0.056629818 0.14492048 -0.17942981 0.23139799 0.16338557
-0.008267426 -0.055675928 0.053869348 -0.08636046 -0.016893141 -0.005613406 -0.30881646 -0.033690255
0.1835276 0.07068476 -0.019269854 -0.049480706 0.051222295 0.022771398 -0.101091005 0.13685575
0.18996228 -0.19454977 -0.076450914 0.03315168 -0.056756895 -0.23311315 0.16539945 0.09511517
0.22582635 0.15270409 -0.26867366 -0.022120923 -0.04495008 0.15531434 -0.2077477 0.01751593
0.21740086 0.05237935 0.119499154 0.10840344 0.0424605 -0.010972726 -0.11803163 0.1412672
0.052153263 0.074831635 0.18332501 -0.031985838 0.105762675 0.025566557 -0.12446854 0.11228042
-0.17444518 -0.16944687 0.13467534 0.09772733 -0.026962366 -0.16500004 0.15303947 -0.033010922
0.06063053 -0.118025094 -0.017622411 -0.11860797 -0.16091442 0.06695649 -0.2383875 0.01851666
-0.2248002 0.050395906 -0.15733731 0.039601356 -0.12878606 -0.037852407 -0.17029744 0.10327092
0.15630634 -0.15359204 -0.28723976 -0.09489512 0.11743352 -0.06493225 -0.09414817 0.066455774
0.22754481 0.15998426 -0.20112225 -0.06006173 -0.10726729 0.011161565 -0.21317956 0.14016299
0.02638132 -0.060588364 -0.15272057 0.0688656 -0.1491803 0.2365179 -0.20254882 -0.06714726
-0.034101114 0.17345375 -0.016851462 0.20969702 0.047920194 -0.14927074 -0.18092696 -0.007584555
0.04324372 -0.37680855 -0.0030933828 -0.12331075 0.33423808 -0.12410916 0.05158517 0.09416981
-0.33940873 0.15057588 -0.12556584 0.0037051688 -0.22908325 0.032217048 0.09183734 -7.242955e-05
00000000: 23ab dcbd 9318 58be fee4 68be 5287 bc3b
00000010: 7956 1bbd 11cf 9f3c d1ae 78bb e054 36be
00000020: 0181 5cbe 1440 93bd 2e48 c8bd 6e38 a63d
00000030: 5b06 15be bee9 0dbe 2841 af3d 9b47 0b3e
00000040: afc1 b23d fbef 0f3e d484 853d bc75 24be
00000050: 9ff2 a43e 8fd3 abbe f583 9cbd 6896 003d
00000060: 5eb2 80be 0fcd c63d edbe 1bbd a6a9 093d
00000070: bf48 0f3e 83b3 153e 94bf fcbd 0f01 c43d
00000080: 222c 98bd ae49 a73d d3f6 363d cc69 86bd
00000090: 98e7 89bd 95c5 0fbd 3da8 aabd 53bc 103c
000000a0: dd3d 7e3d 6ab5 d63d 7a7e dd3d ab0a 2a3e
000000b0: 6f93 d43c cb04 b73d fa59 dc3d 25a7 49bd
000000c0: e85a 39bd 3108 f63d 95e6 2bbd 768d cbbc
000000d0: dc45 773e 05eb ca3d 049f d3bc 46bc 813b
000000e0: dcbb 3d3e 1f55 653e 062c 42bd 67b9 9fbe
000000f0: 9307 383e f3af 5c3d e9dc a3bd f661 77bd
00000100: 116f a3bc 30af 0abb e282 993d 576c 383e
00000110: bdd9 5b3d eb87 2cbe 7537 3dbe 3924 afbc
00000120: 66f0 8e3e 36a5 2f3e d9fc 183e 682e 5c3e
00000130: 1d24 9a3d 5aa3 34be 1444 c13d 689c c73d
00000140: 23f8 ff3d 8e21 133e 9c14 38be 651c 403e
00000150: 009e 643d 26ad 143e 843f 2abe fc47 1a3e
00000160: 8406 f63d 5d31 5b3e df84 253e 465c 323e
00000170: d28e 0abe 58a1 133c 7a14 1ebe 8e79 a43d
00000180: 5b87 4bbe cae1 22be d505 483e 0d18 3f3e
00000190: e0f6 c93d cc1d 6fbe e09e e2bd 9647 0dbe
000001a0: 882f 36be e002 f4bd fc7e 5f3e e0b2 b13c
000001b0: 8c21 9fbd 8335 713d a5cf a53d 2781 5fbe
000001c0: 6730 89be 03bf 003e 71ad a9bd 5816 073e
000001d0: 0bbf eb3c f4f0 c1bd ae8c 183e cc3e 0ebe
000001e0: a63f 71bc 20a3 15be d863 783e b9d8 25be
000001f0: 725d 1d3e 1f88 803c bcc1 5a3e ea50 02be
00000200: 876e e6bc d1a4 093e 1480 fe3d abf4 67bd
00000210: 0966 143e 73bc 37be 98f3 6c3e 8c4e 273e
00000220: 1974 07bc 710c 64bd 1ba6 5c3d c1dd b0bd
00000230: 7c63 8abc aaf0 b7bb 311d 9ebe cbfe 09bd
00000240: a9ee 3b3e 2cc3 903d d0db 9dbc 48ac 4abd
00000250: 78ce 513d 158b ba3c cd08 cfbd ea23 0c3e
00000260: 7985 423e 0e38 47be 4c92 9cbd 0eca 073d
00000270: eb79 68bd 37b5 6ebe 795e 293e becb c23d
00000280: 063f 673e 765e 1c3e 988f 89be f036 b5bc
00000290: 931d 38bd b90a 1f3e d0bb 54be 917d 8f3c
000002a0: 559e 5e3e bb8b 563d f9bb f43d 9f02 de3d
000002b0: 10eb 2d3d f3c6 33bc 91ba f1bd 59a8 103e
000002c0: a99e 553d 5441 993d 8db9 3b3e 9503 03bd
000002d0: 1a9a d83d f570 d13c 5de9 febd 47f3 e53d
000002e0: c2a1 32be 7b83 2dbe 55e8 093e 4425 c83d
000002f0: 2ee0 dcbc c5f5 28be 61b6 1c3e 7636 07bd
00000300: b857 783d 24b7 f1bd e05c 90bc bce8 f2bd
00000310: c0c6 24be 7c20 893d da1b 74be 40b0 973c
00000320: 0632 66be f06b 4e3d 081d 21be 0835 223d
00000330: 7ee0 03be 200b 1bbd 7462 2ebe b47f d33d
00000340: c50e 203e 3b47 1dbe 1711 93be 5f58 c2bd
00000350: fc80 f03d 33fb 84bd c1d0 c0bd f719 883d
00000360: 8201 693e ead2 233e fef2 4dbe 4a03 76bd
00000370: f4ae dbbd ffde 363c be4b 5abe e386 0f3e
00000380: a31d d83c 812b 78bd c862 1cbe 6809 8d3d
00000390: b8c2 18be c031 723e f568 4fbe 8184 89bd
000003a0: 9cad 0bbd dc9d 313e 140c 8abc d1ba 563e
000003b0: f747 443d 6eda 18be eb44 39be dc87 f8bb
000003c0: 5420 313d 0ded c0be 5aba 4abb 598a fcbd
000003d0: 4121 ab3e f12c febd f94a 533d 1adc c03d
000003e0: fbc6 adbe 9030 1a3e 5594 00be 6bd2 723b
000003f0: cd94 6abe 06f6 033d 3715 bc3d 52e5 97b8

layers.2.bias f4 [32]
0.05588817 0.1817413 0.10480447 -0.1652306 0.030719565 0.18227278 -0.22620691 -0.18591541
0.06190605 0.009756959 -0.18719296 -0.12797458 -0.04985106 -0.043996356 0.26563048 0.092849165
-0.07119391 0.042580955 0.008802866 0.042315412 -0.23807634 0.054339882 -0.20475166 0.035934694
-0.16733469 0.003566921 0.23000425 -0.11658322 0.21322633 0.13549776 -0.23293796 0.1707914
00000000: feea 643d 641a 3a3e baa3 d63d 3632 29be
00000010: 99a7 fb3c b7a5 3a3e c9a2 67be 9c60 3ebe
00000020: 3391 7d3d a7db 1f3c 83af 3fbe c50b 03be
00000030: a030 4cbd 8635 34bd b800 883e b427 be3d
00000040: 1dce 91bd 5e69 2e3d e539 103c ed52 2d3d
00000050: 49ca 73be 7f93 5e3d 6baa 51be 4230 133d
00000060: c959 2bbe 01c3 693b 3c86 6b3e 2fc3 eebd
00000070: 0158 5a3e edbf 0a3e 4a87 6ebe f1e3 2e3e

layers.4.weight f4 [5, 32]
-0.15916073 0.23313831 0.12509198 0.04609107 -0.14751747 -0.049435686 0.11757471 -0.028042044
-0.071767755 0.043857954 0.09793274 -0.1623301 -0.0013543665 0.09044068 0.0559742 0.27230844
0.0064875674 -0.13219117 -0.12724511 0.26786506 0.028927146 -0.14711176 0.12542984 0.14697878
-0.014952086 0.27853826 -0.05256012 -0.18421802 -0.1283139 0.17762001 0.07272938 -0.08839386
0.12799746 0.10309889 -0.11522454 0.049661547 -0.036946233 0.03947361 -0.17441086 -0.057319984
0.1794514 0.04296187 -0.008287972 0.11864616 -0.02717559 -0.14719892 0.10182576 0.03696704
0.12742828 0.16981488 -0.0037825403 -0.0036415972 -0.008800873 -0.13868457 -0.068178006 -0.016078396
-0.1968797 0.20258191 -0.09121815 -0.12931536 -0.10008279 0.0671198 0.030986726 0.0054249503
0.1128985 0.02323019 0.060222 0.09197226 -0.09027127 -0.03447805 -0.03844887 0.1655545
-0.1198875 0.059781495 -0.0057215784 0.072855406 -0.011238247 0.06594847 -0.098907195 -0.14326277
0.020027913 -0.021361295 -0.0987707 -0.076939076 0.16169783 -0.16388153 -0.02418993 -0.022256307
-0.14085719 -0.02378434 -0.07319023 -0.1934958 -0.041779485 -0.064298734 -0.17106064 -0.07447979
0.00086327945 -0.135023 0.088808686 -0.033248 -0.06766553 -0.18682213 -0.048052896 0.051560175
0.059166856 -0.045797598 0.07981411 -0.04031105 -0.09016701 0.08097636 0.143277 -0.16962855
0.15544681 -0.0763214 -0.14502119 -0.06486085 -0.1564128 -0.09848105 0.014751421 -0.0014218058
0.06457846 -0.031209728 -0.04094995 -0.096402675 0.054124486 -0.1876675 0.0028303713 0.06977938
0.23384683 -0.11581601 0.053752277 -0.18448447 0.1540033 0.13291384 0.071573034 0.08260186
-0.13041982 0.1510904 -0.21002582 0.07414543 -0.039976165 0.12083174 0.072708346 -0.038629584
0.015125087 -0.121392384 0.12831655 -0.1952933 -0.20980448 -0.09720436 0.03413638 -0.16334833
0.040545426 0.016310867 0.13087219 -0.044913083 0.032992817 -0.16888314 -0.10542592 0.13157754
00000000: 08fb 22be cfbb 6e3e 1d18 003e fdc9 3c3d
00000010: d20e 17be 137d 4abd 02cb f03d 6eb8 e5bc
00000020: f9fa 92bd 66a4 333d f690 c83d dd39 26be
00000030: 0085 b1ba f738 b93d 3445 653d 036c 8b3e
00000040: a995 d43b 1f5d 07be 8b4c 02be 9c25 893e
00000050: 9ff8 ec3c 77a4 16be ae70 003e 9b81 163e
00000060: 98f9 74bc 919c 8e3e 4849 57bd a6a3 3cbe
00000070: b864 03be 05e2 353e 24f3 943d d707 b5bd
00000080: c411 033e 8325 d33d d8fa ebbd e869 4b3d
00000090: ef54 17bd 15af 213d c398 32be 5cc8 6abd
000000a0: 1cc2 373e c9f8 2f3d 46ca 07bc c2fc f23d
000000b0: 589f debc 50bb 16be 068a d03d c06a 173d
000000c0: 8f7c 023e f4e3 2d3e 7fe4 77bb dda7 6ebb
000000d0: 8931 10bc 5403 0ebe e9a0 8bbd d7b6 83bc
000000e0: d59a 49be a271 4f3e 95d0 babd 3f6b 04be
000000f0: 35f8 ccbd 1b76 893d e0d7 fd3c c8c3 b13b
00000100: 5437 e73d 3d4d be3c 58ab 763d f45b bc3d
00000110: 25e0 b8bd db38 0dbd 907c 1dbd 1e87 293e
00000120: 9487 f5bd 71dd 743d 147c bbbb 3735 953d
00000130: a020 38bc fe0f 873d db8f cabd 7ab3 12be
00000140: 9411 a43c e2fd aebc 4b48 cabd 3c92 9dbd
00000150: 1e94 253e 8fd0 27be f629 c6bc dc52 b6bc
00000160: de3c 10be 60d7 c2bc c2e4 95bd c323 46be
00000170: f720 2bbd 0eaf 83bd 852a 2fbe dc88 98bd
00000180: b44d 623a 7843 0abe 54e1 b53d 0e2f 08bd
00000190: 3a94 8abd 4d4e 3fbe 1dd3 44bd c330 533d
000001a0: f258 723d 4396 3bbd 9575 a33d 331d 25bd
000001b0: 7ba9 b8bd efd6 a53d 35b7 123e 1bb3 2dbe
000001c0: 732d 1f3e 654e 9cbd 6f80 14be c4d5 84bd
000001d0: ad2a 20be 6fb0 c9bd f2af 713c e35b baba
000001e0: b641 843d 8bab ffbc 23bb 27bd c46e c5bd
000001f0: a3b1 5d3d e92b 40be c07d 393b 7ee8 8e3d
00000200: 8b75 6f3e f230 edbd 592b 5c3d 7fe9 3cbe
00000210: 0bb3 1d3e 911a 083e e294 923d 2a2b a93d
00000220: c68c 05be 71b7 1a3e 0211 57be 8fd9 973d
00000230: 0cbe 23bd a276 f73d 1de8 943d 0e3a 1ebd
00000240: 37cf 773c 929c f8bd 6a65 033e f8fa 47be
00000250: fcd6 56be 1413 c7bd 97d2 0b3d c944 27be
00000260: f612 263d 5e9e 853c 5c03 063e c8f6 37bd
00000270: 7a23 073d b4ef 2cbe 8be9 d7bd 43bc 063e

layers.4.bias f4 [5]
0.028644448 -0.029687788 0.12068583 0.08495862 -0.13973445
00000000: c3a7 ea3c ce33 f3bc 222a f73d c9fe ad3d
00000010: 8c16 0fbe
