data/models/test_dc9_only/checkpoints/epoch_120.pt (torch, 6317 bytes, 6 tensors)

layers.0.weight f4 [16, 4]
00000000: 53e5 513e 2dde 21be 9f07 fabe fa00 60be
00000010: d7ea 163c 72c5 aa3d 9028 fcbe 52b7 0cbd
00000020: 3715 d5bd dcf9 83be 58b8 d7be f74d c6bd
00000030: f760 8cbe bae3 023f 71be 5f3c 864a 2d3d
00000040: 7085 04be 121b 10bf 21ee 003e 9fd9 42be
00000050: ada4 12bf ba1e 91bd fc59 3fbe ac99 393d
00000060: 84c5 22be 0c2f b4be 8806 d53e 88ce cb3e
00000070: d9f9 b2be 6c49 febe 9546 aebc 6571 e13d
00000080: d215 abbe cd4c f63d 2741 053f 2b97 efbe
00000090: 3b48 10be 6c59 d93e a99b 583e 4913 75be
000000a0: 846b 763e 6cd5 003e 9ec1 46be af09 e53e
000000b0: c6f3 a9bd 2a1c b5be 0bb0 d83e b43c e13e
000000c0: 1401 9bbd 7a8a aa3d 2690 df3e d4ff d1be
000000d0: 4718 9d3e 8f73 84be d8e3 3bbe 61fa d73e
000000e0: 4196 983e 92e6 e23d 5cea 0bbf 87b7 b93e
000000f0: cb22 de3e a0a8 f0bc 4b7d 80be 609e dd3e
0.20497636 -0.1580741 -0.4883394 -0.21875373 0.009211264 0.08338441 -0.49249697 -0.034354515
-0.10404437 -0.25776565 -0.4213283 -0.09682839 -0.27417728 0.51128733 0.013656245 0.0423074
-0.12941527 -0.56291306 0.12590839 -0.19028328 -0.57282525 -0.07085939 -0.1868667 0.04531257
-0.15895659 -0.35192144 0.41606545 0.39806008 -0.34956244 -0.4966539 -0.02127389 0.110079564
-0.33415085 0.12026367 0.5205254 -0.4679502 -0.14090054 0.42451036 0.2115313 -0.23933138
0.24064451 0.12581414 -0.19409797 0.4473395 -0.08298449 -0.3537305 0.4232181 0.43991625
-0.07568565 0.083271936 0.43664664 -0.41015494 0.30682585 -0.25869414 -0.18348634 0.4218321
0.29802135 0.11079134 -0.5465448 0.36272833 0.4338592 -0.029377282 -0.2509559 0.43284893

layers.0.bias f4 [16]
00000000: a422 91be 5922 163e 3bd0 743e 7708 11be
00000010: 0260 cfbe c193 6abc 323b 583d b2b0 d83c
00000020: f751 cb3e 1c93 c5be f9e5 71be 6324 21bd
00000030: 3367 52bd 29d9 46be f066 e73e 0b7f 483e
-0.2834674 0.1466154 0.23907559 -0.14163385 -0.40502936 -0.014317454 0.052790828 0.026451442
0.39710972 -0.38588798 -0.23622884 -0.03934134 -0.05136795 -0.19418778 0.45195723 0.19579713

layers.2.weight f4 [32, 16]
00000000: 583c ddbd fa1e 58be 9112 69be f63e bc3b
00000010: 2de4 19bd c146 a03c f09d 7dbb 2579 36be
00000020: 9985 5cbe 9bc5 93bd 717a c8bd 3b11 a63d
00000030: f19a 14be f9e7 0dbe 634b af3d 2456 0b3e
00000040: 8d4e b23d eed0 0f3e 0bb0 853d d268 24be
00000050: e203 a53e e404 acbe 616f 9cbd 5cc7 003d
00000060: 81b7 80be 4fdc c63d 41b3 1bbd ba71 093d
00000070: 5067 0f3e 18b3 153e e564 fcbd 7749 c43d
00000080: ef0d 98bd b652 a73d c60f 373d 773a 86bd
00000090: cbd8 89bd 1bf1 0fbd 6695 aabd 7cd1 113c
000000a0: 2512 7e3d 12ac d63d d86a dd3d a21b 2a3e
000000b0: d622 d43c 3ff6 b63d e961 dc3d 6685 49bd
000000c0: b91a 3bbd 8f80 f53d 11b5 2cbd e756 cdbc
000000d0: cf2c 773e 80da ca3d 0d41 d4bc 9d3e 7c3b
000000e0: 91b3 3d3e 8c53 653e df84 42bd 33c8 9fbe
000000f0: df26 383e 84e0 5b3d 53f6 a3bd 4134 76bd
00000100: da9c a3bc b7df 0dbb 366f 993d ea5d 383e
00000110: 987f 5c3d e989 2cbe 553c 3dbe a7dd aebc
00000120: 65f5 8e3e 30a0 2f3e eef6 183e f72f 5c3e
00000130: 2813 9a3d b491 34be 7f05 c13d de8c c73d
00000140: af7c ff3d b209 133e a512 38be ed22 403e
00000150: a692 643d 33ab 143e fc52 2abe 9932 1a3e
00000160: 460f f63d 8a31 5b3e 9873 253e 5e46 323e
00000170: 2797 0abe 0a0f 143c 1c20 1ebe 8a85 a43d
00000180: 5b87 4bbe cae1 22be d505 483e 0d18 3f3e
00000190: e0f6 c93d cc1d 6fbe e09e e2bd 9647 0dbe
000001a0: 882f 36be e002 f4bd fc7e 5f3e e0b2 b13c
000001b0: 8c21 9fbd 8335 713d a5cf a53d 2781 5fbe
000001c0: ba2d 89be da8c 003e 77d4 a9bd e620 073e
000001d0: 07d2 ee3c 7227 c2bd a4c7 183e 382a 0ebe
000001e0: 9ed6 6fbc ee7a 15be b669 783e 0393 25be
000001f0: 5c7a 1d3e 1956 813c 4db4 5a3e 834b 02be
00000200: ce44 e6bc 8391 093e 018c fe3d ab7c 68bd
00000210: ed58 143e b3a7 37be 2ff0 6c3e 6558 273e
00000220: 0871 07bc bacb 63bd bf22 5c3d 75f9 b0bd
00000230: 17cb 89bc 9cff b7bb 581c 9ebe 6e58 0abd
00000240: 40bb 3b3e 729d 903d 73a8 9dbc 3185 4abd
00000250: f6da 513d 3365 ba3c 864d cfbd c317 0c3e
00000260: d785 423e ca35 47be 5fc2 9cbd 153f 073d
00000270: 5aa6 68bd 4cb9 6ebe d34f 293e cac7 c23d
00000280: a641 673e a33d 1c3e 3b99 89be 4473 b7bc
00000290: 4874 38bd 2332 1f3e bac7 54be 6bdf 8e3c
000002a0: cca8 5e3e 132b 563d c27a f43d 33de dd3d
000002b0: 1a9b 2e3d 2032 35bc c4a2 f1bd 26b8 103e
000002c0: 944e 563d 3089 993d 0cca 3b3e 3759 03bd
000002d0: c531 d83d 78da d33c a416 ffbd 9cef e53d
000002e0: d267 32be e587 2dbe 040d 0a3e 6afc c73d
000002f0: b24c dbbc 46eb 28be 5db4 1c3e 358c 07bd
00000300: b857 783d 24b7 f1bd e05c 90bc bce8 f2bd
00000310: c0c6 24be 7c20 893d da1b 74be 40b0 973c
00000320: 0632 66be f06b 4e3d 081d 21be 0835 223d
00000330: 7ee0 03be 200b 1bbd 7462 2ebe b47f d33d
00000340: 0c9c 1f3e 7632 1dbe 1532 93be e9ae c1bd
00000350: 4ebf f03d 57df 84bd 4666 c0bd 2962 883d
00000360: b611 693e 11ea 233e 9db3 4dbe 2731 75bd
00000370: 7eb6 dbbd 01ab 333c 5861 5abe e939 0f3e
00000380: edb5 d73c 8920 78bd fb52 1cbe 3705 8d3d
00000390: ead3 18be 125a 723e f057 4fbe 705e 89bd
000003a0: 42b3 0bbd a485 313e be43 8abc 6dc4 563e
000003b0: 011b 443d 0173 18be f53c 39be b99b f7bb
000003c0: 78aa 313d 9c1a c1be d605 3bbb 2478 fcbd
000003d0: 1038 ab3e feed febd b7e9 523d 0ee5 c03d
000003e0: 42eb adbe ac66 1a3e 8cd1 00be d338 6b3b
000003f0: 0531 6bbe acff 033d f2e5 bb3d 8b42 cab8
-0.10802525 -0.21105567 -0.22760989 0.00574481 -0.03757112 0.019564988 -0.0038698874 -0.1781965
-0.21535338 -0.072154246 -0.09788979 0.08108755 -0.1451223 -0.13858022 0.08559301 0.13607079
0.087063886 0.14044544 0.06527718 -0.16055611 0.32229525 -0.3359748 -0.07638431 0.031440124
-0.25140002 0.09709989 -0.038012747 0.033555724 0.14004254 0.146191 -0.123239316 0.09584325
-0.074245326 0.08170073 0.044692777 -0.0655412 -0.06730803 -0.035142045 -0.08329277 0.008900043
0.062029023 0.104820386 0.108113945 0.16612104 0.025895517 0.089336865 0.107608624 -0.049199484
-0.04567978 0.11987411 -0.042164866 -0.025065852 0.24138187 0.09904957 -0.025909925 0.003848947
0.1852553 0.22395152 -0.047489997 -0.31207427 0.17983578 0.05368091 -0.08005967 -0.060108427
-0.019972254 -0.0021648237 0.07491915 0.18004575 0.05383262 -0.16849484 -0.18480046 -0.021345926
0.27921596 0.1715095 0.14937946 0.21502672 0.07523185 -0.17633706 0.094248764 0.09743665
0.124749534 0.14359167 -0.17975862 0.18763323 0.055803917 0.14518432 -0.16633219 0.15058364
0.12014632 0.21405616 0.16157377 0.17409655 -0.13534223 0.009036789 -0.15441936 0.08033283
-0.19875853 -0.15906444 0.19533475 0.18661518 0.09861541 -0.2335121 -0.11065459 -0.13796839
-0.17791569 -0.11914611 0.21825784 0.02169174 -0.077700704 0.058888923 0.08096246 -0.21826611
-0.267927 0.1255373 -0.082924776 0.13196144 0.029152883 -0.0948018 0.14919907 -0.13883293
-0.014638571 -0.14597675 0.24259076 -0.16169362 0.15378708 0.015788125 0.21357842 -0.12724118
-0.02810898 0.13434415 0.124290474 -0.056759518 0.14487047 -0.17935066 0.23138498 0.16342314
-0.008266695 -0.05561421 0.053744074 -0.0864133 -0.016820474 -0.005615188 -0.30881 -0.03377574
0.18333149 0.0706128 -0.019245362 -0.049443427 0.051234208 0.022753334 -0.10122208 0.1368094
0.18996368 -0.19454113 -0.07654261 0.033019144 -0.05679927 -0.23312873 0.16534357 0.09510763
0.22583637 0.15257888 -0.26874718 -0.02239383 -0.04503277 0.1554647 -0.20779315 0.017440518
0.21744078 0.052287173 0.11937477 0.10833397 0.042628385 -0.011059314 -0.11798623 0.14132747
0.05232103 0.074968696 0.18338794 -0.032067504 0.10556368 0.02586101 -0.1245549 0.112273425
-0.17422417 -0.16946371 0.13481528 0.09764941 -0.02676997 -0.16496 0.15303178 -0.033092696
0.06063053 -0.118025094 -0.017622411 -0.11860797 -0.16091442 0.06695649 -0.2383875 0.01851666
-0.2248002 0.050395906 -0.15733731 0.039601356 -0.12878606 -0.037852407 -0.17029744 0.10327092
0.15586871 -0.1535128 -0.28749147 -0.094571896 0.117552385 -0.06487911 -0.09394507 0.066593476
0.22760662 0.16007258 -0.20088048 -0.05986133 -0.10728167 0.0109660635 -0.21326196 0.13986935
0.026331866 -0.060577903 -0.1526603 0.0688576 -0.14924589 0.23667172 -0.20248389 -0.06707466
-0.0341065 0.17336136 -0.016878005 0.20973368 0.047877315 -0.1488762 -0.1808966 -0.0075564054
0.043375462 -0.37715614 -0.0028537414 -0.123276025 0.3344121 -0.12447737 0.05149242 0.09418689
-0.3396855 0.15078229 -0.12579936 0.0035892024 -0.22967918 0.03222625 0.09174718 -9.644505e-05

layers.2.bias f4 [32]
00000000: cb6e 653d 8f4b 3a3e a996 d63d 6247 29be
00000010: da8c fb3c b0ae 3a3e c9a2 67be b65d 3ebe
00000020: 2aa5 7d3d 75c8 1f3c f4ae 3fbe 251c 03be
00000030: a030 4cbd c90c 34bd 4e01 883e a260 be3d
00000040: 2bc9 91bd d953 2e3d 3e62 123c 265b 2d3d
00000050: 8dc6 73be db57 5e3d f78a 51be 3656 133d
00000060: 1d77 2bbe 1345 6b3b 2981 6b3e c4da eebd
00000070: 214e 5a3e 40de 0a3e 4a87 6ebe bce2 2e3e
0.056013864 0.18192886 0.10477955 -0.16531137 0.030706812 0.182307 -0.22620691 -0.18590435
0.06192509 0.0097523825 -0.18719083 -0.12803705 -0.04985106 -0.043957505 0.26563495 0.09295775
-0.07118448 0.042560432 0.008934556 0.042323254 -0.2380621 0.054283004 -0.20463167 0.03597089
-0.16744657 0.0035899326 0.2299849 -0.1166282 0.21318866 0.13561344 -0.23293796 0.1707868

layers.4.weight f4 [5, 32]
00000000: c91f 23be f90a 6f3e 6010 003e b763 3d3d
00000010: c808 17be aae7 4abd 02cb f03d dfc1 e4bc
00000020: 2902 93bd 9661 333d dff6 c83d 6272 26be
00000030: 0085 b1ba 10ee b83d 9e88 653d 5bbb 8b3e
00000040: b1a6 d23b cc6e 07be 294f 02be a43b 893e
00000050: 519a ed3c 14d3 16be ba3d 003e 8fa6 163e
00000060: a22a 77bc cae4 8e3e e958 57bd 7da4 3cbe
00000070: 47d1 03be b558 363e 24f3 943d e123 b5bd
00000080: b4f1 023e 384e d33d 70f4 ebbd 3989 4b3d
00000090: 7c56 17bd 418e 213d c398 32be 0675 6abd
000000a0: 47b4 373e 59c7 2f3d 9d26 07bc b8a5 f23d
000000b0: 589f debc 2fd4 16be d7c5 d03d 880b 183d
000000c0: 147c 023e 39e4 2d3e 46fb 7abb e91e 67bb
000000d0: 1289 0ebc f214 0ebe 06dd 8bbd 24b7 83bc
000000e0: a9e4 49be 9db1 4f3e 6af0 babd f28b 04be
000000f0: 1169 cdbd 0222 8a3d e0d7 fd3c 6699 b13b
00000100: 8fd8 e63d b138 bd3c 7cca 763d 2c3f bc3d
00000110: 3ed8 b8bd 2214 0dbd 907c 1dbd 8672 293e
00000120: c481 f5bd c71b 753d 2f39 bdbb cf83 953d
00000130: a020 38bc e74f 873d ec8b cabd 5f0e 13be
00000140: 8754 a43c 1751 afbc 3952 cabd 24ad 9dbd
00000150: 4aa5 253e e3ad 27be f406 c5bc 290c b7bc
00000160: 7546 10be 0551 c4bc d6c2 95bd 1480 46be
00000170: e431 2abd 7ffc 83bd 852a 2fbe f86f 98bd
00000180: d188 783a fb63 0abe fce4 b53d 326b 08bd
00000190: b69e 8abd ba3c 3fbe 1dd3 44bd 8518 533d
000001a0: ce98 723d ff3f 3bbd 3467 a33d 3862 24bd
000001b0: 7ba9 b8bd f307 a63d b4a1 123e ebf6 2dbe
000001c0: e544 1f3e 1c36 9cbd 9f71 14be e33f 85bd
000001d0: c03d 20be 3264 c9bd 44e7 733c f31d c1ba
000001e0: 42bc 843d 106a 01bd 74c2 27bd 0fed c4bd
000001f0: f79d 5e3d f773 40be c07d 393b 71fa 8e3d
00000200: 3cce 6f3e 8e7a edbd 4810 5c3d 2cfa 3cbe
00000210: a3ae 1d3e d222 083e e294 923d 0f00 a93d
00000220: 548c 05be 3db0 1a3e bb37 57be b9f8 973d
00000230: 0cbe 23bd 6b82 f73d 6baf 943d a67e 1fbd
00000240: 8ad0 763c 6d7e f8bd 8d6c 033e 450d 48be
00000250: f909 57be 951c c7bd f0fa 0b3d f144 27be
00000260: 0efe 263d 59ce 823c 4508 063e c307 37bd
00000270: 63eb 073d c067 2dbe 8be9 d7bd 2bb5 063e
-0.15930094 0.2334403 0.12506247 0.046237674 -0.14749444 -0.04953734 0.11757471 -0.027924476
-0.071781464 0.043794237 0.09812712 -0.16254571 -0.0013543665 0.09029782 0.05603849 0.27291378
0.0064285626 -0.1322586 -0.1272551 0.26803315 0.029004248 -0.14728957 0.12523547 0.14711975
-0.015085848 0.27908927 -0.052575026 -0.18422122 -0.12872802 0.17807277 0.07272938 -0.08844734
0.12787515 0.103176534 -0.11521232 0.049691413 -0.036947712 0.039442305 -0.17441086 -0.05724051
0.17939864 0.042914722 -0.008248952 0.118480146 -0.02717559 -0.14729379 0.10193985 0.037120372
0.12742645 0.16981591 -0.0038296743 -0.0035266227 -0.008699672 -0.13875178 -0.06829266 -0.01607854
-0.19716133 0.20282598 -0.091278866 -0.1294401 -0.100298055 0.06744768 0.030986726 0.005419898
0.11271774 0.023098322 0.060251698 0.091917366 -0.0902562 -0.03444303 -0.03844887 0.16547593
-0.119876415 0.059840944 -0.005774639 0.07300531 -0.011238247 0.06607037 -0.09889969 -0.14360951
0.020059837 -0.021400971 -0.09878964 -0.076990396 0.16176334 -0.16374926 -0.024051167 -0.022344666
-0.14089377 -0.023964414 -0.07312553 -0.19384795 -0.041551486 -0.06444644 -0.17106064 -0.07443231
0.00094808365 -0.13514702 0.08881566 -0.033305354 -0.06768553 -0.18675509 -0.048052896 0.051537056
0.059227757 -0.04571533 0.07978669 -0.04013273 -0.09016701 0.08106985 0.14319497 -0.16988723
0.15553625 -0.07627508 -0.14496468 -0.06506326 -0.15648556 -0.09833564 0.014886681 -0.0014733657
0.0648122 -0.03159529 -0.04095693 -0.09615528 0.054349866 -0.18794237 0.0028303713 0.06981362
0.23418516 -0.11595641 0.053726465 -0.18454808 0.1539865 0.13294533 0.071573034 0.08251964
-0.13041812 0.15106292 -0.21017353 0.07420487 -0.039976165 0.12085422 0.07260021 -0.03893914
0.015064368 -0.12133489 0.12834378 -0.19536312 -0.20999898 -0.097222485 0.03417486 -0.16334893
0.04076963 0.015967535 0.13089092 -0.044685137 0.033183467 -0.16934109 -0.10542592 0.13155048

layers.4.bias f4 [5]
00000000: 34ff ea3c 89e8 f2bc c21c f73d cbe4 ad3d
00000010: 9f17 0fbe
0.028686143 -0.029651897 0.12066032 0.084909044 -0.13973854
